models/optweezer/15tcpdbl/checkpoints/epoch=0-step=23.ckpt (torch, 789231 bytes, 18 tensors)

exp_avg f4 [504, 1]
-5.17141e-07 7.3819792e-06 4.5389297e-06 1.0315385e-06 -2.1087108e-06 1.0611719e-05 -4.8875233e-07 5.2565804e-07
3.426045e-06 1.4777667e-06 7.3710345e-07 -1.6980826e-07 -5.442639e-07 1.0777981e-06 3.0968224e-07 -2.2921178e-08
2.2801589e-07 -1.4441886e-05 7.087725e-07 -1.50834985e-05 7.6111286e-07 1.819785e-06 3.800777e-08 8.7252266e-07
-4.133187e-06 5.974575e-06 6.735495e-07 7.894883e-07 -1.9308654e-07 -1.4997775e-06 -1.3640583e-06 9.102355e-08
1.3193003e-08 1.6071001e-06 2.8517754e-06 5.6440957e-08 4.899533e-07 -3.8311515e-07 9.1150986e-07 -3.2190349e-07
-1.8208542e-08 -2.5612704e-07 -2.4124398e-07 -1.4998493e-08 -6.074054e-07 4.0977667e-07 -1.1463393e-05 2.553252e-06
-2.2706631e-07 -1.9615244e-07 -3.180659e-06 -6.201265e-09 -2.4979875e-06 -1.7442395e-07 2.6854853e-08 4.532761e-07
-4.750842e-06 -2.8636032e-07 2.3568307e-06 -4.8889406e-06 4.3374094e-08 8.633825e-08 4.611019e-06 -1.7022367e-06
5.4448924e-06 1.0019385e-06 -2.443496e-07 -1.3612406e-06 7.8597833e-07 6.265902e-06 -2.3350321e-06 6.6041293e-06
3.3988835e-07 -2.8156154e-07 7.438386e-08 1.2123571e-06 2.2637663e-07 2.1114854e-05 4.056447e-08 -9.548837e-07
2.008142e-07 -4.474491e-06 7.6503864e-07 4.8936836e-06 -1.2609812e-07 -1.9174061e-07 -3.1541504e-07 -4.8608035e-07
-1.3386525e-06 1.0516113e-06 -3.8568546e-06 2.0995285e-06 1.7641424e-06 1.0590738e-06 -1.1970043e-06 1.5778407e-06
2.2437123e-06 5.243261e-06 9.177634e-06 -1.1706289e-06 -2.7307797e-06 2.2053482e-06 -1.434801e-07 -8.035673e-06
5.107182e-06 -8.181367e-07 2.2207735e-07 1.7857946e-07 1.521952e-06 8.758681e-08 3.5869368e-06 -8.1682965e-06
1.553181e-06 -2.204685e-07 2.8203822e-06 8.567394e-06 -1.3222356e-05 1.1299841e-06 -5.490696e-07 2.4570452e-06
4.4834027e-07 -3.0296127e-07 1.4321645e-06 -6.296247e-07 -2.9674982e-06 -6.5552535e-07 -6.5544197e-07 6.706943e-06
4.3177897e-06 1.0344462e-06 -2.1314802e-06 1.0073164e-05 -5.439605e-07 5.87235e-07 3.2425924e-06 1.3962485e-06
8.4731647e-07 -1.7210112e-07 -5.4108745e-07 1.0840675e-06 2.8902343e-07 -2.9798981e-08 2.4974528e-07 -1.42013e-05
5.924743e-07 -1.4905757e-05 6.897475e-07 1.7252144e-06 -1.1035289e-08 8.205838e-07 -4.455741e-06 5.4205316e-06
3.572192e-07 8.144107e-07 -1.7971395e-07 -1.389515e-06 -1.3661825e-06 1.0614439e-07 1.005435e-08 1.4172134e-06
2.7613903e-06 1.8700447e-08 4.566458e-07 -3.4237772e-07 8.925132e-07 -4.7492895e-07 -4.9091465e-08 -2.5278067e-07
-2.1021174e-07 -1.651512e-08 -5.956911e-07 3.4920572e-07 -1.260019e-05 2.8872125e-06 -1.687042e-07 -1.911267e-07
-3.283551e-06 -3.1715274e-08 -2.4684668e-06 -1.5353719e-07 -4.4480752e-09 4.788805e-07 -4.6796345e-06 -2.5931976e-07
2.8113714e-06 -4.92167e-06 4.579509e-08 8.391883e-08 4.5126376e-06 -1.6322883e-06 5.8990463e-06 1.338678e-06
-2.009467e-07 -1.3364928e-06 8.233288e-07 6.2411355e-06 -2.477414e-06 7.3553188e-06 3.3721946e-07 -2.4161608e-07
6.5364176e-08 1.17355e-06 2.3787769e-07 2.2695214e-05 -1.07756035e-08 -8.506004e-07 2.2107749e-07 -4.5036563e-06
7.238895e-07 3.8306857e-06 -9.775623e-08 -1.2511902e-07 -2.7013527e-07 -4.2445853e-07 -1.234728e-06 1.1470389e-06
-4.474785e-06 2.0778953e-06 1.7195464e-06 1.0616118e-06 -1.1205955e-06 1.412643e-06 2.4045646e-06 5.2129694e-06
1.0607561e-05 -1.2721506e-06 -3.0489614e-06 1.9114252e-06 -1.4431345e-07 -8.179299e-06 4.5327347e-06 -9.261377e-07
2.4833202e-08 1.5498101e-07 1.5469143e-06 4.6241794e-08 3.6315812e-06 -8.183904e-06 1.4022064e-06 -2.0655123e-07
2.9651537e-06 7.500998e-06 -1.5251019e-05 1.0746091e-06 -5.5791253e-07 2.8665445e-06 4.747002e-07 -2.9218597e-07
1.016578e-06 -6.12865e-07 -2.9493772e-06 -5.654658e-07 -4.314602e-05 0.00020464158 6.747599e-05 -6.276662e-05
00000000: a9d1 0ab5 b8b2 f736 1c4d 9836 6573 8a35
00000010: 6083 0db6 fc08 3237 ce32 03b5 f21a 0d35
00000020: 01eb 6536 ad57 c635 5ddd 4535 8a54 36b4
00000030: 8819 12b5 dca8 9035 6742 a634 34e4 c4b2
00000040: 88d4 7434 6e4b 72b7 7a42 3e35 220f 7db7
00000050: 474f 4c35 563f f435 fc3d 2333 4d37 6a35
00000060: ceaf 8ab6 3579 c836 f8cd 3435 39ed 5335
00000070: 3953 4fb4 f64b c9b5 b014 b7b5 ba78 c333
00000080: 71a7 6232 8ab3 d735 2161 3f36 7d69 7233
00000090: 5685 0335 f2ae cdb4 7bae 7435 14d2 acb4
000000a0: 0269 9cb2 d581 89b4 5284 81b4 09d6 80b2
000000b0: 950c 23b5 47ff db34 e652 40b7 8958 2b36
000000c0: 83cf 73b4 f99d 52b4 4e73 55b6 e712 d5b1
000000d0: 19a3 27b6 4a49 3bb4 72ae e632 cb59 f334
000000e0: 6c69 9fb6 10bd 99b4 0b2a 1e36 ae0b a4b6
000000f0: 524a 3a33 f468 b933 5ab8 9a36 6878 e4b5
00000100: 45b3 b636 587a 8635 272f 83b4 dfb3 b6b5
00000110: 05fc 5235 b03f d236 8cb3 1cb6 0a99 dd36
00000120: e679 b634 8629 97b4 f6bc 9f33 46b8 a235
00000130: ef11 7334 ce1f b137 1b39 2e33 8e29 80b5
00000140: 639f 5734 9623 96b6 0e5d 4d35 6c34 a436
00000150: 9665 07b4 42e1 4db4 5056 a9b4 307b 02b5
00000160: c0ab b3b5 1725 8d35 216a 81b6 a0e5 0c36
00000170: 79c7 ec35 8025 8e35 c1a8 a0b5 32c6 d335
00000180: af92 1636 45ef af36 a3f9 1937 811e 9db5
00000190: 7042 37b6 98ff 1336 820f 1ab4 f4d0 06b7
000001a0: 5c5e ab36 ed9d 5bb5 2874 6e34 8cbf 3f34
000001b0: df45 cc35 5c17 bc33 1bb7 7036 910a 09b7
000001c0: e576 d035 ebb9 6cb4 cc45 3d36 adbc 0f37
000001d0: 96d5 5db7 f5a9 9735 c763 13b5 b7e3 2436
000001e0: 6bb3 f034 aea6 a2b4 cc38 c035 7b03 29b5
000001f0: 3b25 47b6 5cf7 2fb5 a1f1 2fb5 340c e136
00000200: 88e1 9036 4dd7 8a35 8d0a 0fb6 e9ff 2837
00000210: ae04 12b5 7ba2 1d35 509b 5936 bc66 bb35
00000220: 2573 6335 ccca 38b4 3f3f 11b5 4780 9135
00000230: 142b 9b34 a7f8 ffb2 bb14 8634 1e42 6eb7
00000240: 860a 1f35 bd13 7ab7 1627 3935 ea8d e735
00000250: b795 3db2 1746 5c35 8682 95b6 03e2 b536
00000260: d5c7 bf34 e19d 5a35 65f7 40b4 5f7f bab5
00000270: ac5d b7b5 7ff1 e333 80bb 2c32 1537 be35
00000280: 5350 3936 b8a2 a032 ec28 f534 09d0 b7b4
00000290: 0a95 6f35 bdf9 feb4 a3d8 52b3 e9b5 87b4
000002a0: 90b6 61b4 22dd 8db2 95e7 1fb5 787a bb34
000002b0: 6765 53b7 efc1 4136 0f25 35b4 8238 4db4
000002c0: fa5a 5cb6 5037 08b3 f0a7 25b6 fbdb 24b4
000002d0: afd5 98b1 6b8c 0035 c105 9db6 a338 8bb4
000002e0: feaa 3c36 d324 a5b6 3cb0 4433 dd36 b433
000002f0: 436b 9736 0015 dbb5 6cf0 c536 a0ac b335
00000300: cfc3 57b4 8b61 b3b5 b902 5d35 f26a d136
00000310: a641 26b6 b5cd f636 170b b534 76b7 81b4
00000320: 565e 8c33 df82 9d35 526b 7f34 9a61 be37
00000330: 9b1f 39b2 d054 64b5 5161 6d34 1d1e 97b6
00000340: 4f51 4235 5789 8036 0eee d1b3 7458 06b4
00000350: 1c07 91b4 23e1 e3b4 eeb8 a5b5 f5f3 9935
00000360: 1c26 96b6 f871 0b36 2acb e635 b47c 8e35
00000370: 5e67 96b5 0b9a bd35 1b5e 2136 11eb ae36
00000380: 21f7 3137 c3be aab5 c29c 4cb6 0946 0036
00000390: 94f4 1ab4 d239 09b7 e517 9836 b39b 78b5
000003a0: ca50 d532 db68 2634 929f cf35 649b 4633
000003b0: 17b6 7336 9a4d 09b7 7233 bc35 5fc8 5db4
000003c0: f4fc 4636 15b1 fb36 a1de 7fb7 4a3b 9035
000003d0: 75c3 15b5 dc5e 4036 4cda fe34 bcdd 9cb4
000003e0: 5b71 8835 c383 24b5 eaed 45b6 84ca 17b5
000003f0: b0f7 34b8 0e95 5639 e581 8d38 93a1 83b8

exp_avg_sq f4 [504, 1]
4.6964505e-13 2.1922755e-11 8.173732e-12 2.0245683e-13 1.1287209e-12 5.4198875e-11 9.514724e-13 4.7800295e-13
8.285392e-12 9.048573e-13 7.767406e-14 2.8538912e-12 8.0227616e-13 3.7057916e-13 1.4059167e-13 1.4467517e-13
1.5514928e-13 8.1229586e-11 7.4251416e-14 4.743657e-11 2.434291e-13 4.5621866e-12 9.9567395e-14 3.4019364e-13
7.666328e-12 1.7636333e-11 8.473182e-14 2.1220955e-13 1.7910263e-14 1.3810772e-12 9.840679e-13 9.083838e-15
2.1163671e-16 8.6492776e-13 1.3080663e-11 2.7702562e-15 3.1878666e-13 6.259217e-13 2.5956253e-13 5.1579726e-13
2.4745236e-14 1.1771804e-13 2.5240125e-14 3.6726817e-16 8.0733536e-14 5.4578216e-14 1.7679752e-11 1.6619695e-12
2.8302325e-13 7.217994e-14 2.9491483e-12 1.2447843e-13 1.5726287e-11 9.105123e-13 4.052347e-15 1.7382723e-13
4.974382e-12 1.1649035e-13 4.082138e-12 1.4964328e-11 1.793775e-14 3.018194e-14 1.1371261e-11 7.638174e-13
1.0066674e-11 1.2924688e-12 1.1799538e-11 1.0498669e-13 1.1309602e-13 8.654466e-12 1.7227508e-12 1.3793743e-11
5.6700226e-14 6.702442e-14 4.61302e-13 5.1430935e-13 1.2592559e-14 5.5494442e-11 5.2377048e-14 6.942641e-13
1.0678723e-13 2.823502e-11 2.2352478e-12 1.2864397e-11 1.012824e-14 1.72876e-14 1.8143436e-13 1.007453e-13
1.0723266e-12 7.99994e-13 9.8435825e-12 1.8752836e-12 1.5979878e-12 6.119137e-13 6.3799487e-13 1.3576545e-12
1.820946e-12 1.1370198e-11 4.0010318e-11 2.520142e-12 2.1855011e-12 1.6621798e-12 1.0098762e-14 3.5958247e-11
5.5817248e-12 2.0942819e-13 2.1323457e-13 1.05510896e-13 6.004874e-13 1.910425e-14 1.2983875e-11 2.8114653e-11
4.933929e-13 6.132891e-14 4.6294782e-12 2.2917014e-11 4.10198e-11 9.839593e-14 5.061278e-14 1.3365613e-12
5.8270195e-14 7.067407e-14 8.5987164e-13 3.5789614e-13 3.0466075e-12 2.3091026e-13 4.0702448e-13 1.7744436e-11
7.4387675e-12 2.0289594e-13 1.1295861e-12 4.972811e-11 9.713594e-13 5.613454e-13 7.347636e-12 8.224426e-13
1.0110702e-13 3.1320285e-12 7.25561e-13 3.8516548e-13 1.0887635e-13 1.4504897e-13 1.5041821e-13 7.926098e-11
5.280638e-14 4.484427e-11 1.7619382e-13 4.0050003e-12 9.493271e-14 3.322235e-13 8.643233e-12 1.3476828e-11
3.5883033e-14 2.2414128e-13 1.5718651e-14 1.1980799e-12 9.870467e-13 9.341535e-15 2.4779237e-16 6.846935e-13
1.1644816e-11 2.5329565e-15 2.782694e-13 5.071324e-13 2.538578e-13 6.239663e-13 2.1790692e-14 1.1934884e-13
2.0903813e-14 3.6800275e-16 7.5999584e-14 3.1987525e-14 2.1350987e-11 2.1162275e-12 2.2982674e-13 6.861126e-14
2.9898837e-12 1.5908489e-13 1.5141487e-11 7.679679e-13 8.7631016e-16 1.7343336e-13 4.9356244e-12 1.0175987e-13
4.8003216e-12 1.4993059e-11 1.9423028e-14 2.1565938e-14 1.07358315e-11 6.752678e-13 1.17761296e-11 1.7926636e-12
1.1968386e-11 1.02716135e-13 1.2584875e-13 7.294587e-12 1.9384605e-12 1.6744215e-11 3.069531e-14 7.44443e-14
4.3407896e-13 4.687667e-13 1.420542e-14 6.414987e-11 4.8383088e-14 6.9047524e-13 1.1764214e-13 2.9086537e-11
1.8384786e-12 7.617179e-12 3.704214e-15 1.2027578e-14 2.3250163e-13 9.78463e-14 9.0078823e-13 7.8602673e-13
1.2480733e-11 1.8519496e-12 1.3539815e-12 5.53806e-13 4.781611e-13 1.1283093e-12 1.9805303e-12 1.117291e-11
5.3195632e-11 3.0223224e-12 2.492392e-12 1.2627564e-12 1.1100609e-14 3.785553e-11 4.169163e-12 2.687677e-13
1.4911167e-13 9.289994e-14 6.566953e-13 2.3482039e-14 1.3639918e-11 2.812965e-11 3.9589003e-13 4.3427132e-14
4.9666772e-12 1.808761e-11 5.2811797e-11 8.967632e-14 5.155839e-14 1.7981896e-12 3.9417563e-14 6.319727e-14
6.0665893e-13 3.4887837e-13 3.0426957e-12 1.7198974e-13 1.4253757e-09 1.6561645e-08 1.7895696e-09 9.1725016e-10
00000000: 7e31 042b a8d5 c02d 37cb 0f2d 35f2 632a
00000010: 75da 9e2b 825e 6e2e 68e8 852b be8b 062b
00000020: 17c2 112d d7b1 7e2b 0ce8 ae29 22d3 482c
00000030: 17d2 612b 169e d02a ca4a 1e2a c7e3 222a
00000040: bcae 2e2a 31a0 b22e 0733 a729 d4a0 502e
00000050: d509 892a 8684 a02c b234 e029 1283 bf2a
00000060: 12de 062d 7e21 9b2d 92cc be29 3ded 6e2a
00000070: 4152 a128 8d5e c22b c87e 8a2b cfa3 2328
00000080: 2200 7425 9d74 732b 121e 662d 359e 4727
00000090: 0076 b32a 692e 302b e71e 922a 1c2f 112b
000000a0: a1e2 de28 ea89 042a c457 e328 37b7 d325
000000b0: b7cb b529 66cc 7529 4383 9b2d c3e6 e92b
000000c0: f353 9f2a e788 a229 2287 4f2c 7726 0c2a
000000d0: 7354 8a2d aa24 802b 4e00 9227 4ab6 432a
000000e0: 4005 af2c 0f28 032a a1a0 8f2c aca0 832d
000000f0: a391 a128 68ed 0729 9b0b 482d d8fe 562b
00000100: 4518 312d 19e6 b52b 6594 4f2d b568 ec29
00000110: 6bab fe29 4040 182d a474 f22b 7fa9 722d
00000120: e95a 7f29 f3ec 9629 50d8 012b e5c3 102b
00000130: eed8 6228 3011 742e a0e2 6b29 006b 432b
00000140: a676 f029 9d5b f82d a54a 1d2c 1850 622d
00000150: 4374 3628 7eb6 9b28 e546 4c2a b6db e229
00000160: a3ea 962b a52d 612b 8e2b 2d2d 1bf6 032c
00000170: 94e5 e02b 073d 2c2b 6094 332b a912 bf2b
00000180: 3f23 002c d206 482d 9df7 2f2e d856 312c
00000190: 7dca 192c 57ee e92b 52ec 3528 6325 1e2e
000001a0: b563 c42c 91cb 6b2a ae14 702a e496 ed29
000001b0: ad05 292b 6713 ac28 2d6a 642d 924c f72d
000001c0: b5e0 0a2b b619 8a29 a2e2 a22c 8794 c92d
000001d0: 3068 342e 6491 dd29 90f0 6329 b21a bc2b
000001e0: 7b36 8329 d424 9f29 4808 722b 457a c92a
000001f0: cd62 562c adfd 812a 6922 e52a eb14 9c2d
00000200: 3bdd 022d c670 642a a1f9 9e2b e0b4 5a2e
00000210: e9b4 882b 3301 1e2b d042 012d 3c7f 672b
00000220: 3bac e329 9c65 5c2c 2e3a 4c2b 32d4 d82a
00000230: f12a f529 854f 232a 195b 292a f74b ae2e
00000240: 9cd1 6d29 293a 452e 6960 462a d6e9 8c2c
00000250: fbc4 d529 7406 bb2a a90d 182d 3d16 6d2d
00000260: 529a 2129 535c 7c2a be94 8d28 619d a82b
00000270: 1bea 8a2b 3a48 2828 b3d7 8e25 5eb9 402b
00000280: 97db 4c2d cd84 3627 d9a6 9c2a bebe 0e2b
00000290: c4e8 8e2a 83a1 2f2b ea45 c428 f65f 062a
000002a0: e948 bc28 9f23 d425 c722 ab29 1b0f 1029
000002b0: 26ce bb2d 91ea 142c 8661 812a b37f 9a29
000002c0: f564 522c 191d 332a 992f 852d eb29 582b
000002d0: 4794 7c26 c344 432a 27a8 ad2c 9224 e529
000002e0: 74e5 a82c 5ee1 832d 74f2 ae28 ab3f c228
000002f0: e3dd 3c2d 2c12 3e2b f92a 4f2d 834b fc2b
00000300: d28c 522d d24b e729 6fb1 0d2a e653 002d
00000310: 3368 082c 9f48 932d 483d 0a29 38a2 a729
00000320: 5f5d f42a 33f2 032b f0e6 7f28 2b11 8d2e
00000330: e7e5 5929 fc59 422b 0a74 042a 0fd9 ff2d
00000340: 165f 012c b900 062d 5875 8527 6aab 5828
00000350: 04e3 822a 8d54 dc29 a28c 7d2b 323f 5d2b
00000360: 3990 5b2d c251 022c 538e be2b eee1 1b2b
00000370: 2397 062b a0cb 9e2b 105e 0b2c 508e 442d
00000380: f5f4 692e 52ad 542c f162 2f2c 98b7 b12b
00000390: 86f8 4728 8a7d 262e 7bb0 922c 824d 972a
000003a0: 83e2 272a 2b31 d129 e2d7 382b e581 d328
000003b0: bbf4 6f2d 576e f72d c4dd de2a 1394 4329
000003c0: dabf ae2c ad19 9f2d cc44 682e e1ee c929
000003d0: c732 6829 9c12 fd2b 5b85 3129 bf4e 8e29
000003e0: 62c2 2a2b ac66 c42a 551c 562c aba4 412a
000003f0: f3e6 c330 7143 8e32 e2f4 f530 be21 7c30

exp_avg f4 [504, 126]
-2.7691353e-08 -5.8729704e-08 -1.2777801e-07 3.5537816e-08 -1.468519e-07 -1.2840474e-07 -1.5068147e-07 8.4046775e-08
-1.5866105e-07 -4.963306e-09 5.9875575e-08 1.6414924e-07 -8.352312e-08 4.961461e-08 -1.8724354e-08 1.1456613e-07
1.6149221e-07 -1.1980043e-07 1.4425592e-08 -9.149024e-08 -2.0687194e-08 -5.7048258e-08 7.7970846e-08 1.662324e-07
-1.3312858e-07 -1.01917756e-07 -5.6182823e-09 7.558064e-08 2.6978503e-08 -1.8476621e-07 -8.739733e-08 2.5148575e-08
7.1203567e-09 7.751465e-08 -9.522421e-08 5.6329643e-09 5.1920964e-08 -2.3239563e-08 -7.369582e-08 -8.257172e-08
4.4237805e-08 7.578546e-08 5.252934e-08 1.0461325e-08 5.179531e-08 1.695444e-09 -1.4408455e-07 1.3532144e-07
5.8170826e-08 2.5462262e-08 -1.1818818e-07 7.546939e-08 -9.907543e-08 8.720348e-08 1.5821866e-08 9.842297e-08
-8.728762e-08 3.719698e-08 -6.4296515e-08 -1.2785979e-07 3.6009656e-08 6.397495e-08 1.8700925e-07 1.011093e-07
-1.9536915e-07 -4.7109864e-08 -8.974623e-08 7.4767e-08 6.578964e-08 -6.59265e-08 -4.7275822e-08 -4.8757418e-08
1.9422409e-08 7.6302065e-08 -4.0271303e-08 1.4306119e-07 3.8229942e-08 -1.10662576e-07 -4.4622574e-08 -3.6590635e-08
9.0002274e-08 -1.4884273e-07 -2.6109507e-08 -4.1592735e-08 -4.992752e-09 -7.062176e-09 7.6031e-08 5.471641e-08
1.5662033e-07 -3.227842e-08 -6.180169e-08 1.1693853e-07 8.8704546e-08 1.14881225e-07 -3.8447645e-08 1.5476162e-07
-8.316967e-08 -7.689565e-08 -1.6221777e-07 -1.0399017e-07 -2.0210292e-08 -2.7350383e-08 -3.753627e-09 -1.5949503e-07
-5.1521848e-08 -7.350695e-08 -1.8944363e-08 5.2246456e-08 -1.2130293e-07 4.052907e-08 -1.3982103e-07 -5.6837415e-08
1.6824556e-07 3.333806e-08 1.8616439e-07 -1.09179624e-07 -1.2577279e-07 9.859057e-08 -1.4213443e-08 1.8133622e-07
4.0367556e-08 -7.163946e-08 -1.0307354e-08 1.1771794e-07 1.805022e-07 -1.4121518e-08 2.7545929e-07 1.0367413e-07
3.6791948e-07 2.521096e-08 2.1308252e-07 1.5527571e-07 4.5471137e-07 -1.0719931e-07 5.048898e-07 -6.359742e-08
-2.0723776e-07 -6.3826076e-07 1.3510663e-07 6.572198e-09 -5.8369814e-08 -4.6077284e-07 -2.9795513e-07 4.966253e-07
4.5252953e-08 1.8149125e-08 -1.1197062e-07 6.46296e-08 -3.6068238e-07 -5.698377e-07 1.2681397e-07 1.3669036e-07
-2.3530939e-07 -1.961879e-07 -8.0504805e-08 3.2565305e-07 1.11022395e-07 -2.0622389e-07 -2.9086948e-08 -7.364905e-08
1.16549636e-07 1.5756514e-08 -7.727095e-08 -5.069914e-08 1.2021712e-07 4.391822e-07 7.6358454e-08 -1.06579144e-07
-8.034909e-08 -3.3874365e-08 -6.9056036e-08 1.9046408e-07 3.8925026e-07 -3.2780946e-07 -1.9698902e-08 4.8538677e-08
4.0065112e-07 3.956634e-08 3.2808728e-07 -2.5968043e-07 8.296175e-09 -1.6974838e-07 1.9897134e-07 -1.805327e-07
3.1505536e-07 3.8894416e-07 -1.05452415e-07 -2.1569527e-07 -6.4720973e-07 -3.1618814e-07 5.139288e-07 2.2457087e-07
1.075302e-07 -1.9986697e-08 -9.932456e-08 -1.356483e-08 2.5185554e-07 2.1339778e-07 1.2564689e-07 -4.499882e-07
1.022594e-07 -4.99884e-07 -7.88139e-08 4.1225846e-07 -3.2574743e-08 -1.6944991e-08 -2.898168e-07 3.5683533e-07
2.8189146e-07 -1.02577545e-07 1.7198104e-07 1.0712772e-07 -3.594738e-07 8.766836e-09 -3.4705886e-07 2.5709895e-07
3.2066367e-07 -3.6856633e-07 -3.7467845e-07 -4.5569524e-07 2.7265006e-07 -5.9964816e-07 3.3175766e-07 3.3011966e-07
4.8705135e-07 2.0761365e-07 1.256218e-07 -1.189631e-07 8.0681515e-09 2.4893802e-07 5.765614e-08 3.7529034e-07
-1.1539319e-07 -9.8752494e-08 5.491682e-07 4.696864e-08 2.4232463e-07 1.2969976e-07 -4.9125015e-07 9.1204676e-08
-6.3961875e-07 1.5300496e-07 5.5532576e-07 -8.844532e-08 7.738048e-08 -6.8902506e-07 -3.0503486e-07 2.3942965e-07
1.9960298e-07 -3.0112767e-07 -6.1387914e-07 1.5845647e-08 4.406663e-07 3.5527736e-07 8.7668e-07 -1.0753288e-07
00000000: eedd edb2 fe3d 7cb3 5a33 09b4 3ea2 1833
00000010: 58ae 1db4 a0df 09b4 02cb 21b4 347d b433
00000020: 6b5c 2ab4 b489 aab1 f294 8033 0041 3034
00000030: 525d b3b3 d717 5533 4ad7 a0b2 6507 f633
00000040: a466 2d34 7ea2 00b4 6dd4 7732 4b79 c4b3
00000050: 9fb3 b1b2 3905 75b3 ed70 a733 9d7d 3234
00000060: 1bf2 0eb4 e1dd dab3 ef0a c1b1 e54e a233
00000070: 5bbe e732 2664 46b4 31af bbb3 4d06 d832
00000080: 52a7 f431 2176 a633 107e ccb3 148c c131
00000090: b4ff 5e33 57a0 c7b2 b542 9eb3 4852 b1b3
000000a0: fbff 3d33 7fbf a233 9f9c 6133 65b9 3332
000000b0: 8c75 5e33 2205 e930 a9b5 1ab4 e04c 1134
000000c0: 80d7 7933 1bb8 da32 a4ce fdb3 bc11 a233
000000d0: 4bc3 d4b3 9f44 bb33 a7e8 8732 9a5c d333
000000e0: e072 bbb3 83c2 1f33 6213 8ab3 d549 09b4
000000f0: 09a9 1a33 9a62 8933 b6cc 4834 6d21 d933
00000100: aac6 51b4 d855 4ab3 83ba c0b3 988f a033
00000110: 3d48 8d33 7a93 8db3 510c 4bb3 5969 51b3
00000120: 54d6 a632 81db a333 c4f6 2cb3 5c9c 1934
00000130: 4432 2433 65a5 edb3 0aa7 3fb3 d427 1db3
00000140: 4647 c133 94d1 1fb4 6a47 e0b2 b2a3 32b3
00000150: b68c abb1 8fa7 f2b1 7c46 a333 5401 6b33
00000160: 782b 2834 80a2 0ab3 d7b7 84b3 a31f fb33
00000170: d77d be33 9fb4 f633 a221 25b3 8d2c 2634
00000180: 029b b2b3 d521 a5b3 152e 2eb4 3351 dfb3
00000190: e79a adb2 21f0 eab2 41f9 80b1 a941 2bb4
000001a0: df48 5db3 e0da 9db3 18bb a2b2 9665 6033
000001b0: 7f3f 02b4 2f12 2e33 b621 16b4 661d 74b3
000001c0: fda6 3434 962f 0f33 7ae4 4734 2276 eab3
000001d0: 290c 07b4 bdb8 d333 622f 74b2 52b5 4234
000001e0: 9960 2d33 36d8 99b3 3914 31b2 1fcc fc33
000001f0: 11d0 4134 189b 72b2 d6e2 9334 75a3 de33
00000200: 7886 c534 7d8f d832 adcb 6434 ddb9 2634
00000210: 0e1f f434 7235 e6b3 c387 0735 0d93 88b3
00000220: 1585 5eb4 f254 2bb5 d411 1134 aad1 e131
00000230: 4ab2 7ab3 2360 f7b4 a4f6 9fb4 d54f 0535
00000240: 265c 4233 59e6 9b32 8074 f0b3 80ca 8a33
00000250: cfa3 c1b4 f3f6 18b5 5c2a 0834 29c5 1234
00000260: 5aa9 7cb4 b8a7 52b4 fce1 acb3 6ad5 ae34
00000270: 356b ee33 646e 5db4 e0da f9b2 fe28 9eb3
00000280: d749 fa33 f158 8732 27f0 a5b3 4bc0 59b3
00000290: 0815 0134 bec8 eb34 81fa a333 81e0 e4b3
000002a0: 618c acb3 427d 11b3 f54b 94b3 5e82 4c34
000002b0: 26fa d034 cafd afb4 5836 a9b2 d778 5033
000002c0: 1219 d734 a7ef 2933 f923 b034 356a 8bb4
000002d0: f786 0e32 1444 36b4 d3a4 5534 73d8 41b4
000002e0: e124 a934 14d0 d034 1475 e2b3 dd99 67b4
000002f0: eabb 2db5 91c0 a9b4 ebf4 0935 9221 7134
00000300: 5aeb e633 36af abb2 414c d5b3 c10a 69b2
00000310: c336 8734 5622 6534 8ee9 0634 e895 f1b4
00000320: b399 db33 c42f 06b5 6640 a9b3 5f54 dd34
00000330: 4fe8 0bb3 6e8e 91b2 1e98 9bb4 1393 bf34
00000340: de56 9734 9a48 dcb3 caa9 3834 160e e633
00000350: b4fd c0b4 f49c 1632 6853 bab4 6907 8a34
00000360: ae27 ac34 5fdf c5b4 6a27 c9b4 47a6 f4b4
00000370: bd60 9234 82f7 20b5 6d1c b234 4d3b b134
00000380: eabd 0235 68ec 5e34 a8e2 0634 a878 ffb3
00000390: 1b9c 0a32 c8a5 8534 99a1 7733 837b c934
000003a0: 14ce f7b3 c211 d4b3 8d6a 1335 91ba 4933
000003b0: d818 8234 9943 0b34 74de 03b5 4ddc c333
000003c0: 44b2 2bb5 af49 2434 b211 1535 54ef bdb3
000003d0: 5e2c a633 71f5 38b5 acc3 a3b4 f68a 8034
000003e0: 7352 5634 acaa a1b4 74c9 24b5 f21c 8832
000003f0: b794 ec34 f3bc be34 fe54 6b35 d3ec e6b3

exp_avg_sq f4 [504, 126]
1.8776257e-14 3.5966462e-14 1.6293001e-13 9.161766e-15 1.8718614e-13 1.3797436e-13 2.1373181e-13 6.439484e-14
2.377635e-13 2.2241838e-15 4.325095e-14 2.501322e-13 5.134419e-14 2.173724e-14 5.6480284e-15 1.06406075e-13
2.2594982e-13 1.344028e-13 2.6787258e-15 5.6016464e-14 4.781775e-15 2.8452687e-14 5.033913e-14 2.6180604e-13
1.2248468e-13 4.6252197e-14 1.3230738e-15 5.0246665e-14 4.3649963e-15 2.893066e-13 5.415893e-14 5.3301746e-15
3.0257625e-17 6.441204e-14 7.697204e-14 3.951922e-17 2.4671429e-14 4.2521533e-15 5.504151e-14 7.059451e-14
1.9039527e-14 4.739657e-14 2.1374578e-14 4.6188987e-16 2.2001171e-14 3.7747158e-16 1.9255879e-13 1.584832e-13
2.4087508e-14 5.702789e-15 1.4831036e-13 3.1506593e-14 7.037871e-14 8.742387e-14 1.2131676e-16 6.874345e-14
6.5925645e-14 1.9847325e-14 6.543333e-14 1.4551781e-13 9.206424e-15 2.4561094e-14 2.979565e-13 1.08954844e-13
3.2143293e-13 1.4800884e-14 6.760093e-14 4.5290157e-14 4.627581e-14 2.5233486e-14 1.16166325e-14 3.0602037e-14
1.0870116e-15 6.311944e-14 8.559224e-15 2.1692935e-13 1.1579492e-14 8.6015945e-14 1.336463e-14 7.758671e-15
7.34858e-14 1.4031926e-13 1.14172765e-14 9.198696e-15 1.8873173e-16 2.5449653e-16 8.7255825e-14 2.8369607e-14
2.2177513e-13 1.2403636e-14 2.891507e-14 9.8707846e-14 8.4276695e-14 1.1438786e-13 1.7766436e-14 2.614514e-13
7.159748e-14 6.910296e-14 2.5443327e-13 9.3017486e-14 3.6155373e-15 3.9773144e-15 1.8935608e-15 1.7276291e-13
1.8142273e-14 8.24591e-14 6.3769024e-16 2.6134541e-14 1.4167016e-13 1.4182935e-14 1.5877248e-13 4.1196518e-14
2.6816022e-13 4.9907694e-15 3.5598675e-13 9.6960166e-14 1.6165391e-13 6.627273e-14 5.8858784e-16 3.4205074e-13
1.2283531e-14 4.3409754e-14 2.0462228e-15 1.4519896e-13 2.4359838e-13 1.342514e-15 3.7412258e-13 1.0590631e-12
4.4890988e-12 3.4138965e-13 5.7475496e-12 4.307127e-12 5.812385e-12 1.9897478e-12 6.4549013e-12 8.1325016e-14
1.1265076e-12 6.474853e-12 1.580718e-12 7.438122e-13 2.1228489e-13 2.7263836e-12 6.721933e-12 3.3988535e-12
1.0048825e-13 1.9544644e-12 2.1617976e-13 8.9895615e-13 1.2312701e-12 6.9367064e-12 4.0170428e-12 1.5640801e-12
3.6776022e-14 1.4198123e-12 1.2024203e-13 8.7080464e-12 1.7200589e-12 9.811295e-14 8.2731397e-16 2.0008854e-12
2.3976916e-12 3.0818294e-15 7.572793e-13 1.6590456e-13 1.6521899e-12 1.6641967e-12 7.1697e-13 1.4663736e-12
6.5857655e-13 1.3516225e-14 6.7902715e-13 2.4595072e-14 5.3996464e-12 4.5439256e-12 8.318903e-13 2.2010152e-13
3.9323683e-12 1.1890918e-12 1.9233712e-12 2.3800675e-12 5.987552e-15 2.115435e-12 1.9256467e-12 4.804175e-13
1.5728164e-12 3.9683747e-12 2.6003134e-13 6.7916847e-13 7.923125e-12 2.9268803e-12 9.092683e-12 3.5650817e-13
2.1374345e-12 1.5196444e-12 1.3916216e-12 9.293582e-13 2.659934e-13 7.625159e-13 8.539964e-14 1.4465466e-12
2.5122737e-13 5.7341345e-12 3.4629417e-13 2.2736244e-12 4.9964866e-13 2.9637984e-13 1.9838983e-12 4.1110153e-12
2.0604278e-13 4.1174952e-13 2.3281556e-14 3.853224e-15 2.1372559e-12 9.633741e-13 6.4642766e-12 2.4701617e-13
6.7574e-13 2.7225602e-12 2.1078e-12 2.9276629e-12 3.750913e-13 6.728172e-12 1.8203648e-12 1.7213668e-12
6.9418117e-12 2.7296132e-12 8.214642e-14 1.9986152e-13 4.68141e-14 5.457964e-12 5.925056e-13 1.9730031e-12
5.761972e-14 7.7072436e-13 3.4706203e-12 5.3013404e-13 4.7967164e-12 1.1718164e-12 7.37023e-12 2.4119807e-13
9.4359815e-12 2.9915911e-12 4.0073695e-12 2.189934e-12 1.38154885e-14 8.847667e-12 2.4200553e-13 1.1661934e-12
3.01763e-14 4.0687813e-12 6.5398615e-12 4.4752616e-14 1.4030006e-13 2.9630763e-13 1.2942517e-12 8.8302595e-14
00000000: 1a1f a928 82fa 2129 6171 372a 300b 2528
00000010: bbc0 522a 6758 1b2a 00a4 702a 1901 9129
00000020: 55d9 852a f344 2027 f3c8 4229 d9cf 8c2a
00000030: d23b 6729 aaca c328 de7d cb27 ed9a ef29
00000040: 9a65 7e2a f852 172a c505 4127 9646 7c29
00000050: 1748 ac27 b723 0029 11b5 6229 3a62 932a
00000060: cee7 092a 274d 5029 cfac be26 764a 6229
00000070: fc43 9d27 7add a22a ffe8 7329 2f0a c027
00000080: e689 0b24 030b 9129 5c53 ad29 0f40 3624
00000090: 7138 de28 3133 9927 8ae2 7729 f7f6 9e29
000000a0: 297e ab28 8674 5529 6c86 c028 7521 0526
000000b0: 3f2b c628 f998 d925 4bcd 582a ac6f 322a
000000c0: 03f6 d828 f276 cd27 8dfb 262a a1e4 0d29
000000d0: 907a 9e29 6edc c429 63de 0b25 e7cb 9a29
000000e0: 8c73 9429 d1c4 b228 bf57 9329 a7d6 232a
000000f0: 23d9 2528 073a dd28 0fbc a72a 3158 f529
00000100: 5ef3 b42a 8450 8528 4839 9829 fff7 4b29
00000110: 6068 5029 7548 e328 4344 5128 bfd1 0929
00000120: a6a7 9c26 e121 8e29 7430 1a28 a13d 742a
00000130: fb98 5028 d1b0 c129 7ac1 7028 8ec4 0b28
00000140: ae79 a529 46fc 1d2a e5ac 4d28 7fb5 2528
00000150: c697 5925 0fb5 9225 8f7b c429 dc87 ff28
00000160: 54b2 792a ad71 5f28 ce38 0229 3345 de29
00000170: 35c6 bd29 0eca 002a 9d06 a028 1e2f 932a
00000180: 2339 a129 259b 9b29 b33b 8f2a ee74 d129
00000190: 7243 8227 404c 8f27 0872 0827 8583 422a
000001a0: 3c69 a328 6fae b929 3ccd 3726 2666 eb28
000001b0: a581 1f2a 3e7f 7f28 0dc3 322a 5a88 3929
000001c0: f6f5 962a b9cf b327 1967 c82a bb55 da29
000001d0: 9101 362a a13b 9529 1ea6 2926 b58e c02a
000001e0: ca47 5d28 0a80 4329 2672 1327 c07a 232a
000001f0: 3a22 892a 067a c126 bf9c d22a c50c 952b
00000200: 35f2 9d2c 6f2f c02a 5339 ca2c 278b 972c
00000210: 4f81 cc2c 1c04 0c2c 951c e32c ae20 b729
00000220: b78a 9e2b 4bd0 e32c 5e77 de2b 515d 512b
00000230: f402 6f2a 29da 3f2c ca81 ec2c 4d2c 6f2c
00000240: 8847 e229 8088 092c 9365 732a 9e08 7d2b
00000250: 2e49 ad2b 4c10 f42c 4e56 8d2c ed1f dc2b
00000260: de9f 2529 21d2 c72b 6861 072a 8e31 192d
00000270: a713 f22b 44ee dc29 ff74 6e26 bfcc 0c2c
00000280: f9b8 282c b811 5e27 b927 552b bcca 3a2a
00000290: 6a86 e82b 0137 ea2b 22cf 492b ad5f ce2b
000002a0: 715f 392b 967c 7328 1021 3f2b 6088 dd28
000002b0: b1fb bd2c 0be0 9f2c 0328 6a2b f2cf 772a
000002c0: a05b 8a2c 8c59 a72b 6058 072c 7c7b 272c
000002d0: 6bb9 d727 4adc 142c 5e81 072c bb39 072b
000002e0: af5a dd2b f19f 8b2c 7762 922a 3f2b 3f2b
000002f0: 9562 0b2d fdf5 4d2c cef5 1f2d 3eb2 c82a
00000300: 9968 162c f6de d52b 74da c32b a8cb 822b
00000310: b0bd 952a 10a1 562b 8a4d c029 5595 cb2b
00000320: ae6d 8d2a 7ec0 c92c 40f2 c22a fafd 1f2c
00000330: 7ba3 0c2b d6d8 a62a bc9a 0b2c bca4 902c
00000340: cafb 672a 5ccb e72a 9db3 d128 b8d3 8a27
00000350: 6165 162c 3695 872b 0771 e32c c80e 8b2a
00000360: 3334 3e2b 4995 3f2c c052 142c 1604 4e2c
00000370: 5a28 d32a fcb9 ec2c c718 002c c642 f22b
00000380: 483e f42c 5714 402c 30fa b829 2906 612a
00000390: fcd4 5229 f808 c02c 87c6 262b 77d6 0a2c
000003a0: 82bf 8129 8bf0 582b 2339 742c 2f38 152b
000003b0: fbc4 a82c 23eb a42b 91a8 012d 4ec8 872a
000003c0: e2ff 252d b783 522c 2dff 8c2c 581a 1a2c
000003d0: b2e0 7828 5aa6 1b2d ac3c 882a 8c20 a42b
000003e0: e8e6 0729 5328 8f2c d619 e62c 418c 4929
000003f0: bdf6 1d2a 6ece a62a 5526 b62b fbd6 c629

exp_avg f4 [504]
-2.2520217e-06 5.990896e-06 1.4344275e-05 -6.429435e-07 -8.489863e-06 2.483823e-05 -5.2989662e-06 5.0163517e-06
-2.8112643e-06 -1.6623584e-06 -1.7834083e-07 1.1384547e-05 5.490258e-06 -1.745107e-06 1.8583406e-06 -2.3830175e-06
6.494568e-06 1.4542765e-05 -2.3591472e-06 1.8192031e-06 -1.7718902e-06 8.543572e-06 2.8631227e-06 1.3039407e-05
-1.3312601e-05 2.295791e-05 -1.9233507e-06 -3.0891988e-07 4.9595343e-07 -4.2676155e-07 4.782443e-06 8.736899e-07
-2.1448517e-07 -6.341103e-06 2.4531379e-05 9.455646e-08 -8.9752433e-07 -2.18755e-06 -1.4948105e-06 -1.3041052e-06
-6.460181e-07 2.4747933e-07 3.7431957e-07 -3.2513745e-07 -3.2677823e-07 9.981018e-07 4.2513195e-05 5.9733393e-06
5.72956e-07 -4.990206e-07 8.167831e-07 -1.6652154e-06 -2.5962123e-05 -2.7986111e-06 -3.18313e-07 -1.4286035e-06
-1.054725e-06 -2.6252544e-06 -8.26949e-06 -1.5669915e-05 -4.2170987e-07 -6.544287e-06 6.0262632e-06 4.0213113e-06
-6.3603893e-06 -7.835482e-07 2.9926514e-05 4.4356943e-06 1.4798413e-06 4.8196434e-06 -5.345386e-06 4.773923e-06
-1.350685e-06 -1.9432646e-06 8.542365e-06 2.6658906e-06 2.9390183e-06 -2.8120881e-05 -5.343326e-06 3.1263662e-06
-6.4152523e-06 -6.9984494e-06 7.1950203e-06 -7.6007354e-06 1.3414875e-06 -7.541566e-07 -2.4018874e-07 4.377269e-06
7.494152e-06 7.3863457e-06 3.67107e-06 -6.288732e-06 -3.5805397e-06 -2.7726736e-07 -6.049361e-06 1.2403972e-05
1.2392084e-06 3.3245953e-05 7.0488486e-06 -2.273882e-06 -7.896723e-06 -4.414032e-06 -1.3188384e-07 -1.3528903e-05
-7.788114e-06 2.285683e-06 5.6169466e-08 -3.7415984e-06 9.946453e-06 -1.5717771e-06 2.8858953e-05 2.9687973e-05
-6.9055045e-06 -3.8629995e-08 6.0023253e-06 -1.4530038e-05 2.081633e-05 4.8690758e-08 6.401705e-07 2.1789049e-06
2.8998024e-06 9.501985e-08 6.6865255e-06 9.96459e-07 8.870234e-06 3.7477588e-07 -1.3936598e-07 5.2655123e-06
1.3604942e-05 7.089359e-07 -9.221101e-06 2.665645e-05 -5.323599e-06 6.2358217e-06 -3.1194725e-06 -2.7843807e-06
-3.484199e-07 1.0384736e-05 5.2714377e-06 -3.3804278e-07 2.0908378e-06 -2.4685385e-06 6.374795e-06 1.6158736e-05
-1.497525e-06 -7.0063356e-06 -1.9069759e-07 8.029723e-06 2.8534332e-06 1.3099977e-05 -1.696205e-05 2.5306757e-05
-1.9624424e-06 -3.0532917e-07 4.2127598e-07 -6.614692e-07 4.857754e-06 8.001953e-07 -2.0736282e-07 -5.1382153e-06
2.3355915e-05 -2.9827783e-07 -4.064508e-07 -2.0383695e-06 -1.2783352e-06 -1.2906808e-06 -4.1330418e-07 3.006328e-07
2.3434866e-07 -3.2298277e-07 -7.512891e-07 4.6123795e-08 4.6953413e-05 6.882716e-06 -3.4377567e-07 -1.1540341e-06
1.5640395e-06 -3.675305e-06 -2.685136e-05 -2.1614337e-06 3.985284e-07 -1.6846489e-06 -1.8050669e-06 -2.0939706e-06
-1.0869829e-05 -1.565766e-05 -4.333059e-07 -5.6144117e-06 4.3086147e-06 4.2774773e-06 -5.902836e-06 -2.667289e-07
3.112942e-05 4.2354727e-06 1.8243556e-06 6.361681e-06 -5.490891e-06 1.9345327e-06 4.6636413e-07 -1.6608756e-06
8.970207e-06 2.0703196e-06 3.0765132e-06 -2.9484643e-05 -5.0445733e-06 3.0565263e-06 -6.6086354e-06 -1.0930343e-05
6.580808e-06 -4.2972e-06 7.124545e-07 -7.7726236e-07 -9.032871e-07 4.1269222e-06 6.941858e-06 6.05895e-06
4.266073e-06 -6.186731e-06 -4.774611e-06 -1.2185385e-06 -3.313694e-06 1.0925973e-05 -2.1099348e-07 2.9906221e-05
7.095918e-06 -2.8049067e-06 -7.131764e-06 -2.9536584e-06 -1.5277452e-07 -1.8206565e-05 -6.1476208e-06 2.4747278e-06
1.2788599e-06 -3.5421647e-06 1.0283747e-05 -1.8291331e-06 3.1152245e-05 3.1739623e-05 -6.4184915e-06 -1.2026787e-06
4.449531e-06 -1.1210966e-05 2.7136713e-05 4.9149737e-08 4.4059658e-07 1.4788255e-06 1.4989503e-06 1.9527657e-07
6.891289e-06 1.0439217e-06 9.021424e-06 1.541724e-07 -3.5398425e-05 0.00023241065 0.00020794172 -6.349579e-05
00000000: 7021 17b6 6805 c936 31a8 7037 be96 2cb5
00000010: af6f 0eb7 b15b d037 c6cd b1b6 2252 a836
00000020: 27a9 3cb6 331e dfb5 f47d 3fb4 4200 3f37
00000030: f538 b836 6c39 eab5 196c f935 eeeb 1fb6
00000040: eaeb d936 b3fc 7337 d751 1eb6 582b f435
00000050: afd1 edb5 5d56 0f37 1324 4036 d4c3 5a37
00000060: 3059 5fb7 bc95 c037 ea12 01b6 a0d9 a5b4
00000070: a921 0535 a91d e5b4 df78 a036 8387 6a35
00000080: 3c4d 66b4 a9c5 d4b6 bcc8 cd37 f70e cb33
00000090: 67ed 70b5 d3cd 12b6 4ca1 c8b5 b708 afb5
000000a0: 076a 2db5 4ddd 8434 17f6 c834 8d8e aeb4
000000b0: 0f70 afb4 84f6 8535 3250 3238 986e c836
000000c0: 3dcd 1935 6ff4 05b5 e840 5b35 5e80 dfb5
000000d0: 3cc9 d9b7 c6cf 3bb6 9be4 aab4 71be bfb5
000000e0: 1390 8db5 872d 30b6 30bd 0ab7 e372 83b7
000000f0: 5d67 e2b4 ff96 dbb6 3535 ca36 cdee 8636
00000100: 546b d5b6 0655 52b5 b30a fb37 53d6 9436
00000110: f69e c635 6cb8 a136 845c b3b6 b02f a036
00000120: 2f49 b5b5 0869 02b6 2e51 0f37 a7e7 3236
00000130: f33b 4536 22e5 ebb7 d24a b3b6 90ce 5136
00000140: 9942 d7b6 39d4 eab6 c16c f136 d209 ffb6
00000150: 290d b435 3f71 4ab5 4af3 80b4 74e0 9236
00000160: 4776 fb36 3ad8 f736 815c 7636 cc03 d3b6
00000170: 3449 70b6 56db 94b4 9efb cab6 a71a 5037
00000180: e052 a635 9271 0b38 2685 ec36 ff98 18b6
00000190: 2b7c 04b7 3f1c 94b6 f49b 0db4 32fa 62b7
000001a0: b2a9 02b7 bc63 1936 fb3e 7133 2c18 7bb6
000001b0: b1df 2637 daf5 d2b5 2116 f237 700a f937
000001c0: d5b5 e7b6 21ea 25b3 9567 c936 0ac6 73b7
000001d0: ba9e ae37 0e20 5133 2fd8 2b35 4d39 1236
000001e0: 3a9a 4236 b70d cc33 d15c e036 12be 8535
000001f0: 5dd1 1437 ce34 c934 a1a4 15b4 68ae b036
00000200: c840 6437 b44d 3e35 54b4 1ab7 4a9c df37
00000210: 5ea1 b2b6 4d3d d136 2158 51b6 4cdb 3ab6
00000220: 770e bbb4 1a3a 2e37 4ee1 b036 3f7c b5b4
00000230: 5250 0c36 2ba9 25b6 12e7 d536 9f8c 8737
00000240: 91fe c8b5 f717 ebb6 8ec2 4cb4 66b7 0637
00000250: 9c7d 3f36 f9c7 5b37 ba49 8eb7 d949 d437
00000260: 81b2 03b6 1fec a3b4 bb2b e234 d18f 31b5
00000270: caff a236 01cd 5635 75a7 5eb4 ef68 acb6
00000280: 72ec c337 fe22 a0b4 2c36 dab4 ecca 08b6
00000290: 4393 abb5 743b adb5 18e4 ddb4 a866 a134
000002a0: 45a1 7b34 6a66 adb4 32ac 49b5 a619 4633
000002b0: d8ef 4438 15f2 e636 2b90 b8b4 4fe4 9ab5
000002c0: fdeb d135 42a5 76b6 db3e e1b7 260d 11b6
000002d0: 54f5 d534 181c e2b5 a045 f2b5 2486 0cb6
000002e0: 8f5d 36b7 9258 83b7 1ca1 e8b4 6e63 bcb6
000002f0: b892 9036 4087 8f36 fa10 c6b6 f132 8fb4
00000300: f690 0238 6f1e 8e36 62dc f435 6c76 d536
00000310: 653e b8b6 05d3 0136 9960 fa34 40eb deb5
00000320: bf7e 1637 d2ef 0a36 1876 4e36 ca55 f7b7
00000330: 8e44 a9b6 b91e 4d36 bfbf ddb6 7761 37b7
00000340: b6d0 dc36 ab30 90b6 803f 3f35 10a5 50b5
00000350: 6b79 72b5 fe79 8a36 1bee e836 fc4d cb36
00000360: 4a25 8f36 9d97 cfb6 9935 a0b6 aa8c a3b5
00000370: d460 5eb6 b24e 3737 728d 62b4 1fdf fa37
00000380: 7919 ee36 ee3b 3cb6 634d efb6 7737 46b6
00000390: 570a 24b4 4dba 98b7 a947 ceb6 8013 2636
000003a0: 4ba5 ab35 edb5 6db6 5b88 2c37 8980 f5b5
000003b0: 78a9 0238 2920 0538 6c5e d7b6 ba6b a1b5
000003c0: 2e4d 9536 bb16 3cb7 a6a3 e337 b518 5333
000003d0: 228b ec34 0f7c c635 8a2f c935 37ad 5134
000003e0: b93b e736 e01c 8c35 b95a 1737 968a 2534
000003f0: c578 14b8 42b3 7339 ee0a 5a39 0b29 85b8

exp_avg_sq f4 [504]
4.5612108e-11 1.28232e-09 3.6447814e-10 2.1479124e-11 1.0112685e-10 3.080282e-09 3.1526746e-11 5.1194812e-11
7.3531703e-10 5.4556103e-11 3.5350375e-12 2.5330296e-10 2.7455585e-11 4.1768453e-11 9.0555905e-12 9.353768e-12
2.5666226e-11 4.3591557e-09 6.2845076e-12 2.5006988e-09 2.0161673e-11 1.4766326e-10 1.0140173e-11 5.7633485e-11
3.5341224e-10 6.116359e-10 1.5743235e-12 1.700325e-11 2.9963744e-12 1.2327055e-10 5.318062e-11 7.6793335e-13
1.3258131e-14 8.030844e-11 8.656534e-10 7.1502164e-14 3.643641e-11 2.618048e-11 2.8944671e-11 1.7412802e-11
4.458731e-12 1.0452043e-11 2.8934656e-12 6.506093e-14 9.16885e-12 1.2228251e-12 1.1492407e-09 1.4122696e-10
2.166895e-11 5.880599e-12 1.3762513e-10 2.2646156e-11 4.862639e-10 1.0753851e-10 8.7132334e-14 1.9360846e-11
2.6453917e-10 1.0011042e-11 2.3247279e-10 6.876529e-10 2.6241103e-12 4.1209896e-12 1.1217304e-09 6.580286e-11
4.64399e-10 1.0804583e-10 6.6433775e-10 5.9674774e-12 1.36140665e-11 2.5739758e-10 8.3729385e-11 8.1062523e-10
2.5529143e-12 4.3120945e-12 1.7812012e-11 5.898841e-11 1.6527705e-12 2.8067573e-09 3.319028e-12 2.389963e-11
1.4708644e-11 1.7727386e-09 1.8921817e-10 3.5454528e-10 3.674034e-13 7.01981e-13 3.0736844e-11 5.130487e-12
7.303028e-11 5.3931005e-11 7.976367e-10 1.5400302e-10 1.7524071e-10 6.9802726e-11 4.1343862e-11 7.1229016e-11
1.7196983e-10 6.126381e-10 1.8366089e-09 1.7253532e-10 1.1124873e-10 1.0224231e-10 7.1312476e-13 3.067574e-09
2.385171e-10 1.9303715e-11 7.776426e-12 1.3464135e-11 2.2359501e-11 1.9088533e-12 6.40257e-10 1.943152e-09
5.1663528e-11 7.030776e-12 5.310453e-10 1.322712e-09 2.7652591e-09 1.29621825e-11 2.6513863e-12 8.188867e-11
4.8171085e-12 7.9743035e-12 3.3638547e-11 2.5398074e-11 1.8746245e-10 1.3963725e-11 4.908962e-11 1.0440409e-09
3.3240855e-10 2.2215455e-11 1.0400389e-10 2.9305207e-09 3.119772e-11 6.033875e-11 6.4360783e-10 5.1084033e-11
4.572617e-12 2.8020455e-10 2.5490821e-11 4.733334e-11 7.6263475e-12 9.4203e-12 2.4451628e-11 4.112166e-09
4.620738e-12 2.5089606e-09 1.7671392e-11 1.3186624e-10 1.1006916e-11 5.644048e-11 4.14801e-10 4.883883e-10
1.0196057e-12 1.7919591e-11 2.633557e-12 1.09545345e-10 5.4894138e-11 9.315578e-13 1.1970061e-14 6.56625e-11
7.729414e-10 1.2292557e-13 3.1430723e-11 2.205108e-11 2.8136963e-11 2.0834988e-11 4.1746103e-12 1.0885328e-11
2.441066e-12 6.535068e-14 9.25148e-12 8.5218925e-13 1.3808011e-09 1.8096598e-10 1.7913013e-11 6.180573e-12
1.3625907e-10 2.895062e-11 4.721275e-10 9.172498e-11 5.2900318e-14 2.0259036e-11 2.668681e-10 9.168163e-12
2.6426994e-10 6.9233214e-10 2.8442418e-12 2.9595373e-12 1.0677875e-09 5.8193075e-11 5.48033e-10 1.4173925e-10
6.7102685e-10 6.1108982e-12 1.5294498e-11 2.2667161e-10 9.137298e-11 9.571205e-10 2.4637857e-12 5.043822e-12
1.7335638e-11 5.5291754e-11 1.8074299e-12 3.2158554e-09 2.9737822e-12 2.591459e-11 1.5915476e-11 1.8674005e-09
1.8529767e-10 2.3098103e-10 1.9113233e-13 5.978178e-13 3.8476423e-11 5.021483e-12 6.1742965e-11 6.2893704e-11
9.934144e-10 1.5273273e-10 1.4274244e-10 6.502946e-11 3.5952654e-11 6.010887e-11 1.917587e-10 5.97101e-10
2.4406301e-09 2.0615466e-10 1.2883337e-10 8.769779e-11 7.350035e-13 3.3180199e-09 1.8758127e-10 2.4173566e-11
6.9368344e-12 1.1662944e-11 2.4652936e-11 2.3934843e-12 6.7761335e-10 1.9321638e-09 4.2018777e-11 6.743425e-12
5.7213445e-10 1.0553093e-09 3.4565049e-09 1.2386742e-11 2.7105965e-12 1.10843015e-10 3.868951e-12 7.0382853e-12
3.3627896e-11 2.4564703e-11 1.8770607e-10 1.0842061e-11 1.449802e-07 9.981824e-07 7.9583316e-08 9.4472284e-08
00000000: ab9a 482e a03d b030 bd5f c82f b0ee bc2d
00000010: 5b61 de2e e5ac 5331 f6a7 0a2e 3c28 612e
00000020: 561f 4a30 b6f0 6f2e 93c1 782c 3941 8b2f
00000030: 7b80 f12d 19b3 372e c14e 1f2d a08d 242d
00000040: 34c3 e12d 8ac7 9531 d01d dd2c c2d8 2b31
00000050: 0d58 b12d 835b 222f 4863 322d 8979 7d2e
00000060: 5a4a c22f 0d20 2830 fb90 dd2b ea8f 952d
00000070: e2d9 522c 9389 072f 0ee4 692e 6e27 582b
00000080: 56d6 6e28 a299 b02e f1f2 6d30 3102 a129
00000090: c03f 202e 3349 e62d 9b99 fe2d 252a 992d
000000a0: aee0 9c2c d1df 372d 0b9c 4b2c 1381 9229
000000b0: d44c 212d eb18 ac2b 50f3 9d30 db47 1b2f
000000c0: 239a be2d bae7 ce2c 0852 172f 9c32 c72d
000000d0: c8a9 0530 cd7a ec2e 5f34 c429 c04c aa2d
000000e0: 946e 912f ba1d 302d 469b 7f2f 4505 3d30
000000f0: c5a7 382c 93fe 902c 612b 9a30 b8b3 902e
00000100: 594e ff2f 6598 ed2e 9d9c 3630 42f6 d12c
00000110: 4e80 6f2d 7d81 8d2f 741f b82e aed2 5e30
00000120: 37a5 332c e5b7 972c 16ad 9c2d 86b7 812e
00000130: 559b e82b ffe0 4031 4b8e 692c 2f39 d22d
00000140: ec60 812d b2a4 f330 2e0c 502f d0e9 c22f
00000150: 69d4 ce2a 1097 452b 9c2e 072e 5283 b42c
00000160: 6598 a02e ea30 6d2e b140 5b30 ff53 292f
00000170: e0ad 402f 717f 992e 0dd5 352e 5fa2 9c2e
00000180: 3415 3d2f 9366 2830 ee6b fc30 60b4 3d2f
00000190: 78a3 f42e 4ed5 e02e 0eba 482b 55cd 5231
000001a0: 4c20 832f 1acc a92d e9cd 082d 13dd 6c2d
000001b0: 1fad c42d d852 062c 15fe 2f30 4b88 0531
000001c0: f637 632e 9a5f f72c fef8 1130 cbca b530
000001d0: f406 3e31 7b08 642d 2193 3a2c 3913 b42e
000001e0: a87c a92c 1249 0c2d a3f1 132e 6167 df2d
000001f0: fd1d 4e2f 07a7 752d 00e6 572e ec7d 8f30
00000200: 58be b62f c268 c32d fcb4 e42e 4462 4931
00000210: 8335 092e b2af 842e e0e9 3030 82ab 602e
00000220: 79e2 a02c 490b 9a2f 3a38 e02d 9a2c 502e
00000230: 042a 062d 42b9 252d 2c14 d72d ff4a 8d31
00000240: e893 a22c 1a6a 2c31 7070 9b2d 0cfd 102f
00000250: bea2 412d 553a 782e 0d0a e42f 453f 0630
00000260: 2b7f 8f2b 559f 9d2d f251 392c 8ce4 f02e
00000270: 4e6d 712e e81a 832b 2aa2 5728 b464 902e
00000280: ea76 5430 e266 0a2a d93b 0a2e 9ef6 c12d
00000290: cf7e f72d 3944 b72d 8ce1 922c 297f 3f2d
000002a0: 56c6 2b2c 1a28 9329 f6c0 222d b5de 6f2b
000002b0: 9fc6 bd30 65f9 462f 8590 9d2d a775 d92c
000002c0: 85d1 152f 00a7 fe2d 05c7 0130 93b4 c92e
000002d0: ea3d 6e29 4b33 b22d 59b6 922f bc49 212d
000002e0: b048 912f 8b4e 3e30 4e25 482c 4942 502c
000002f0: 6fc1 9230 94ef 7f2e 65a4 1630 0dd8 1b2f
00000300: 5173 3830 1402 d72c 2688 862d 633a 792f
00000310: 6aee c82e af8b 8330 9e5f 2d2c b676 b12c
00000320: 637c 982d fb2c 732e 865f fe2b edfd 5c31
00000330: e642 512c 78f2 e32d 77fe 8b2d a853 0031
00000340: a8bc 4b2f 61f7 7d2f 2532 572a 5045 282b
00000350: 9a38 292e 7fad b02c 33c6 872e 024e 8a2e
00000360: a988 8830 71ee 272f 6df2 1c2f 5500 8f2e
00000370: 171f 1e2e 492e 842e 47d7 522f 3f21 2430
00000380: 05b8 2731 61ab 622f 5fa7 0d2f 77d9 c02e
00000390: 95e2 4e2b 3903 6431 6f3f 4e2f 08a2 d42d
000003a0: 7311 f42c 3b2d 4d2d 7ad9 d82d 2e6d 282c
000003b0: cd42 3a30 fcc6 0431 f0cc 382e 5f43 ed2c
000003c0: 6244 1d30 650a 9130 7a87 6d31 ede8 592d
000003d0: c4bd 3e2c 12bf f32e 6a20 882c 3da3 f72c
000003e0: a5e5 132e cb12 d82d 9062 4e2f 4dbc 3e2d
000003f0: dbab 1b34 49f9 8535 64e7 aa33 b0e0 ca33

exp_avg f4 [504]
-2.2520217e-06 5.990896e-06 1.4344275e-05 -6.429435e-07 -8.489863e-06 2.483823e-05 -5.2989662e-06 5.0163517e-06
-2.8112643e-06 -1.6623584e-06 -1.7834083e-07 1.1384547e-05 5.490258e-06 -1.745107e-06 1.8583406e-06 -2.3830175e-06
6.494568e-06 1.4542765e-05 -2.3591472e-06 1.8192031e-06 -1.7718902e-06 8.543572e-06 2.8631227e-06 1.3039407e-05
-1.3312601e-05 2.295791e-05 -1.9233507e-06 -3.0891988e-07 4.9595343e-07 -4.2676155e-07 4.782443e-06 8.736899e-07
-2.1448517e-07 -6.341103e-06 2.4531379e-05 9.455646e-08 -8.9752433e-07 -2.18755e-06 -1.4948105e-06 -1.3041052e-06
-6.460181e-07 2.4747933e-07 3.7431957e-07 -3.2513745e-07 -3.2677823e-07 9.981018e-07 4.2513195e-05 5.9733393e-06
5.72956e-07 -4.990206e-07 8.167831e-07 -1.6652154e-06 -2.5962123e-05 -2.7986111e-06 -3.18313e-07 -1.4286035e-06
-1.054725e-06 -2.6252544e-06 -8.26949e-06 -1.5669915e-05 -4.2170987e-07 -6.544287e-06 6.0262632e-06 4.0213113e-06
-6.3603893e-06 -7.835482e-07 2.9926514e-05 4.4356943e-06 1.4798413e-06 4.8196434e-06 -5.345386e-06 4.773923e-06
-1.350685e-06 -1.9432646e-06 8.542365e-06 2.6658906e-06 2.9390183e-06 -2.8120881e-05 -5.343326e-06 3.1263662e-06
-6.4152523e-06 -6.9984494e-06 7.1950203e-06 -7.6007354e-06 1.3414875e-06 -7.541566e-07 -2.4018874e-07 4.377269e-06
7.494152e-06 7.3863457e-06 3.67107e-06 -6.288732e-06 -3.5805397e-06 -2.7726736e-07 -6.049361e-06 1.2403972e-05
1.2392084e-06 3.3245953e-05 7.0488486e-06 -2.273882e-06 -7.896723e-06 -4.414032e-06 -1.3188384e-07 -1.3528903e-05
-7.788114e-06 2.285683e-06 5.6169466e-08 -3.7415984e-06 9.946453e-06 -1.5717771e-06 2.8858953e-05 2.9687973e-05
-6.9055045e-06 -3.8629995e-08 6.0023253e-06 -1.4530038e-05 2.081633e-05 4.8690758e-08 6.401705e-07 2.1789049e-06
2.8998024e-06 9.501985e-08 6.6865255e-06 9.96459e-07 8.870234e-06 3.7477588e-07 -1.3936598e-07 5.2655123e-06
1.3604942e-05 7.089359e-07 -9.221101e-06 2.665645e-05 -5.323599e-06 6.2358217e-06 -3.1194725e-06 -2.7843807e-06
-3.484199e-07 1.0384736e-05 5.2714377e-06 -3.3804278e-07 2.0908378e-06 -2.4685385e-06 6.374795e-06 1.6158736e-05
-1.497525e-06 -7.0063356e-06 -1.9069759e-07 8.029723e-06 2.8534332e-06 1.3099977e-05 -1.696205e-05 2.5306757e-05
-1.9624424e-06 -3.0532917e-07 4.2127598e-07 -6.614692e-07 4.857754e-06 8.001953e-07 -2.0736282e-07 -5.1382153e-06
2.3355915e-05 -2.9827783e-07 -4.064508e-07 -2.0383695e-06 -1.2783352e-06 -1.2906808e-06 -4.1330418e-07 3.006328e-07
2.3434866e-07 -3.2298277e-07 -7.512891e-07 4.6123795e-08 4.6953413e-05 6.882716e-06 -3.4377567e-07 -1.1540341e-06
1.5640395e-06 -3.675305e-06 -2.685136e-05 -2.1614337e-06 3.985284e-07 -1.6846489e-06 -1.8050669e-06 -2.0939706e-06
-1.0869829e-05 -1.565766e-05 -4.333059e-07 -5.6144117e-06 4.3086147e-06 4.2774773e-06 -5.902836e-06 -2.667289e-07
3.112942e-05 4.2354727e-06 1.8243556e-06 6.361681e-06 -5.490891e-06 1.9345327e-06 4.6636413e-07 -1.6608756e-06
8.970207e-06 2.0703196e-06 3.0765132e-06 -2.9484643e-05 -5.0445733e-06 3.0565263e-06 -6.6086354e-06 -1.0930343e-05
6.580808e-06 -4.2972e-06 7.124545e-07 -7.7726236e-07 -9.032871e-07 4.1269222e-06 6.941858e-06 6.05895e-06
4.266073e-06 -6.186731e-06 -4.774611e-06 -1.2185385e-06 -3.313694e-06 1.0925973e-05 -2.1099348e-07 2.9906221e-05
7.095918e-06 -2.8049067e-06 -7.131764e-06 -2.9536584e-06 -1.5277452e-07 -1.8206565e-05 -6.1476208e-06 2.4747278e-06
1.2788599e-06 -3.5421647e-06 1.0283747e-05 -1.8291331e-06 3.1152245e-05 3.1739623e-05 -6.4184915e-06 -1.2026787e-06
4.449531e-06 -1.1210966e-05 2.7136713e-05 4.9149737e-08 4.4059658e-07 1.4788255e-06 1.4989503e-06 1.9527657e-07
6.891289e-06 1.0439217e-06 9.021424e-06 1.541724e-07 -3.5398425e-05 0.00023241065 0.00020794172 -6.349579e-05
00000000: 7021 17b6 6805 c936 31a8 7037 be96 2cb5
00000010: af6f 0eb7 b15b d037 c6cd b1b6 2252 a836
00000020: 27a9 3cb6 331e dfb5 f47d 3fb4 4200 3f37
00000030: f538 b836 6c39 eab5 196c f935 eeeb 1fb6
00000040: eaeb d936 b3fc 7337 d751 1eb6 582b f435
00000050: afd1 edb5 5d56 0f37 1324 4036 d4c3 5a37
00000060: 3059 5fb7 bc95 c037 ea12 01b6 a0d9 a5b4
00000070: a921 0535 a91d e5b4 df78 a036 8387 6a35
00000080: 3c4d 66b4 a9c5 d4b6 bcc8 cd37 f70e cb33
00000090: 67ed 70b5 d3cd 12b6 4ca1 c8b5 b708 afb5
000000a0: 076a 2db5 4ddd 8434 17f6 c834 8d8e aeb4
000000b0: 0f70 afb4 84f6 8535 3250 3238 986e c836
000000c0: 3dcd 1935 6ff4 05b5 e840 5b35 5e80 dfb5
000000d0: 3cc9 d9b7 c6cf 3bb6 9be4 aab4 71be bfb5
000000e0: 1390 8db5 872d 30b6 30bd 0ab7 e372 83b7
000000f0: 5d67 e2b4 ff96 dbb6 3535 ca36 cdee 8636
00000100: 546b d5b6 0655 52b5 b30a fb37 53d6 9436
00000110: f69e c635 6cb8 a136 845c b3b6 b02f a036
00000120: 2f49 b5b5 0869 02b6 2e51 0f37 a7e7 3236
00000130: f33b 4536 22e5 ebb7 d24a b3b6 90ce 5136
00000140: 9942 d7b6 39d4 eab6 c16c f136 d209 ffb6
00000150: 290d b435 3f71 4ab5 4af3 80b4 74e0 9236
00000160: 4776 fb36 3ad8 f736 815c 7636 cc03 d3b6
00000170: 3449 70b6 56db 94b4 9efb cab6 a71a 5037
00000180: e052 a635 9271 0b38 2685 ec36 ff98 18b6
00000190: 2b7c 04b7 3f1c 94b6 f49b 0db4 32fa 62b7
000001a0: b2a9 02b7 bc63 1936 fb3e 7133 2c18 7bb6
000001b0: b1df 2637 daf5 d2b5 2116 f237 700a f937
000001c0: d5b5 e7b6 21ea 25b3 9567 c936 0ac6 73b7
000001d0: ba9e ae37 0e20 5133 2fd8 2b35 4d39 1236
000001e0: 3a9a 4236 b70d cc33 d15c e036 12be 8535
000001f0: 5dd1 1437 ce34 c934 a1a4 15b4 68ae b036
00000200: c840 6437 b44d 3e35 54b4 1ab7 4a9c df37
00000210: 5ea1 b2b6 4d3d d136 2158 51b6 4cdb 3ab6
00000220: 770e bbb4 1a3a 2e37 4ee1 b036 3f7c b5b4
00000230: 5250 0c36 2ba9 25b6 12e7 d536 9f8c 8737
00000240: 91fe c8b5 f717 ebb6 8ec2 4cb4 66b7 0637
00000250: 9c7d 3f36 f9c7 5b37 ba49 8eb7 d949 d437
00000260: 81b2 03b6 1fec a3b4 bb2b e234 d18f 31b5
00000270: caff a236 01cd 5635 75a7 5eb4 ef68 acb6
00000280: 72ec c337 fe22 a0b4 2c36 dab4 ecca 08b6
00000290: 4393 abb5 743b adb5 18e4 ddb4 a866 a134
000002a0: 45a1 7b34 6a66 adb4 32ac 49b5 a619 4633
000002b0: d8ef 4438 15f2 e636 2b90 b8b4 4fe4 9ab5
000002c0: fdeb d135 42a5 76b6 db3e e1b7 260d 11b6
000002d0: 54f5 d534 181c e2b5 a045 f2b5 2486 0cb6
000002e0: 8f5d 36b7 9258 83b7 1ca1 e8b4 6e63 bcb6
000002f0: b892 9036 4087 8f36 fa10 c6b6 f132 8fb4
00000300: f690 0238 6f1e 8e36 62dc f435 6c76 d536
00000310: 653e b8b6 05d3 0136 9960 fa34 40eb deb5
00000320: bf7e 1637 d2ef 0a36 1876 4e36 ca55 f7b7
00000330: 8e44 a9b6 b91e 4d36 bfbf ddb6 7761 37b7
00000340: b6d0 dc36 ab30 90b6 803f 3f35 10a5 50b5
00000350: 6b79 72b5 fe79 8a36 1bee e836 fc4d cb36
00000360: 4a25 8f36 9d97 cfb6 9935 a0b6 aa8c a3b5
00000370: d460 5eb6 b24e 3737 728d 62b4 1fdf fa37
00000380: 7919 ee36 ee3b 3cb6 634d efb6 7737 46b6
00000390: 570a 24b4 4dba 98b7 a947 ceb6 8013 2636
000003a0: 4ba5 ab35 edb5 6db6 5b88 2c37 8980 f5b5
000003b0: 78a9 0238 2920 0538 6c5e d7b6 ba6b a1b5
000003c0: 2e4d 9536 bb16 3cb7 a6a3 e337 b518 5333
000003d0: 228b ec34 0f7c c635 8a2f c935 37ad 5134
000003e0: b93b e736 e01c 8c35 b95a 1737 968a 2534
000003f0: c578 14b8 42b3 7339 ee0a 5a39 0b29 85b8
