models/optweezer/3inb6ugp/checkpoints/epoch=0-step=23.ckpt (torch, 789231 bytes, 18 tensors)

exp_avg f4 [504, 1]
000000 94 a4 64 36 5c 43 5b b5 7a 90 57 b5 06 e0 26 36
       3.4070445e-06 -8.168188e-07 -8.030398e-07 2.4866326e-06
000010 88 22 32 36 08 7f 1a b3 ff d2 ee b3 1f bc 07 b4
       2.6544167e-06 -3.5971453e-08 -1.11211186e-07 -1.2641293e-07
000020 b7 2d ae 35 be 1a c9 b5 06 5a 45 36 3b 53 8b b5
       1.2977315e-06 -1.498345e-06 2.9407688e-06 -1.038053e-06
000030 ea b5 df 34 79 55 98 32 a1 ae a1 35 95 9f 40 37
       4.1669347e-07 1.7733997e-08 1.2046258e-06 1.1481247e-05
000040 b4 96 e2 36 07 47 d9 b3 12 6c 39 b5 a1 ac 9d b3
       6.752869e-06 -1.011777e-07 -6.9075134e-07 -7.342283e-08
000050 e8 a6 76 34 a9 39 1d 32 ec c1 99 33 80 7a 13 34
       2.2971255e-07 9.151713e-09 7.159892e-08 1.3735007e-07
000060 64 0e 28 b5 db 13 7f 36 ef 69 7b 35 e9 89 87 b7
       -6.260582e-07 3.8009518e-06 9.365894e-07 -1.6157474e-05
000070 73 8c 09 b5 1f 5e 65 b6 f5 91 ee b1 73 a9 49 35
       -5.124086e-07 -3.4178445e-06 -6.943305e-09 7.5124916e-07
000080 03 84 4a 36 f6 99 02 b4 3c cf 25 b6 c7 99 12 33
       3.0177187e-06 -1.2163204e-07 -2.4707542e-06 3.4133134e-08
000090 2c 4a e3 b6 ea 11 68 b6 73 4e 13 35 ce 70 de 35
       -6.773762e-06 -3.4581121e-06 5.4875926e-07 1.6573119e-06
0000a0 b1 cb 2d 35 34 d6 4a b4 9e 82 02 33 b2 17 6c 36
       6.474393e-07 -1.8890643e-07 3.038678e-08 3.5180533e-06
0000b0 e6 d5 90 34 a8 a0 1b 35 8e d1 ac 34 c0 ff af b3
       2.6977722e-07 5.7975785e-07 3.2189968e-07 -8.195593e-08
0000c0 fb 85 84 b6 88 f3 5f 33 f6 ce 08 b5 8b 33 2d b6
       -3.949504e-06 5.2142724e-08 -5.0965116e-07 -2.580901e-06
0000d0 75 29 0e b5 c8 ba c2 35 97 b2 73 35 75 92 a2 b4
       -5.295945e-07 1.4508487e-06 9.0784437e-07 -3.0281413e-07
0000e0 79 55 8e 33 ed ba 5e 35 24 d2 02 b7 ac f3 7f b7
       6.627938e-08 8.297346e-07 -7.797531e-06 -1.5255919e-05
0000f0 95 4e 33 b5 9a 05 0e 34 0b dc 88 34 32 89 8c b4
       -6.679705e-07 1.3226818e-07 2.5492076e-07 -2.6176855e-07
000100 ff 16 07 34 0c 34 85 34 04 73 f1 34 a9 4c ea b5
       1.258122e-07 2.481105e-07 4.4973433e-07 -1.745667e-06
000110 00 1e 3b 36 d3 bb 03 b7 64 f9 bc b5 03 23 98 37
       2.7882634e-06 -7.85194e-06 -1.4079674e-06 1.8136116e-05
000120 34 25 7b 36 b3 b6 70 b4 6f db 1e b5 21 5c bd b2
       3.742357e-06 -2.2418207e-07 -5.9178905e-07 -2.2044391e-08
000130 56 b5 cb 37 da 7c 14 b5 38 fa 1f b6 28 0a 6b b6
       2.4283927e-05 -5.531598e-07 -2.3838493e-06 -3.502364e-06
000140 be 0b 25 b7 36 a0 75 37 ab 39 97 b5 fa 1f 20 36
       -9.8375e-06 1.464044e-05 -1.126716e-06 2.386047e-06
000150 35 98 74 b6 ce c4 3e b5 38 4e 2b 35 6f 0f 34 37
       -3.644743e-06 -7.1066904e-07 6.381629e-07 1.07324295e-05
000160 e7 c4 91 b5 6d 99 1a 36 99 4e 0b b7 91 55 8c b2
       -1.0860648e-06 2.3037094e-06 -8.303346e-06 -1.6337056e-08
000170 ab b8 8f 34 7b 39 95 35 68 f4 2e b5 13 cd b6 35
       2.677019e-07 1.1118094e-06 -6.517571e-07 1.3619741e-06
000180 a9 b8 ce b6 77 60 b0 34 14 e8 30 b6 60 ca 0c b6
       -6.1607757e-06 3.2852742e-07 -2.636113e-06 -2.0979423e-06
000190 1c 64 9c 36 4b 17 39 b5 98 5d 0a b6 e1 61 f4 b6
       4.6608166e-06 -6.8951766e-07 -2.0618081e-06 -7.2831613e-06
0001a0 7f 44 28 b7 80 30 11 36 68 83 a3 b3 4b dc df 2f
       -1.0029528e-05 2.1634914e-06 -7.6141816e-08 4.071999e-10
0001b0 4b 34 c3 b5 f0 b0 16 35 b9 27 a4 b6 b7 eb d5 b4
       -1.4543851e-06 5.613683e-07 -4.892205e-06 -3.9845847e-07
0001c0 b8 49 2a 36 99 0d 8e 31 99 52 00 b4 e9 7b f8 b4
       2.5374884e-06 4.13429e-09 -1.1950978e-07 -4.6283756e-07
0001d0 59 46 34 b6 2c 82 9e 36 70 ac 17 b4 ca a2 c6 b5
       -2.6863038e-06 4.723921e-06 -1.4125703e-07 -1.4799527e-06
0001e0 37 ee 19 36 90 a6 27 b5 85 83 05 b5 5d 27 2e 35
       2.2937436e-06 -6.245473e-07 -4.9737747e-07 6.487733e-07
0001f0 f5 2d 8e 34 79 52 4d b4 d8 65 8c 36 95 d1 71 b5
       2.6483e-07 -1.9122116e-07 4.1841813e-06 -9.008448e-07
000200 fe a5 41 b5 66 67 16 36 e0 25 3f 36 df 44 3d b3
       -7.2139653e-07 2.2411928e-06 2.8483264e-06 -4.406763e-08
000210 0d f1 13 b4 5a 17 12 b4 29 18 ac 35 a6 e9 ce b5
       -1.3778136e-07 -1.3605805e-07 1.282203e-06 -1.5416197e-06
000220 11 9b 49 36 0f 63 90 b5 a9 6c c5 34 63 d0 9b 32
       3.0041595e-06 -1.0757666e-06 3.677317e-07 1.8139138e-08
000230 91 6f a0 35 57 05 37 37 a9 ff e6 36 0f 51 47 b2
       1.1953399e-06 1.0908893e-05 6.884297e-06 -1.1601755e-08
000240 97 fb 23 b5 a4 16 83 b3 87 6f 5f 34 ce 60 f9 31
       -6.1088343e-07 -6.104281e-08 2.0809067e-07 7.257859e-09
000250 16 79 8f 33 19 b2 1c 34 6b 20 39 b5 75 93 63 36
       6.680982e-08 1.4593424e-07 -6.8965045e-07 3.3911467e-06
000260 38 e8 90 35 6e 86 9a b7 28 de 43 b5 b3 6e 43 b6
       1.0796421e-06 -1.842083e-05 -7.296644e-07 -2.91217e-06
000270 34 50 7f b2 80 b6 41 35 a0 8a 55 36 21 3c e0 b3
       -1.486119e-08 7.2163675e-07 3.1820164e-06 -1.044175e-07
000280 68 61 45 b6 c8 73 f6 32 d3 91 d5 b6 09 4f 78 b6
       -2.9411985e-06 2.869082e-08 -6.364871e-06 -3.7000884e-06
000290 45 9b 20 35 05 c3 f5 35 b1 b1 2c 35 4c b7 33 b4
       5.983059e-07 1.8310681e-06 6.433357e-07 -1.6737357e-07
0002a0 a0 fc 25 33 17 d4 7a 36 32 ff 69 34 03 24 18 35
       3.8646817e-08 3.7376356e-06 2.1792656e-07 5.6676816e-07
0002b0 83 53 a7 34 b6 19 a8 b3 a5 d3 7d b6 e6 44 8c b3
       3.1166937e-07 -7.8277864e-08 -3.7823131e-06 -6.5317906e-08
0002c0 f6 42 06 b5 44 76 30 b6 0d 89 08 b5 fe 1e 08 36
       -5.001633e-07 -2.6294883e-06 -5.0863383e-07 2.028362e-06
0002d0 67 00 68 35 4f ce 98 b4 0f c1 da 2f 3c a7 54 35
       8.642732e-07 -2.8462316e-07 3.9791145e-10 7.921951e-07
0002e0 53 e6 f3 b6 86 30 7f b7 05 7e 28 b5 6f 9c 49 34
       -7.2687776e-06 -1.5210482e-05 -6.276826e-07 1.8776494e-07
0002f0 4f 8c 91 34 a2 78 89 b4 53 de 26 34 54 cb 89 34
       2.7110443e-07 -2.560601e-07 1.5540836e-07 2.566618e-07
000300 cb ad d3 34 81 90 dc b5 ba 59 3d 36 2c f1 11 b7
       3.9428264e-07 -1.6433333e-06 2.8215422e-06 -8.698826e-06
000310 f2 ea a8 b5 a5 a4 93 37 05 4b 5e 36 4b 92 5d b4
       -1.2585353e-06 1.7600434e-05 3.3124245e-06 -2.063545e-07
000320 1a 2e 24 b5 c2 ec 37 b3 ac 27 c9 37 44 59 15 b5
       -6.116185e-07 -4.2823338e-08 2.397954e-05 -5.5636724e-07
000330 b3 9b 44 b6 cc fb 77 b6 d7 76 22 b7 94 50 67 37
       -2.9296905e-06 -3.6952433e-06 -9.683622e-06 1.3787434e-05
000340 77 ad c0 b5 cb 75 12 36 88 06 7d b6 a3 8b 3e b5
       -1.43556e-06 2.182426e-06 -3.770374e-06 -7.0983714e-07
000350 2f 94 2b 35 2f f3 42 37 15 04 94 b5 72 45 0e 36
       6.39181e-07 1.1619922e-05 -1.1028047e-06 2.1200071e-06
000360 26 a9 00 b7 43 85 8b b3 3f ef 7c 34 9b b5 8e 35
       -7.6687775e-06 -6.496932e-08 2.3556366e-07 1.0632679e-06
000370 8b 08 2b b5 74 8e c2 35 2d 5d c5 b6 37 c4 bb 34
       -6.3714896e-07 1.4495586e-06 -5.8819046e-06 3.497423e-07
000380 07 92 2f b6 45 e2 23 b6 b3 ea 91 36 cf 50 3d b5
       -2.6162031e-06 -2.44206e-06 4.3486593e-06 -7.052558e-07
000390 ba 80 14 b6 da 65 e6 b6 cd 6e 27 b7 15 8e 0a 36
       -2.2128647e-06 -6.8663912e-06 -9.9797735e-06 2.0646305e-06
0003a0 dc 03 d0 b3 b7 49 26 31 f7 07 e4 b5 80 22 07 35
       -9.686457e-08 2.4198081e-09 -1.6989642e-06 5.0341623e-07
0003b0 71 b2 ad b6 2c 9a d4 b4 12 4f 2c 36 e5 0b 8f 31
       -5.176575e-06 -3.9600252e-07 2.5676022e-06 4.1632e-09
0003c0 c3 c0 c3 b3 d8 d5 c2 b4 68 15 20 b6 8e 55 a2 36
       -9.115458e-08 -3.6290908e-07 -2.3854318e-06 4.837936e-06
0003d0 26 27 5d b4 d6 cd b0 b5 2c 00 0c 36 f5 ee 0d b5
       -2.0596471e-07 -1.3172928e-06 2.0861726e-06 -5.287432e-07
0003e0 da 68 10 b5 f8 f7 2b 35 8c 0e 89 34 ef 29 be b4
       -5.379676e-07 6.4063306e-07 2.5528823e-07 -3.5420769e-07
0003f0 39 1a 91 b8 f1 bf 85 38 db 88 8f 38 29 46 2f b8
       -6.919023e-05 6.377686e-05 6.844263e-05 -4.1788593e-05

exp_avg_sq f4 [504, 1]
000000 3f 51 c1 2b b7 f1 8b 29 4c f8 54 29 c1 73 1b 2b
       1.3736025e-12 6.214771e-14 4.728882e-14 5.5227703e-13
000010 78 e7 4f 2b 00 1b 91 26 e2 4e 3a 29 7d e6 93 27
       7.38624e-13 1.0068715e-15 4.1368716e-14 4.105059e-15
000020 7f 36 16 2a 2d b5 d7 2a aa 4f 08 2c ec 51 09 2a
       1.3341583e-13 3.8317388e-13 1.9370985e-12 1.2196467e-13
000030 62 24 87 28 9d 42 64 28 d4 9a e1 29 0d 4c 40 2d
       1.500379e-14 1.2670987e-14 1.00188656e-13 1.0930823e-11
000040 f8 f9 b0 2c 8d d0 14 28 2d bc 2b 29 b1 3e f9 26
       5.029973e-12 8.260873e-15 3.8132844e-14 1.7294838e-15
000050 d0 a9 25 28 cb 4d 62 25 a9 3c e3 27 71 4a 2d 28
       9.196162e-15 1.9628733e-16 6.3070925e-15 9.619571e-15
000060 6f 95 30 29 1e 28 a1 2b be c7 4d 2a 67 f4 e9 2d
       3.9209463e-14 1.1450873e-12 1.8276957e-13 2.659757e-11
000070 c8 3b 4b 2a 86 97 7f 2b 9a 75 69 29 9b fe 1b 29
       1.8050763e-13 9.080448e-13 5.1838396e-14 3.463775e-14
000080 e6 b6 9d 2b bc 35 2e 28 99 ce 7b 2b a5 4e 24 26
       1.1206285e-12 9.670592e-15 8.9459825e-13 5.7005513e-16
000090 26 75 87 2c 0d 9a df 2b 13 6c d7 29 64 a7 0d 2b
       3.849937e-12 1.5887861e-12 9.566666e-14 5.0325564e-13
0000a0 5d 11 eb 29 c4 01 38 27 a4 1b 60 29 27 02 91 2b
       1.04391085e-13 2.5536087e-15 4.9761966e-14 1.0303467e-12
0000b0 29 26 c4 27 7d 27 22 29 22 1c 05 29 b3 de fc 28
       5.44423e-15 3.6005477e-14 2.9556334e-14 2.80742e-14
0000c0 40 a5 b5 2b 95 12 a4 28 79 4b 5c 29 b9 d9 45 2b
       1.290669e-12 1.8215716e-14 4.8915275e-14 7.029061e-13
0000d0 8d 9d e3 28 1e b7 8a 2b 45 80 97 29 48 7c 64 28
       2.527039e-14 9.856315e-13 6.727998e-14 1.2683492e-14
0000e0 bd d9 30 28 23 cd d6 2b 37 52 f6 2c f5 94 bd 2d
       9.817177e-15 1.5262551e-12 7.000868e-12 2.1552963e-11
0000f0 cf e2 47 29 2c fc b6 29 dd b5 52 29 69 67 35 28
       4.43836e-14 8.1261685e-14 4.6787108e-14 1.0069942e-14
000100 d1 f5 b2 27 fc 99 16 29 16 3d c3 28 ba d0 85 2a
       4.967144e-15 3.344025e-14 2.167584e-14 2.377038e-13
000110 e1 d2 fb 2b bd c3 e7 2c 98 35 8d 2a 94 7e d8 2d
       1.7893153e-12 6.587146e-12 2.508382e-13 2.4612569e-11
000120 8a 7b 91 2b 7f 06 9c 28 d8 65 64 29 21 c8 b7 27
       1.0337159e-12 1.7322296e-14 5.0714505e-14 5.1009684e-15
000130 8c 50 64 2e 24 26 88 29 77 51 66 2b f2 5f b6 2b
       5.1912738e-11 6.0462296e-14 8.182547e-13 1.2958508e-12
000140 ba b5 07 2d 2c 6b b4 2d 00 33 b9 2a 77 66 b1 2b
       7.714213e-12 2.0511225e-11 3.289799e-13 1.2605046e-12
000150 c1 f9 82 2b 86 7b 4b 29 11 64 67 29 a3 54 69 2d
       9.306376e-13 4.5182194e-14 5.1379098e-14 1.326331e-11
000160 af be 03 2a b5 88 db 2a 0a 23 b6 2c bf c5 e1 25
       1.1701294e-13 3.8997074e-13 5.1766412e-12 3.9165276e-16
000170 6a 8f 03 28 f5 5b 03 2a 0a 47 32 29 03 ae 7d 2a
       7.303059e-15 1.1667041e-13 3.9585556e-14 2.2531286e-13
000180 cd 25 c4 2c 8f eb f4 28 f8 57 04 2b e1 68 de 2a
       5.5748518e-12 2.7191599e-14 4.70179e-13 3.9507896e-13
000190 b1 9b f2 2b e3 fe 3b 29 e9 03 2d 2b 2d 7e 13 2d
       1.7238347e-12 4.174342e-14 6.1467373e-13 8.383999e-12
0001a0 32 b6 df 2c 74 23 87 2b 84 5b 6d 27 95 da 56 25
       6.358269e-12 9.602167e-13 3.2939968e-15 1.86356e-16
0001b0 b6 b6 0c 2b be 02 22 29 f3 50 0d 2c 01 c9 99 28
       4.9991554e-13 3.5973604e-14 2.008224e-12 1.7073584e-14
0001c0 c5 94 a5 2b 81 39 8c 29 87 b8 1a 27 0f 9b 81 28
       1.1765247e-12 6.227224e-14 2.1471826e-15 1.4389123e-14
0001d0 e5 11 45 2b 7f e2 56 2c 96 3d 94 28 c3 80 4b 2a
       7.0013293e-13 3.053696e-12 1.645801e-14 1.8074695e-13
0001e0 25 f1 41 2b f3 3b 14 2b 10 70 2a 29 6c 26 fb 29
       6.890203e-13 5.266336e-13 3.784478e-14 1.1153304e-13
0001f0 f9 39 bd 29 92 12 f2 28 5c fb 0b 2c 1e 6a a6 29
       8.403343e-14 2.687545e-14 1.989262e-12 7.390289e-14
000200 53 85 2b 29 cc ff 00 2b 95 74 65 2b 9b 8e 46 26
       3.8085268e-14 4.5829725e-13 8.1518933e-13 6.8888316e-16
000210 b6 bf 4b 29 05 76 78 27 a1 21 19 2a 02 1b d2 2a
       4.5241338e-14 3.4480892e-15 1.3600797e-13 3.7322234e-13
000220 ca 88 fb 2b a5 4d 0b 2a a6 07 50 28 10 a8 33 28
       1.7872589e-12 1.2372618e-13 1.1547978e-14 9.972939e-15
000230 d4 1f de 29 b2 96 2e 2d 06 4f c0 2c 7e ae cb 27
       9.864302e-14 9.924216e-12 5.4657416e-12 5.6533003e-15
000240 1b 34 0c 29 90 d6 c1 26 12 3d 06 28 97 c6 76 25
       3.113144e-14 1.3450223e-15 7.451737e-15 2.1404384e-16
000250 e3 0f ba 27 01 63 9b 27 e0 3f 4a 29 4f 32 84 2b
       5.1642595e-15 4.3128482e-15 4.4908413e-14 9.393128e-13
000260 e1 16 57 2a 74 29 0f 2e bb d5 12 2a 6f 17 51 2b
       1.9103774e-13 3.2551253e-11 1.3041558e-13 7.4284237e-13
000270 60 85 82 29 c5 a0 12 29 59 81 9d 2b 26 78 43 28
       5.7962966e-14 3.2557958e-14 1.1191422e-12 1.08507275e-14
000280 e6 d2 9a 2b 7e 30 03 26 a3 4b 6e 2c 00 46 e8 2b
       1.1000894e-12 4.5515474e-16 3.386382e-12 1.650402e-12
000290 3c 91 d1 29 49 cf 25 2b 36 79 f0 29 cc e8 06 27
       9.3066586e-14 5.890744e-13 1.0679168e-13 1.8722435e-15
0002a0 ac 19 67 29 4e 77 9f 2b 73 2a 84 27 3a c4 15 29
       5.131457e-14 1.1330743e-12 3.6683383e-15 3.3254846e-14
0002b0 bd 0e f9 28 13 68 f8 28 de 5d ac 2b 58 f1 8f 28
       2.7650945e-14 2.7578666e-14 1.2247388e-12 1.5980855e-14
0002c0 71 4a 47 29 6e 6c 3f 2b 21 95 ee 28 b0 f3 9a 2b
       4.4251444e-14 6.800731e-13 2.6487982e-14 1.1009995e-12
0002d0 34 0a 8a 29 4b bd 44 28 7d 62 9f 27 b6 f9 c1 2b
       6.130201e-14 1.0921232e-14 4.4238146e-15 1.3782784e-12
0002e0 7d 44 d9 2c e0 f5 b9 2d a8 ac 4f 29 b5 e9 bb 29
       6.1751147e-12 2.1141255e-11 4.611299e-14 8.34501e-14
0002f0 e7 e7 73 29 c1 2d 1e 28 a4 73 b9 27 3d 45 1a 29
       5.4157982e-14 8.780683e-15 5.1473193e-15 3.4254924e-14
000300 de 7a 9d 28 e0 00 75 2a 34 87 ed 2b 90 7e 01 2d
       1.7483787e-14 2.1760675e-13 1.6877389e-12 7.3609036e-12
000310 82 38 67 2a 69 1c cd 2d a3 a4 66 2b 36 4f 80 28
       2.0536527e-13 2.3318418e-11 8.1940894e-13 1.4245207e-14
000320 64 45 67 29 7f f3 9d 27 51 7b 61 2e e9 f0 94 29
       5.135249e-14 4.3840253e-15 5.1268604e-11 6.6143116e-14
000330 85 04 92 2b 3b 1c d2 2b d8 b3 02 2d cb 05 a1 2d
       1.0375178e-12 1.4929233e-12 7.429578e-12 1.8306153e-11
000340 1d 61 c1 2a 3c a0 98 2b af 60 8d 2b 26 a8 47 29
       3.4351073e-13 1.0844724e-12 1.0045488e-12 4.4332722e-14
000350 00 a3 72 29 76 2f 86 2d 7d 07 f1 29 fe 7e c7 2a
       5.3876174e-14 1.5255113e-11 1.0703849e-13 3.543762e-13
000360 92 f7 a6 2c 26 24 fb 25 e5 1e c7 27 ac 35 03 2a
       4.7454896e-12 4.3566054e-16 5.526709e-15 1.1653758e-13
000370 52 a3 43 29 e1 4e 85 2a e6 e2 b7 2c af e9 07 29
       4.3440356e-14 2.368028e-13 5.2263636e-12 3.017871e-14
000380 47 74 03 2b 01 6c 05 2b 35 24 d6 2b ee 9d 44 29
       4.6701916e-13 4.740098e-13 1.5215664e-12 4.3657725e-14
000390 90 f0 4b 2b aa 55 02 2d d8 d5 de 2c 50 e5 81 2b
       7.2453935e-13 7.408666e-12 6.333361e-12 9.229648e-13
0003a0 c5 3c 65 27 8f 4c 30 25 8c 61 2d 2b 20 d7 c4 28
       3.1813077e-15 1.5291506e-16 6.159732e-13 2.1853667e-14
0003b0 b3 8f 18 2c 80 25 91 28 99 84 a5 2b 1e 68 5d 29
       2.1680268e-12 1.6114497e-14 1.1760758e-12 4.9162165e-14
0003c0 5b 0c 99 26 9f 77 2c 28 14 fd 18 2b eb 4a 5b 2c
       1.0619857e-15 9.573857e-15 5.4352464e-13 3.116336e-12
0003d0 5a e4 a3 28 e6 07 2b 2a 9b ad 28 2b 2d 41 d9 2a
       1.8195667e-14 1.5190591e-13 5.9926516e-13 3.8592168e-13
0003e0 0c e3 38 29 ed ce fe 29 b3 ce b2 29 cc 98 4a 28
       4.105314e-14 1.1315762e-13 7.9406445e-14 1.1246385e-14
0003f0 39 b8 05 30 8d 5d c5 2f 2f b4 de 2f 16 a6 3f 2f
       4.8646914e-10 3.5900563e-10 4.0509593e-10 1.7430354e-10

exp_avg f4 [504, 126]
000000 22 b3 02 b6 ff 16 ee b4 fc e4 84 b4 66 52 a5 b5
       -1.9475779e-06 -4.4347686e-07 -2.4753524e-07 -1.2317439e-06
000010 6e 6f d0 b5 83 33 7e b2 bc 1e 80 b5 e6 43 53 b4
       -1.5529638e-06 -1.4796458e-08 -9.545688e-07 -1.9675608e-07
000020 62 da 81 34 29 1b 0d 35 3a 0f 34 35 66 08 85 b5
       2.4187017e-07 5.2566116e-07 6.7077383e-07 -9.911716e-07
000030 eb 63 93 b4 36 9a 55 34 d5 ec 9a b5 ad 39 0f 36
       -2.7453584e-07 1.9893272e-07 -1.1542821e-06 2.1342232e-06
000040 c6 a2 c5 35 84 30 ca 32 ac 51 56 b5 8d 61 75 b4
       1.4725017e-06 2.3537957e-08 -7.984006e-07 -2.2852892e-07
000050 7d 13 84 b4 22 bf 3e b3 ad d1 01 b5 63 68 48 b4
       -2.4601096e-07 -4.4411657e-08 -4.8361363e-07 -1.8664427e-07
000060 28 e9 7d b5 58 80 77 35 62 a5 d4 34 d5 e9 e4 35
       -9.458913e-07 9.2201435e-07 3.960841e-07 1.7055378e-06
000070 e7 17 ae 33 b9 c2 ca 34 bb 74 31 35 90 04 0c b5
       8.106854e-08 3.776711e-07 6.6107503e-07 -5.2160703e-07
000080 47 2f 78 b5 fd 5c 3e b5 5f cb 66 35 05 f4 12 b4
       -9.2455997e-07 -7.091583e-07 8.597762e-07 -1.3686083e-07
000090 91 c4 10 35 a9 ee c6 b5 76 71 33 35 b7 f8 dc 35
       5.393022e-07 -1.4821609e-06 6.6847804e-07 1.6463663e-06
0000a0 9d 67 a5 35 34 cd 2c b4 a2 2d 9f b5 4a 77 a8 b5
       1.2323613e-06 -1.6093401e-07 -1.1859704e-06 -1.2551693e-06
0000b0 7b b8 0c 34 71 f0 16 34 b9 88 53 b5 7c 20 5f b5
       1.310563e-07 1.405731e-07 -7.8802583e-07 -8.3121245e-07
0000c0 48 fa d0 34 82 25 12 b4 2c f4 e1 b4 fb 77 27 35
       3.8925123e-07 -1.3610955e-07 -4.2087174e-07 6.238694e-07
0000d0 17 92 00 b5 49 5a 9f 34 cd c5 a3 b5 87 b8 cf b4
       -4.7896305e-07 2.968175e-07 -1.2202014e-06 -3.8691016e-07
0000e0 5c 31 6d 32 44 b8 ed 34 67 ec 85 35 9f fb 06 36
       1.3806439e-08 4.427876e-07 9.978074e-07 2.0114019e-06
0000f0 71 47 95 34 23 c2 c7 b5 f7 7c c1 b5 6b 61 e2 b4
       2.7805393e-07 -1.4883157e-06 -1.441599e-06 -4.216666e-07
000100 d2 65 8c b4 bb fc 9a b5 dc 56 cc b4 d5 e1 88 35
       -2.6151116e-07 -1.1547448e-06 -3.806116e-07 1.0198515e-06
000110 54 c7 39 35 02 14 71 35 9a c9 87 b5 14 5b c2 35
       6.920793e-07 8.980861e-07 -1.0116958e-06 1.4480634e-06
000120 74 bf 89 35 10 df c6 34 4e fe 16 b5 18 3d e9 b4
       1.0263016e-06 3.7042673e-07 -5.6249417e-07 -4.3444084e-07
000130 cd 75 98 35 ed 3a 8c b5 37 f2 3b 35 d9 4b cd 35
       1.1359167e-06 -1.0447962e-06 7.00154e-07 1.5295765e-06
000140 f3 b6 aa 35 c9 47 8a 35 87 9f 72 34 9f 0e 22 b6
       1.2719232e-06 1.0302693e-06 2.2596042e-07 -2.4148392e-06
000150 40 16 81 35 79 7f ab 34 2f d6 22 b5 7d d9 ab 35
       9.617725e-07 3.194398e-07 -6.066138e-07 1.280379e-06
000160 a8 11 7c 34 9a d7 01 34 e7 c5 c4 35 9f 67 8b b3
       2.3475752e-07 1.2092497e-07 1.4660735e-06 -6.4915405e-08
000170 7b f3 90 b4 a3 da d4 34 d1 bb c1 b4 26 7d b0 b5
       -2.6999246e-07 3.9647156e-07 -3.6085706e-07 -1.3149445e-06
000180 1f 02 0d 36 6e b8 2f b5 a9 42 8d b5 e7 dd e3 34
       2.1011872e-06 -6.546096e-07 -1.0524719e-06 4.24435e-07
000190 cd be dd b5 8f db 4e b5 b6 75 af 35 3a 95 94 35
       -1.6521313e-06 -7.706048e-07 1.3072774e-06 1.107029e-06
0001a0 ec 3a bc 35 4b 6c 84 35 72 02 19 35 df 91 07 b3
       1.402424e-06 9.866284e-07 5.70005e-07 -3.1564806e-08
0001b0 40 3e 0f 36 36 6e b0 b4 45 c0 72 35 dd 61 0b b5
       2.1344895e-06 -3.2862744e-07 9.0431814e-07 -5.1923945e-07
0001c0 68 58 3a b6 af a5 83 b5 d0 04 77 32 33 0f d4 33
       -2.776762e-06 -9.808481e-07 1.43783865e-08 9.874784e-08
0001d0 08 58 0f 35 b9 d3 9e 35 97 6a b7 b4 a6 47 d4 34
       5.3399754e-07 1.1833537e-06 -3.416396e-07 3.9540208e-07
0001e0 89 2a cf 35 37 91 fb 34 d3 09 76 35 b2 50 dd b5
       1.5435081e-06 4.685805e-07 9.165644e-07 -1.6489269e-06
0001f0 3b 03 cb b5 1a 13 4f b4 f0 9d a3 34 6f e2 95 33
       -1.5125619e-06 -1.9285326e-07 3.047603e-07 6.979541e-08
000200 2b 25 4d 33 69 a7 61 34 8c 8d 7e 34 c2 36 06 b1
       4.7764086e-08 2.1015661e-07 2.3707088e-07 -1.9530693e-09
000210 7c 01 1d 34 50 84 02 33 2a 1f 30 b3 61 84 94 b3
       1.4622304e-07 3.038832e-08 -4.1006537e-08 -6.9158666e-08
000220 9b 03 d5 b3 fb cb 22 34 28 13 50 33 6d e8 d9 b2
       -9.919241e-08 1.5161633e-07 4.8446196e-08 -2.536782e-08
000230 17 53 44 34 01 97 bc b4 1c 1e 83 b4 2f 26 2c 32
       1.828415e-07 -3.51276e-07 -2.442256e-07 1.00204e-08
000240 47 e6 14 34 9f 1d 40 33 a3 b7 40 33 1b 50 ef 31
       1.3867349e-07 4.4730424e-08 4.48705e-08 6.9649224e-09
000250 28 c0 ab 33 80 6f 3a 33 97 4a 18 34 05 7a 28 b4
       7.997761e-08 4.340791e-08 1.4183239e-07 -1.569061e-07
000260 ee 87 69 b3 bd b3 8c b4 12 56 38 b2 9f 35 9e b3
       -5.4373167e-08 -2.620781e-07 -1.072978e-08 -7.367202e-08
000270 71 5c e2 b3 ac 69 b3 33 17 f8 11 34 d4 ad 03 34
       -1.054076e-07 8.354559e-08 1.3594432e-07 1.2263564e-07
000280 95 50 09 b4 30 18 e0 32 b5 74 b9 b3 a7 af 70 34
       -1.2788435e-07 2.6088031e-08 -8.635963e-08 2.2415644e-07
000290 4c 04 d5 b3 f1 1d 8a b4 f1 ad 5a b4 a7 fb 04 33
       -9.919367e-08 -2.5726288e-07 -2.0366112e-07 3.096252e-08
0002a0 8e 19 41 34 5c 78 51 34 34 cc e7 b2 66 e2 c1 b2
       1.7983822e-07 1.9508428e-07 -2.69848e-08 -2.2571111e-08
0002b0 15 c4 0c 34 fa e5 0f 34 40 8c 84 b3 b7 d6 e2 31
       1.310985e-07 1.3401578e-07 -6.17224e-08 6.601876e-09
0002c0 fd c6 98 33 69 12 c6 b3 e8 b4 b3 33 e8 43 1d b3
       7.114247e-08 -9.223442e-08 8.368244e-08 -3.661617e-08
0002d0 46 ee 50 34 40 6a 83 33 01 e2 1e b0 43 64 7e b3
       1.9458193e-07 6.1194896e-08 -5.7801236e-10 -5.923017e-08
0002e0 49 1d 35 b4 ec f5 aa b4 23 75 56 b3 e4 fb 85 34
       -1.6867592e-07 -3.18439e-07 -4.9932293e-08 2.4956455e-07
0002f0 e2 2f 74 34 e0 2d 9c 33 5f bd 18 33 a7 99 45 34
       2.274169e-07 7.272661e-08 3.556249e-08 1.8402953e-07
000300 2d 49 88 33 8d 43 38 b4 7e 8b e0 b3 9f f9 11 b4
       6.346304e-08 -1.716091e-07 -1.0456186e-07 -1.3594989e-07
000310 d6 1e 37 34 95 7d 7c b4 15 06 37 b4 f8 c5 5c b3
       1.7054421e-07 -2.3515015e-07 -1.7045416e-07 -5.1402793e-08
000320 c9 59 b7 33 93 05 a3 33 d7 d5 46 b4 b6 c1 39 34
       8.5379334e-08 7.591293e-08 -1.8517981e-07 1.7299939e-07
000330 31 05 e0 b3 cc 42 7e b4 67 f4 55 b4 f8 e4 33 b4
       -1.0431757e-07 -2.3679894e-07 -1.9926084e-07 -1.6753972e-07
000340 fd 09 dd b2 89 29 d1 34 61 de 34 b4 c3 38 56 b3
       -2.5732328e-08 3.8959504e-07 -1.6844707e-07 -4.9877382e-08
000350 79 13 d5 33 14 c2 55 b4 92 35 0e b3 31 cd d9 b2
       9.9221275e-08 -1.9907776e-07 -3.3110673e-08 -2.5355435e-08
000360 26 ed 82 b4 0a 2e ce 31 5f 57 5a 33 dd f4 92 b3
       -2.4386935e-07 6.000623e-09 5.0836544e-08 -6.843195e-08
000370 81 f0 87 33 d1 ac 53 34 ad 13 b6 b4 18 85 dd 33
       6.330175e-08 1.9713777e-07 -3.3914458e-07 1.0315324e-07
000380 20 2f 3d 34 9b c1 81 b3 36 47 93 34 0b ce f4 33
       1.761914e-07 -6.042247e-08 2.7432696e-07 1.13996144e-07
000390 be 03 6b b4 5e af 41 b4 78 e7 7b b4 09 ec 2b b4
       -2.1887442e-07 -1.8038324e-07 -2.3460404e-07 -1.6011485e-07
0003a0 bd 67 dd b3 8e fd c1 31 35 17 b2 b4 cb f2 90 33
       -1.0309984e-07 5.645865e-09 -3.317197e-07 6.749686e-08
0003b0 4d d6 0e b4 52 22 c0 33 67 02 ef 34 1d 91 33 34
       -1.3302743e-07 8.9469395e-08 4.4518967e-07 1.6723466e-07
0003c0 3a ad af 31 74 8e 9d b2 a1 15 b6 b3 bf 0d 48 b4
       5.112864e-09 -1.8341986e-08 -8.47897e-08 -1.8631452e-07
0003d0 b6 82 51 33 10 a4 a1 b3 ed 1d 88 b4 1b 64 83 b3
       4.8780485e-08 -7.5269895e-08 -2.5353748e-07 -6.118372e-08
0003e0 21 51 13 b4 6d 62 93 34 7e 63 81 34 50 fe 3e 33
       -1.3719956e-07 2.7452498e-07 2.4100513e-07 4.4469118e-08
0003f0 dd 62 85 34 8d 81 71 33 58 d4 33 33 1a b3 3d 34
       2.4845113e-07 5.623001e-08 4.186981e-08 1.7667153e-07

exp_avg_sq f4 [504, 126]
000000 26 ec 75 2b b3 ef 59 29 c3 8d dc 27 b4 8f 8c 2a
       8.7369207e-13 4.8391585e-14 6.1215965e-15 2.496871e-13
000010 c1 aa 29 2b 43 1c f5 26 fb d1 83 2a f2 c0 69 28
       6.027783e-13 1.700795e-15 2.3415978e-13 1.2975937e-14
000020 94 21 25 28 f9 02 f0 29 e6 f6 10 2a 6c f2 88 2a
       9.166621e-15 1.0658657e-13 1.287543e-13 2.4326667e-13
000030 e0 9e 40 28 a1 f3 97 28 73 e8 a4 2a e5 6c 6f 2b
       1.06925916e-14 1.6870025e-14 2.9293546e-13 8.506098e-13
000040 4f 08 dc 2a d6 49 3f 28 b7 06 d7 29 f1 25 94 27
       3.9085616e-13 1.06186405e-14 9.549083e-14 4.111939e-15
000050 1a a3 0f 28 19 c1 68 26 50 82 50 29 20 07 81 27
       7.973462e-15 8.0752865e-16 4.6298306e-14 3.5812417e-15
000060 4a ed 89 2a 67 0e 23 2a 23 73 81 29 cc eb 48 2b
       2.450074e-13 1.4482305e-13 5.748724e-14 7.138151e-13
000070 60 90 8f 27 19 dd 66 28 38 9c d9 29 82 fa 90 29
       3.9847005e-15 1.2815508e-14 9.6638355e-14 6.438341e-14
000080 81 e2 8b 2a e6 43 aa 29 9b 9d 6e 2a 09 ab 19 27
       2.484853e-13 7.561295e-14 2.1193327e-13 2.1325734e-15
000090 a1 f6 8d 29 c3 1d 21 2b a2 47 10 2a cd 27 32 2b
       6.304441e-14 5.7239993e-13 1.2814622e-13 6.329354e-13
0000a0 17 7d 9a 2a ff af 32 27 94 e9 cc 2a cc 4a d4 2a
       2.7442694e-13 2.479787e-15 3.6399757e-13 3.7710666e-13
0000b0 50 0f dc 26 5e 6c 96 27 1e 80 fa 29 64 ff 1b 2a
       1.5269717e-15 4.1750855e-15 1.1124455e-13 1.3855372e-13
0000c0 98 f0 0e 29 dc a1 e0 28 c9 b2 16 29 fc ea fb 29
       3.1739016e-14 2.4939191e-14 3.3461762e-14 1.11874025e-13
0000d0 17 f5 10 29 12 bf 3a 29 20 4f b8 2a 9e f8 1e 29
       3.2187005e-14 4.1466024e-14 3.273987e-13 3.529869e-14
0000e0 48 94 4e 26 85 d3 ab 29 f3 e5 40 2a 21 fc 7c 2b
       7.1671566e-16 7.630618e-14 1.7132805e-13 8.9878284e-13
0000f0 48 2b 34 28 e8 cd d9 2a c9 3b 02 2b ab 60 e1 28
       1.0001392e-14 3.868982e-13 4.6268246e-13 2.5021941e-14
000100 b4 81 f6 28 02 e5 9b 2a 14 85 e5 28 c6 9e 4c 2a
       2.7367736e-14 2.7692437e-13 2.548182e-14 1.8173925e-13
000110 44 47 0f 2a 05 1d 6e 2a 09 b1 44 2a 2f 5e ec 2a
       1.2725677e-13 2.1148715e-13 1.7469718e-13 4.1987374e-13
000120 47 96 54 2a 6e 71 56 29 c6 67 af 29 90 b5 db 28
       1.888152e-13 4.761593e-14 7.789563e-14 2.4392624e-14
000130 ce be 8b 2a 96 0c 60 2a c2 b5 20 2a 59 0e 21 2b
       2.4823757e-13 1.9899563e-13 1.4273915e-13 5.72186e-13
000140 de fa ce 2a e2 59 6f 2a 3a fe fc 28 ca 6d a7 2b
       3.6767025e-13 2.1258649e-13 2.8087873e-14 1.1896536e-12
000150 d0 47 20 2a f7 fc d1 28 c8 03 9b 29 15 a6 d5 2a
       1.423577e-13 2.3313367e-14 6.884039e-14 3.7951643e-13
000160 a2 6c c8 28 9a b8 9b 26 b5 52 dc 2a f7 0b 7c 27
       2.2251572e-14 1.0805322e-15 3.913724e-13 3.4978511e-15
000170 a8 28 0b 28 83 8e c5 28 66 06 97 28 c5 a1 01 2b
       7.724866e-15 2.1933198e-14 1.6767143e-14 4.6054507e-13
000180 2c 04 81 2b fb 55 dd 29 cd 9e 62 2a 09 f7 8b 29
       9.167159e-13 9.829287e-14 2.0127927e-13 6.215694e-14
000190 be 70 09 2b ec c2 40 2a 7d 51 aa 2a 2d 8d 8c 2a
       4.882864e-13 1.7120653e-13 3.025461e-13 2.4966956e-13
0001a0 90 ca cb 2a 42 d9 56 2a f5 c4 49 29 ab 56 0d 26
       3.62006e-13 1.9082395e-13 4.48018e-14 4.903666e-16
0001b0 8a 7c 9a 2b 1a a1 1e 28 9b ae 85 2a 73 f1 34 29
       1.0976925e-12 8.805695e-15 2.3746703e-13 4.0177453e-14
0001c0 7f 3a e6 2b d7 e5 32 2a 22 db 96 27 91 f6 8b 26
       1.6358719e-12 1.5889318e-13 4.1870948e-15 9.711894e-16
0001d0 6b 26 90 29 e3 4f b5 2a 17 89 37 29 f1 21 89 28
       6.401549e-14 3.220749e-13 4.075307e-14 1.5224775e-14
0001e0 54 20 f9 2a 5d 88 c4 29 cd 32 82 2a 91 86 0b 2b
       4.4253717e-13 8.727804e-14 2.312789e-13 4.956947e-13
0001f0 7a 78 09 2b 1e 90 89 27 12 71 51 28 b3 92 37 26
       4.883937e-13 3.818139e-15 1.1626349e-14 6.3689694e-16
000200 58 f8 6f 25 cf 1a a6 27 34 8f 06 28 e5 eb 78 23
       2.0814088e-16 4.610332e-15 7.4695465e-15 1.34940595e-17
000210 89 da 50 27 db 2d 30 25 f5 16 45 25 46 0a 8e 26
       2.8984267e-15 1.5281103e-16 1.7094804e-16 9.856014e-16
000220 f9 37 d2 26 dc cf 5a 27 e0 92 85 25 35 1a 2c 25
       1.4586849e-15 3.0366258e-15 2.3171349e-16 1.4927501e-16
000230 d2 37 92 27 4b 4f 75 28 e7 d2 e8 27 75 da e3 24
       4.058366e-15 1.3617426e-14 6.4621596e-15 9.881564e-17
000240 8d 13 0b 27 2f 97 45 25 b9 15 62 25 41 69 2c 23
       1.9300724e-15 1.7138249e-16 1.9609735e-16 9.346427e-18
000250 9b 92 52 26 ab 74 54 25 bc cf 4e 27 28 40 3c 27
       7.3057073e-16 1.8427597e-16 2.8700856e-15 2.612502e-15
000260 f3 59 21 26 f1 37 22 28 49 f2 24 24 02 9b 0b 26
       5.598e-16 9.004937e-15 3.5767055e-17 4.843539e-16
000270 ae fc c2 26 cb 4e 80 26 00 e7 47 27 b1 71 d9 26
       1.3529943e-15 8.903141e-16 2.7742023e-15 1.5088216e-15
000280 40 2b 2e 27 4a 46 94 24 5f 53 81 26 60 73 f8 27
       2.4170797e-15 6.430384e-17 8.973771e-16 6.8958917e-15
000290 a1 f3 d1 26 3e ab 16 28 70 06 a2 27 77 c6 c5 24
       1.4568324e-15 8.363805e-15 4.497101e-15 8.5771344e-17
0002a0 0d 09 9f 27 a4 3c b0 27 d4 13 9b 24 7f 9a 8a 24
       4.414118e-15 4.891556e-15 6.7254125e-17 6.0109686e-17
0002b0 7a 03 06 27 89 70 14 27 0f 24 01 26 d8 76 54 25
       1.859812e-15 2.0600131e-15 4.4804734e-16 1.8428335e-16
0002c0 72 68 23 26 f2 79 b6 26 4c d2 44 26 08 42 cc 25
       5.6693535e-16 1.266184e-15 6.8286166e-16 3.5433103e-16
0002d0 58 c9 a5 27 0e 1a 09 26 f2 81 c4 22 b0 d9 4d 26
       4.6014997e-15 4.7566734e-16 5.326349e-18 7.1418684e-16
0002e0 62 33 5a 27 de 5e 5f 28 b7 2c 89 25 5e c3 ef 27
       3.0281432e-15 1.2399558e-14 2.3796012e-16 6.6547643e-15
0002f0 ba f9 e3 27 27 9c 13 26 fd 03 96 25 43 b3 8e 27
       6.327591e-15 5.1212496e-16 2.6023555e-16 3.9607273e-15
000300 03 b5 f8 25 1c 11 63 27 4d 47 db 26 b7 81 37 27
       4.31438e-16 3.1511853e-15 1.5215504e-15 2.546667e-15
000310 0e e3 5d 27 19 b9 e4 27 8f 48 62 27 91 c4 08 26
       3.0792998e-15 6.3483396e-15 3.1403135e-15 4.7450876e-16
000320 83 ea 89 26 57 dc 1b 26 8e 9f 8a 27 5e 5c 6b 27
       9.569849e-16 5.4075044e-16 3.8475684e-15 3.2662874e-15
000330 fd 84 ea 26 54 00 04 28 84 71 b1 27 69 49 68 27
       1.6273058e-15 7.327543e-15 4.9250443e-15 3.2236263e-15
000340 ea 81 82 25 4b 7b 9e 28 b9 fc 50 27 ad 4e b2 25
       2.2639438e-16 1.7594994e-14 2.90028e-15 3.093139e-16
000350 92 c6 9c 26 98 74 b3 27 ec 88 7f 25 43 48 82 24
       1.0878497e-15 4.980889e-15 2.2164115e-16 5.650093e-17
000360 7a 07 ea 27 6d ab f4 23 25 8b 88 25 6a 87 02 26
       6.4956153e-15 2.6527135e-17 2.3686527e-16 4.528633e-16
000370 76 74 d9 25 6a b4 c3 27 2d ef 72 28 e9 05 bf 26
       3.7722416e-16 5.4318978e-15 1.3485562e-14 1.3254889e-15
000380 e7 40 74 27 c5 4e 38 26 75 6f 12 28 8e 77 0b 27
       3.3896986e-15 6.3944577e-16 8.1287965e-15 1.9354936e-15
000390 c2 f8 b9 27 1b dc 87 27 03 31 da 27 88 4e 51 27
       5.161752e-15 3.7708666e-15 6.0560293e-15 2.9047148e-15
0003a0 9a 3f 97 26 9b aa f4 22 5e f8 7f 28 f3 13 ec 25
       1.0494969e-15 6.631697e-18 1.42092e-14 4.0952992e-16
0003b0 a6 7c 3f 27 a1 16 66 26 62 01 d4 28 23 49 52 27
       2.6574147e-15 7.982795e-16 2.3537328e-14 2.9183002e-15
0003c0 1f 7c 22 24 88 c9 09 24 70 3b 7f 26 82 49 9c 27
       3.5233285e-17 2.9877843e-17 8.855145e-16 4.3378395e-15
0003d0 e3 bf f2 25 f0 59 12 26 c8 95 fe 27 7d c5 65 26
       4.2110336e-16 5.0775814e-16 7.0661555e-15 7.971798e-16
0003e0 d9 55 42 27 6d 62 14 28 95 67 f9 27 12 3f 5e 25
       2.6969446e-15 8.236993e-15 6.9223687e-15 1.92768e-16
0003f0 1d 09 cd 27 0c 89 ac 25 e0 59 12 25 fd df 35 27
       5.690881e-15 2.993011e-16 1.2693932e-16 2.524022e-15

exp_avg f4 [504]
000000 70 5b ed 37 d4 55 98 b6 a9 c8 7a b6 d3 5f 4b 37
       2.829518e-05 -4.5399447e-06 -3.7369703e-06 1.2122054e-05
000010 f0 6b 12 37 8a 13 3b b4 2f c9 36 b6 b9 8d 34 b5
       8.727409e-06 -1.742284e-07 -2.7237218e-06 -6.726146e-07
000020 39 6e 00 37 6d c5 2a b5 0a 7a 01 38 4d 03 a2 b6
       7.655058e-06 -6.361723e-07 3.0869654e-05 -4.8283605e-06
000030 b8 20 0c 36 db dc ad 34 b7 4d ce 36 11 93 04 38
       2.088067e-06 3.2384455e-07 6.1483256e-06 3.160822e-05
000040 e9 e2 44 38 95 f3 e5 35 43 2d e4 b5 c0 54 41 b5
       4.6941368e-05 1.7132721e-06 -1.7000497e-06 -7.202143e-07
000050 3c 50 a2 35 99 f8 2c 34 09 e3 30 35 fb 4d d8 b3
       1.2093292e-06 1.6109188e-07 6.589549e-07 -1.00724684e-07
000060 92 13 83 b5 cc 62 b3 37 95 86 06 37 25 c8 d2 b8
       -9.765956e-07 2.1384469e-05 8.018357e-06 -0.0001005086
000070 9c 07 a1 b6 f8 cf 8d b7 f1 26 9e b5 0d a7 0f 36
       -4.7990598e-06 -1.6905353e-05 -1.1783251e-06 2.1405897e-06
000080 46 9b 87 37 14 19 b3 b5 15 b1 8a b7 02 01 2c 34
       1.6165559e-05 -1.3343838e-06 -1.6533342e-05 1.6019115e-07
000090 d9 d3 e4 b7 1d 01 c9 b7 72 9f 81 36 d9 82 62 37
       -2.7278367e-05 -2.3961586e-05 3.8630615e-06 1.3501115e-05
0000a0 e8 2b d7 36 d3 bd 58 b5 7e 72 1e 36 11 89 88 37
       6.4126107e-06 -8.07425e-07 2.3610478e-06 1.627629e-05
0000b0 cc 87 b5 35 4a c3 41 36 9d f8 82 36 dd 95 2a b6
       1.3525073e-06 2.8872914e-06 3.9032443e-06 -2.5419206e-06
0000c0 87 6f 10 b8 95 64 6f b4 a3 66 1d b6 05 9c 81 b7
       -3.4436143e-05 -2.2295201e-07 -2.3454566e-06 -1.545065e-05
0000d0 cf 1c 44 b6 1d 6c 33 37 4d 44 f7 35 fc 83 fe b5
       -2.9223045e-06 1.06944035e-05 1.8422812e-06 -1.8962887e-06
0000e0 ff d4 90 b5 8c 72 8c 36 f0 d2 f4 b7 a1 16 a1 b8
       -1.0790826e-06 4.18566e-06 -2.9185292e-05 -7.681293e-05
0000f0 de e1 11 b6 5b 09 09 b7 34 f4 2e 36 4e ff 01 b5
       -2.1738156e-06 -8.168015e-06 2.6070165e-06 -4.842776e-07
000100 ba 30 09 35 08 5b 59 b5 a1 6c 4a 36 0e 1f 0c b7
       5.1107384e-07 -8.097127e-07 3.0163576e-06 -8.351881e-06
000110 5b 06 c1 37 28 a6 64 b8 f2 ed 17 b7 10 4c a2 38
       2.3010352e-05 -5.451418e-05 -9.055702e-06 7.73893e-05
000120 d2 5a 88 37 15 f6 98 b4 29 f6 af b6 23 3a 21 35
       1.6254755e-05 -2.8491255e-07 -5.2440632e-06 6.0061774e-07
000130 7e 44 e7 38 8d 67 71 b6 07 64 e2 b7 47 6e 8a 37
       0.00011027696 -3.5972073e-06 -2.6987878e-05 1.6502234e-05
000140 f5 6f 30 b8 21 2f d0 38 8a f3 94 b6 58 d0 52 37
       -4.2065938e-05 9.926991e-05 -4.4390954e-06 1.2565484e-05
000150 95 87 83 b7 da 2e 93 b6 8f f7 90 36 6e f0 07 38
       -1.5679552e-05 -4.3863956e-06 4.320354e-06 3.2410426e-05
000160 b4 cb d0 b6 58 2c 2b 37 62 75 81 b8 63 a3 0e 34
       -6.222597e-06 1.0202719e-05 -6.1730636e-05 1.328422e-07
000170 df 79 ce 35 e9 69 d4 36 d7 57 80 b6 ac 69 c4 36
       1.5383665e-06 6.330422e-06 -3.824923e-06 5.853557e-06
000180 93 77 48 b8 19 af c1 35 9e cf 54 b7 21 b7 3f b7
       -4.7795078e-05 1.4430581e-06 -1.2684524e-05 -1.1427125e-05
000190 83 c3 9d 37 f7 9e 08 35 99 50 52 b7 e7 5e 22 b8
       1.88069e-05 5.089527e-07 -1.2535741e-05 -3.8712195e-05
0001a0 1e d5 74 b7 19 a5 b8 37 1c 2e 86 35 24 5f 9b 33
       -1.45931535e-05 2.2011389e-05 9.997198e-07 7.235056e-08
0001b0 4f 96 56 b7 d6 d1 2e 36 bd 3b a5 b7 0a a9 5d b5
       -1.279039e-05 2.605016e-06 -1.969735e-05 -8.25749e-07
0001c0 71 d3 a8 37 60 d9 38 36 27 c4 0e b5 bd 27 12 b6
       2.012562e-05 2.7544665e-06 -5.318456e-07 -2.1778826e-06
0001d0 3c 52 98 b7 36 20 27 38 e2 22 2b b6 de f4 ff b6
       -1.8158105e-05 3.98459e-05 -2.550129e-06 -7.6280985e-06
0001e0 b6 a1 6b 37 b3 55 4d b6 95 2e 70 b6 c3 2b e6 36
       1.4044743e-05 -3.0597264e-06 -3.5789901e-06 6.8596287e-06
0001f0 47 9c 42 36 fd d0 90 b5 74 7a 0f 38 51 8f a4 b6
       2.8999218e-06 -1.078966e-06 3.42079e-05 -4.904265e-06
000200 8b 8a 70 b6 a4 32 3d 37 03 e4 1c 37 b0 24 63 b4
       -3.584343e-06 1.1277069e-05 9.351413e-06 -2.1154369e-07
000210 f0 99 41 b6 28 f5 38 b5 4a 68 03 37 e7 7f 7b b5
       -2.8848845e-06 -6.890209e-07 7.83249e-06 -9.369091e-07
000220 44 ba fd 37 db 07 a5 b6 01 d3 fd 35 e4 be 34 34
       3.0246687e-05 -4.9182977e-06 1.8911379e-06 1.6833252e-07
000230 c5 f9 cb 36 1f cf f7 37 5b e9 4e 38 97 19 f1 35
       6.0789484e-06 2.9541143e-05 4.9331557e-05 1.7963347e-06
000240 62 35 b4 b5 bd 81 3c b5 49 d4 a0 35 04 1d 43 34
       -1.3426582e-06 -7.022425e-07 1.1982712e-06 1.8171346e-07
000250 14 c4 1a 35 0b b1 ae 34 f7 7e 9e b5 32 4b a4 37
       5.76548e-07 3.253884e-07 -1.1808869e-06 1.9585339e-05
000260 89 9b 0c 37 97 cc ea b8 e8 4e 3e b6 0a 50 82 b7
       8.380864e-06 -0.00011196097 -2.8358136e-06 -1.5534479e-05
000270 24 cc a7 b5 b1 64 09 36 ec 55 8a 37 53 49 d2 b5
       -1.2501882e-06 2.04732e-06 1.6490892e-05 -1.5667559e-06
000280 8e a0 a0 b7 3e 3b 4b 34 80 fe d6 b7 b9 18 d4 b7
       -1.914825e-05 1.89274e-07 -2.5629299e-05 -2.5283882e-05
000290 c0 67 81 36 07 11 79 37 be 82 dc 36 60 59 2f b5
       3.8565777e-06 1.4845521e-05 6.5717313e-06 -6.532264e-07
0002a0 b7 9a 18 36 c3 84 8f 37 b5 91 a2 35 7d c8 36 36
       2.273982e-06 1.710875e-05 1.2112347e-06 2.7236813e-06
0002b0 a0 4c 7c 36 f2 97 28 b6 ef 78 0d b8 35 41 c8 b4
       3.7595528e-06 -2.5122395e-06 -3.3729648e-05 -3.7300347e-07
0002c0 73 0e 19 b6 54 8b 7e b7 df 17 51 b6 e5 34 5c 37
       -2.2807187e-06 -1.517202e-05 -3.1157322e-06 1.3125337e-05
0002d0 85 70 ef 35 64 49 eb b5 56 ee ea b4 f3 af 47 36
       1.7839635e-06 -1.7530224e-06 -4.375931e-07 2.9755727e-06
0002e0 11 23 eb b7 6a 67 9f b8 52 a0 01 b6 a8 e3 09 b7
       -2.8030512e-05 -7.600973e-05 -1.9315817e-06 -8.218842e-06
0002f0 9c 83 3f 36 62 2e db b4 62 c4 10 35 b3 c3 5d b5
       2.8537825e-06 -4.0825677e-07 5.3929955e-07 -8.2613695e-07
000300 18 af 35 36 54 ce 07 b7 c2 e1 c1 37 6f 86 6e b8
       2.707302e-06 -8.094667e-06 2.311252e-05 -5.6868823e-05
000310 2f 79 08 b7 e5 2a 9e 38 40 1d 75 37 68 22 a2 b4
       -8.134447e-06 7.542017e-05 1.4609948e-05 -3.0199885e-07
000320 c6 28 b3 b6 1a 01 40 35 e5 08 e6 38 52 62 6e b6
       -5.3393624e-06 7.1527177e-07 0.000109689114 -3.5521994e-06
000330 df 1c 00 b8 22 43 97 37 87 34 2d b8 48 87 c5 38
       -3.0544466e-05 1.8031864e-05 -4.1295334e-05 9.41889e-05
000340 62 37 ad b6 d6 be 42 37 0b 5c 89 b7 66 6e 90 b6
       -5.162249e-06 1.16077335e-05 -1.6374534e-05 -4.3043865e-06
000350 8d 93 97 36 bb e1 13 38 9f 70 d7 b6 74 87 1c 37
       4.517328e-06 3.525776e-05 -6.42061e-06 9.329862e-06
000360 2a b4 74 b8 0e 53 6e b3 06 46 c8 35 d8 3f d2 36
       -5.8341924e-05 -5.548923e-08 1.4921541e-06 6.26592e-06
000370 85 ac 87 b6 b5 28 d1 36 79 5b 41 b8 99 23 ca 35
       -4.0433974e-06 6.2334243e-06 -4.6099976e-05 1.5060533e-06
000380 e7 19 55 b7 79 bc 48 b7 13 c9 94 37 0d c4 e6 34
       -1.270182e-05 -1.1964811e-05 1.7736607e-05 4.2983484e-07
000390 45 4a 66 b7 31 dc 18 b8 6a f1 6b b7 73 45 b3 37
       -1.37263605e-05 -3.6444693e-05 -1.40633e-05 2.1370803e-05
0003a0 d4 78 a3 35 85 04 5d 33 81 51 6a b7 ec 0f f1 35
       1.2179612e-06 5.1459683e-08 -1.39664635e-05 1.7960533e-06
0003b0 ef 03 aa b7 7b 8e 39 b5 33 9d a9 37 24 d3 2c 36
       -2.0267411e-05 -6.9125207e-07 2.0219572e-05 2.5752897e-06
0003c0 25 6d ec b4 c6 34 fe b5 18 0d 85 b7 9b 95 29 38
       -4.403784e-07 -1.8939834e-06 -1.5860933e-05 4.043207e-05
0003d0 74 88 32 b6 3b 4b 01 b7 fc 93 5b 37 3e 0b 0a b6
       -2.6603493e-06 -7.706515e-06 1.30878725e-05 -2.0570146e-06
0003e0 82 c1 6d b6 94 e6 e8 36 50 27 3d 36 16 13 9d b5
       -3.5428388e-06 6.9409816e-06 2.8186078e-06 -1.1702966e-06
0003f0 ea ac 0e ba 5e 1e b4 39 24 1a b5 39 75 1c 5c b9
       -0.00054426363 0.000343549 0.00034542487 -0.00020991436

exp_avg_sq f4 [504]
000000 17 3b 39 2f ba 54 2b 2c 0f d4 ad 2b 13 19 cf 2d
       1.6846645e-10 2.4347594e-12 1.2351247e-12 2.354431e-11
000010 e1 8e 85 2e 79 9b 83 29 e5 d4 25 2d 70 0d 20 2b
       6.07352e-11 5.844539e-14 9.426436e-12 5.6862067e-13
000020 c6 d7 fd 2c 95 48 03 2f 88 4b fc 2f f8 0a 6f 2d
       7.214648e-12 1.1940167e-10 4.58922e-10 1.3588013e-11
000030 6e 99 57 2b 86 8c 04 2c e5 5f 30 2d 09 68 1e 30
       7.659627e-13 1.8836334e-12 1.0025735e-11 5.762791e-10
000040 f3 3d fe 2f 87 2b bb 2b 58 70 d7 2c 7a f3 cc 29
       4.6246348e-10 1.329923e-12 6.12314e-12 9.101656e-14
000050 30 af 93 2a f4 93 0e 29 1e 52 87 2b de 77 91 2a
       2.6234006e-13 3.1658663e-14 9.615119e-13 2.584035e-13
000060 7f 92 c5 2c 2a 5c 8d 2e ad 2f 07 2e ad a4 7d 31
       5.615341e-12 6.428309e-11 3.073779e-11 3.6909953e-09
000070 ec 4e ba 2d 87 e1 dd 2d f5 1e fa 2c 37 de 6b 2c
       2.11808e-11 2.5224945e-11 7.1088643e-12 3.3518863e-12
000080 a7 73 05 2f fa b5 83 2b ef c4 2a 2f 3c ef 6c 29
       1.2137367e-10 9.358618e-13 1.5531375e-10 5.261003e-14
000090 07 54 4f 2f 01 a7 80 2f 14 d8 51 2d ae b8 b2 2e
       1.8856393e-10 2.3401728e-10 1.19282535e-11 8.1273085e-11
0000a0 d8 12 34 2d c6 36 e0 29 3f 71 18 2d 12 cf a9 2e
       1.02359995e-11 9.9571e-14 8.665345e-12 7.722013e-11
0000b0 25 12 29 2a 6c c5 ea 2c f1 f8 8d 2c f6 c8 8f 2c
       1.501651e-13 6.6725982e-12 4.035099e-12 4.0866156e-12
0000c0 a7 ce 20 2f 6f d8 0e 2c 88 74 12 2c 4f 0a 88 2e
       1.4625333e-10 2.0299558e-12 2.0812536e-12 6.186395e-11
0000d0 13 ff 0c 2c ff 30 24 2f c1 d8 df 2c 0b 7d 8a 2b
       2.0036791e-12 1.493312e-10 6.3621057e-12 9.840196e-13
0000e0 3f 91 ba 2b 00 9c 86 2f 8a a6 00 30 0b c4 c5 30
       1.3256409e-12 2.4485303e-10 4.6802795e-10 1.4389355e-09
0000f0 98 77 f9 2c 2c e1 7c 2d 48 11 2e 2d 16 28 f2 2a
       7.0902832e-12 1.437454e-11 9.894592e-12 4.301565e-13
000100 ac ee 3e 2b 21 6c 7d 2c b5 35 1f 2c a6 4e 15 2d
       6.7832784e-13 3.6013486e-12 2.2625072e-12 8.487133e-12
000110 82 4c 8d 2f fb 71 58 30 e9 bd 95 2d 63 4c 94 30
       2.5702113e-10 7.874232e-10 1.7023676e-11 1.0790128e-09
000120 82 c2 6d 2e b3 e2 cc 2b fc af 92 2c 48 ac 04 2b
       5.406032e-11 1.4557993e-12 4.1691078e-12 4.713491e-13
000130 34 9e 13 31 ba 14 63 2d 9e 8a 1a 2f c3 58 4f 2f
       2.1481243e-09 1.2908058e-11 1.4055465e-10 1.8858075e-10
000140 76 3e 0f 30 ae c9 ae 30 fb 3b 4e 2e 46 cf ef 2e
       5.211186e-10 1.2717487e-09 4.689225e-11 1.0905281e-10
000150 0e 28 0d 2e 32 ff 2c 2c a3 4f 2e 2c e4 b6 ed 30
       3.2095264e-11 2.4584332e-12 2.4771094e-12 1.7296e-09
000160 ed e0 42 2d 36 14 05 2d bc bf 83 30 4c b3 79 29
       1.1077567e-11 7.5646624e-12 9.585999e-10 5.5444622e-14
000170 cd 32 b5 2a 4c 82 ef 2c a2 40 5c 2c 52 53 ea 2d
       3.218731e-13 6.8072544e-12 3.1299759e-12 2.6639722e-11
000180 1e 68 a7 30 59 ac 12 2c 34 f5 ee 2d 06 f4 35 2e
       1.2180441e-09 2.084352e-12 2.716636e-11 4.137137e-11
000190 ea 2d 08 2f 0b c6 61 2c d1 78 a1 2e 59 34 8a 30
       1.238544e-10 3.208436e-12 7.342894e-11 1.00557e-09
0001a0 f1 5a f8 2f 70 7f 10 2f 29 c1 41 2b 49 06 0d 29
       4.5175555e-10 1.3141999e-10 6.883544e-13 3.131374e-14
0001b0 5c a5 5c 2e 8c 12 5f 2b 20 e4 33 2f 0c 15 fe 2b
       5.0169077e-11 7.9251254e-13 1.6361001e-10 1.8053627e-12
0001c0 8f 2a 24 2f 5a fd 60 2c 68 e6 99 29 64 c5 eb 2a
       1.4930833e-10 3.1972953e-12 6.834534e-14 4.1881353e-13
0001d0 71 89 20 2f 8a 5d 0d 30 8f 4f 1c 2c ef c2 bf 2c
       1.4600744e-10 5.142843e-10 2.2213097e-12 5.4501885e-12
0001e0 f2 08 2e 2e ef d5 ae 2e 2b 29 3d 2d 58 97 0a 2d
       3.9570965e-11 7.950606e-11 1.0752547e-11 7.877997e-12
0001f0 12 7f ea 2c 6e 5c 8d 2b 16 d8 84 2f b7 29 43 2c
       6.6647876e-12 1.0044307e-12 2.4164198e-10 2.7734323e-12
000200 85 85 a6 2b 7f b6 b5 2d f3 f8 8d 2e b2 ca 87 29
       1.1832069e-12 2.0658362e-11 6.45616e-11 6.0303664e-14
000210 c6 3e 3c 2d bd f2 04 2b ef b7 fe 2c 53 ba 04 2f
       1.0700501e-11 4.723269e-13 7.239535e-12 1.2071526e-10
000220 af e7 f3 2f d1 4c 6e 2d 22 39 42 2b de 1d e1 2b
       4.4366064e-10 1.354579e-11 6.9001933e-13 1.5995501e-12
000230 40 17 2e 2d c7 fa 0e 30 2c c5 08 30 b2 51 d0 2b
       9.895917e-12 5.2015675e-10 4.975671e-10 1.4801964e-12
000240 7e 18 b5 2c 5d 81 bf 29 f1 73 8d 2a 8f c6 09 29
       5.1470486e-12 8.504545e-14 2.5127082e-13 3.0592333e-14
000250 77 aa 5c 2b eb 9d 9d 2a a2 84 d3 2c 9b 02 6e 2e
       7.839627e-13 2.799838e-13 6.011706e-12 5.411725e-11
000260 9b 9f 18 2e 4b df 95 31 af d5 94 2d bb fe b5 2d
       3.4702557e-11 4.361856e-09 1.6920547e-11 2.069044e-11
000270 59 f6 0a 2d d2 b2 5d 2c 35 02 00 2f 5b 09 8c 2b
       7.899092e-12 3.1505254e-12 1.1642316e-10 9.950195e-13
000280 74 eb 5f 2f 2b 6b 51 29 62 39 34 2f 7b ed 83 2f
       2.0365382e-10 4.6500276e-14 1.6391291e-10 2.39975e-10
000290 4a 15 50 2d ff 00 cf 2e 29 d3 31 2d 53 db b2 29
       1.1828158e-11 9.413447e-11 1.0108172e-11 7.9428346e-14
0002a0 4f 8b 20 2d d7 8a b2 2e 2f 63 18 2a 13 62 f0 2c
       9.12588e-12 8.119166e-11 1.3534723e-13 6.8320987e-12
0002b0 88 7f 89 2c 18 eb 8e 2c 28 62 15 2f ac 53 19 2c
       3.907933e-12 4.0619834e-12 1.3586343e-10 2.1789055e-12
0002c0 e0 4e 06 2c 49 23 83 2e 1c 0f 1f 2c c9 28 45 2f
       1.908633e-12 5.963458e-11 2.2603646e-12 1.7931535e-10
0002d0 6c d1 c7 2c 8f ed 6c 2b 67 39 cb 2b 81 3e 81 2f
       5.6791707e-12 8.417372e-13 1.443995e-12 2.3509375e-10
0002e0 41 e8 e4 2f 23 a0 be 30 f9 69 e5 2c c8 32 86 2d
       4.1637985e-10 1.3869833e-09 6.520337e-12 1.5256588e-11
0002f0 49 35 49 2d 4d c8 f4 2a 35 e6 51 2b d8 03 7f 2c
       1.1437359e-11 4.3482093e-13 7.457119e-13 3.6239813e-12
000300 6f 53 02 2c a0 08 07 2d ea 1d 8f 2f 52 89 70 30
       1.8520426e-12 7.675777e-12 2.6032804e-10 8.7506635e-10
000310 0b 13 7e 2d c4 cd 8c 30 f3 22 3c 2e 46 89 a1 2b
       1.4442457e-11 1.0244823e-09 4.2777292e-11 1.1477839e-12
000320 0f da 8f 2c 56 31 f2 2a 7e 27 13 31 f6 38 79 2d
       4.088514e-12 4.302207e-13 2.1413764e-09 1.4166659e-11
000330 f7 4b 47 2f cd f1 73 2f 4b 1a 08 30 38 50 9d 30
       1.8125933e-10 2.2186626e-10 4.9513876e-10 1.1446053e-09
000340 78 9c 50 2e cc a8 cf 2e 5c 43 24 2e 81 3b 25 2c
       4.7432697e-11 9.4432545e-11 3.734911e-11 2.3480942e-12
000350 99 e6 3d 2c 39 06 09 31 79 f6 48 2d 9e 1e f6 2c
       2.6986523e-12 1.993966e-09 1.1423412e-11 6.9951397e-12
000360 7f d1 75 30 aa 6f 66 29 c0 9c b7 2a b5 b3 f0 2c
       8.942819e-10 5.1167112e-14 3.2616097e-13 6.8411618e-12
000370 66 47 83 2c 0a 59 f0 2d 00 23 9f 30 aa 18 22 2c
       3.7311708e-12 2.7324382e-11 1.157872e-09 2.3035276e-12
000380 02 3f f5 2d c0 61 4d 2e 61 a2 f7 2e 69 47 6a 2c
       2.7881256e-11 4.6698423e-11 1.1261104e-10 3.329304e-12
000390 a4 74 b5 2e b2 67 72 30 73 d3 f6 2f 7d 2b 07 2f
       8.2516466e-11 8.8186447e-10 4.4897383e-10 1.2293629e-10
0003a0 b5 b5 45 2b 10 e0 2e 29 9b d7 81 2e 18 15 60 2b
       7.024063e-13 3.8830104e-14 5.90454e-11 7.961006e-13
0003b0 9d ec 3d 2f a3 d8 02 2c 7f 65 23 2f b3 21 40 2c
       1.7273512e-10 1.8594369e-12 1.4860822e-10 2.7303548e-12
0003c0 98 84 8d 29 f6 cd ab 2a 63 d3 fc 2e a5 82 12 30
       6.284659e-14 3.0518616e-13 1.1497183e-10 5.330015e-10
0003d0 77 89 2b 2c 5c 84 a9 2c e3 d6 1c 2e 69 43 91 2e
       2.437687e-12 4.8179637e-12 3.566115e-11 6.605811e-11
0003e0 0a 43 57 2d 88 7e 14 2d f8 a8 dc 2c d6 f9 db 2b
       1.2236221e-11 8.440922e-12 6.2715354e-12 1.5630229e-12
0003f0 b7 2f 6c 33 0a 8a 56 32 1b 10 d7 32 93 69 32 32
       5.499143e-08 1.2487826e-08 2.5036618e-08 1.0384968e-08
