models/optweezer/1c0rnu4a/checkpoints/epoch=0-step=23.ckpt (torch, 267055 bytes, 10 tensors)

exp_avg f4 [2, 126]
0.0 0.0 4.6639852e-07 0.0 0.0 4.111117e-05 0.0 0.0
0.0013337359 0.0034308678 0.0042455075 0.0 0.0 0.0012483418 0.0 0.011171322
0.007898666 0.00070445525 0.0 1.03874545e-05 0.0 3.5551494e-07 0.0 0.00016837758
0.0 0.004552948 0.0025891082 0.010452307 0.00054435566 0.0016629216 0.0040958514 0.0
0.0 0.0 0.0050230706 0.0 0.002748679 0.0 0.0038517776 0.010687409
0.005804642 1.3554367e-06 0.0 0.0 0.00047040868 0.0007493108 0.0 0.0
0.0020632022 3.2270407e-05 0.0 0.0039404794 0.0 0.002031962 0.0 0.0
0.00022909004 0.002895983 0.0046056774 0.011225909 0.0013217096 0.0 0.0 0.0
0.0 0.0 0.0 0.004912253 0.0037985034 0.0055075185 0.0 0.0070113842
0.005239794 0.0022444162 0.0 0.0 0.0063383477 0.0 0.0046289223 0.00849363
0.0066322093 0.005048099 0.0015432226 0.0 0.0050862953 0.001858652 0.0 0.007852142
0.0014816596 0.00047224163 0.0077468203 1.1457498e-06 -4.568088e-08 0.002287324 0.0 0.0
0.012667455 0.0 0.0 0.0023454288 0.0 0.0 0.0068958485 0.0060867434
0.0066427626 0.005263579 0.002838534 4.455285e-05 0.012354087 5.5401088e-05 0.0051570483 0.0
0.0 0.0 0.00041281123 0.00050189946 0.0028961843 0.006920831 0.0 0.0019821152
0.007856147 0.0030355956 0.0053468067 0.0 0.0 0.00021335112 0.0 0.0
-4.6639852e-07 0.0 0.0 -4.111117e-05 0.0 0.0 -0.0013337359 -0.0034308676
-0.0042455075 0.0 0.0 -0.0012483418 0.0 -0.011171321 -0.007898665 -0.00070445513
0.0 -1.03874545e-05 0.0 -3.5551494e-07 0.0 -0.00016837756 0.0 -0.0045529474
-0.0025891084 -0.010452306 -0.00054435566 -0.0016629214 -0.0040958514 0.0 0.0 0.0
-0.00502307 0.0 -0.002748679 0.0 -0.0038517776 -0.010687409 -0.0058046416 -1.3554367e-06
0.0 0.0 -0.00047040868 -0.00074931065 0.0 0.0 -0.0020632022 -3.2270407e-05
0.0 -0.003940479 0.0 -0.002031962 0.0 0.0 -0.00022909003 -0.0028959825
-0.0046056765 -0.011225909 -0.0013217096 0.0 0.0 0.0 0.0 0.0
0.0 -0.004912253 -0.0037985027 -0.0055075176 0.0 -0.007011384 -0.005239794 -0.002244416
0.0 0.0 -0.0063383477 0.0 -0.004628922 -0.00849363 -0.006632209 -0.0050480985
-0.0015432226 0.0 -0.0050862953 -0.0018586519 0.0 -0.007852142 -0.0014816596 -0.00047224152
-0.0077468203 -1.1457498e-06 4.568088e-08 -0.0022873243 0.0 0.0 -0.012667455 0.0
0.0 -0.0023454286 0.0 0.0 -0.006895848 -0.0060867434 -0.006642762 -0.005263579
-0.002838534 -4.4552846e-05 -0.012354086 -5.5401084e-05 -0.005157048 0.0 0.0 0.0
-0.00041281118 -0.00050189934 -0.0028961843 -0.006920831 0.0 -0.001982115 -0.007856147 -0.0030355954
-0.0053468063 0.0 0.0 -0.00021335109
00000000: 0000 0000 0000 0000 5365 fa34 0000 0000
00000010: 0000 0000 c86e 2c38 0000 0000 0000 0000
00000020: c0d0 ae3a 69d8 603b e61d 8b3b 0000 0000
00000030: 0000 0000 669f a33a 0000 0000 ec07 373c
00000040: 6869 013c 31ab 383a 0000 0000 c745 2e37
00000050: 0000 0000 9add be34 0000 0000 838e 3039
00000060: 0000 0000 e530 953b 07ae 293b 2740 2b3c
00000070: 17b3 0e3a 64f6 d93a 7e36 863b 0000 0000
00000080: 0000 0000 0000 0000 9298 a43b 0000 0000
00000090: 2e23 343b 0000 0000 1b6e 7c3b 3e1a 2f3c
000000a0: de34 be3b 73ec b535 0000 0000 0000 0000
000000b0: 2fa1 f639 666d 443a 0000 0000 0000 0000
000000c0: ca36 073b 165a 0738 0000 0000 231f 813b
000000d0: 0000 0000 aa2a 053b 0000 0000 0000 0000
000000e0: e437 7039 88ca 3d3b 39eb 963b e0ec 373c
000000f0: 373d ad3a 0000 0000 0000 0000 0000 0000
00000100: 0000 0000 0000 0000 0000 0000 f7f6 a03b
00000110: 50f0 783b 6a78 b43b 0000 0000 c1bf e53b
00000120: 94b2 ab3b 0e17 133b 0000 0000 0000 0000
00000130: eab1 cf3b 0000 0000 37ae 973b de28 0b3c
00000140: 0153 d93b 866a a53b f545 ca3a 0000 0000
00000150: f0aa a63b 039e f33a 0000 0000 45a6 003c
00000160: 3f34 c23a 3397 f739 0ad9 fd3b aac7 9935
00000170: a932 44b3 eee6 153b 0000 0000 0000 0000
00000180: 288b 4f3c 0000 0000 0000 0000 c4b5 193b
00000190: 0000 0000 0000 0000 92f6 e13b 4e73 c73b
000001a0: 88ab d93b 1a7a ac3b b306 3a3b 42de 3a38
000001b0: cc68 4a3c 775e 6838 75fc a83b 0000 0000
000001c0: 0000 0000 0000 0000 966e d839 e791 033a
000001d0: e9cd 3d3b 23c8 e23b 0000 0000 60e6 013b
000001e0: 12b7 003c d8f0 463b 4434 af3b 0000 0000
000001f0: 0000 0000 01b7 5f39 0000 0000 0000 0000
00000200: 5365 fab4 0000 0000 0000 0000 c86e 2cb8
00000210: 0000 0000 0000 0000 c0d0 aeba 68d8 60bb
00000220: e61d 8bbb 0000 0000 0000 0000 669f a3ba
00000230: 0000 0000 eb07 37bc 6769 01bc 2fab 38ba
00000240: 0000 0000 c745 2eb7 0000 0000 9add beb4
00000250: 0000 0000 828e 30b9 0000 0000 e430 95bb
00000260: 08ae 29bb 2640 2bbc 17b3 0eba 62f6 d9ba
00000270: 7e36 86bb 0000 0000 0000 0000 0000 0000
00000280: 9198 a4bb 0000 0000 2e23 34bb 0000 0000
00000290: 1b6e 7cbb 3e1a 2fbc dd34 bebb 73ec b5b5
000002a0: 0000 0000 0000 0000 2fa1 f6b9 636d 44ba
000002b0: 0000 0000 0000 0000 ca36 07bb 165a 07b8
000002c0: 0000 0000 221f 81bb 0000 0000 aa2a 05bb
000002d0: 0000 0000 0000 0000 e337 70b9 86ca 3dbb
000002e0: 37eb 96bb e0ec 37bc 373d adba 0000 0000
000002f0: 0000 0000 0000 0000 0000 0000 0000 0000
00000300: 0000 0000 f7f6 a0bb 4df0 78bb 6878 b4bb
00000310: 0000 0000 c0bf e5bb 94b2 abbb 0d17 13bb
00000320: 0000 0000 0000 0000 eab1 cfbb 0000 0000
00000330: 36ae 97bb de28 0bbc 0053 d9bb 856a a5bb
00000340: f545 caba 0000 0000 f0aa a6bb 029e f3ba
00000350: 0000 0000 45a6 00bc 3f34 c2ba 2f97 f7b9
00000360: 0ad9 fdbb aac7 99b5 a932 4433 efe6 15bb
00000370: 0000 0000 0000 0000 288b 4fbc 0000 0000
00000380: 0000 0000 c3b5 19bb 0000 0000 0000 0000
00000390: 91f6 e1bb 4e73 c7bb 87ab d9bb 1a7a acbb
000003a0: b306 3abb 41de 3ab8 cb68 4abc 765e 68b8
000003b0: 74fc a8bb 0000 0000 0000 0000 0000 0000
000003c0: 946e d8b9 e591 03ba e9cd 3dbb 23c8 e2bb
000003d0: 0000 0000 5fe6 01bb 12b7 00bc d7f0 46bb
000003e0: 4334 afbb 0000 0000 0000 0000 ffb6 5fb9

exp_avg_sq f4 [2, 126]
0.0 0.0 1.1696175e-12 0.0 0.0 1.8265801e-10 0.0 0.0
5.8107386e-08 4.0560286e-07 5.1606094e-07 0.0 0.0 6.200504e-08 0.0 3.8925873e-06
2.2962524e-06 3.2701674e-08 0.0 6.1121197e-10 0.0 1.9225461e-14 0.0 3.240996e-09
0.0 6.947971e-07 2.140523e-07 3.3814422e-06 1.2883152e-08 1.0911963e-07 5.2154746e-07 0.0
0.0 0.0 8.3803985e-07 0.0 2.4714168e-07 0.0 5.299175e-07 3.449074e-06
1.2565837e-06 9.8784305e-12 0.0 0.0 1.1005262e-08 1.6982229e-08 0.0 0.0
1.447223e-07 1.5991623e-10 0.0 4.8470605e-07 0.0 1.4686803e-07 0.0 0.0
3.868671e-09 2.7104406e-07 7.588483e-07 4.0414243e-06 7.195994e-08 0.0 0.0 0.0
0.0 0.0 0.0 8.0208866e-07 5.817737e-07 9.3798764e-07 0.0 2.1194396e-06
8.94798e-07 1.8015369e-07 0.0 0.0 1.2759583e-06 0.0 6.84718e-07 2.5610589e-06
1.3778194e-06 9.16887e-07 9.209636e-08 0.0 8.7327373e-07 9.9145545e-08 0.0 1.9261686e-06
8.200157e-08 1.1891753e-08 1.9485246e-06 3.0373973e-13 1.1220144e-14 1.49713e-07 0.0 0.0
4.543684e-06 0.0 0.0 2.0377013e-07 0.0 0.0 1.4565787e-06 1.1990343e-06
1.6569397e-06 9.821888e-07 2.6276882e-07 3.3560787e-10 4.9594623e-06 1.411093e-09 8.9830826e-07 0.0
0.0 0.0 1.2706927e-08 9.557396e-09 2.9528812e-07 1.4201445e-06 0.0 1.5087181e-07
1.8947138e-06 2.8998477e-07 1.0117806e-06 0.0 0.0 4.6352695e-09 0.0 0.0
1.1696175e-12 0.0 0.0 1.8265801e-10 0.0 0.0 5.8107382e-08 4.0560286e-07
5.160609e-07 0.0 0.0 6.200503e-08 0.0 3.892586e-06 2.2962522e-06 3.270167e-08
0.0 6.1121197e-10 0.0 1.9225457e-14 0.0 3.2409957e-09 0.0 6.947971e-07
2.140523e-07 3.3814417e-06 1.28831505e-08 1.0911961e-07 5.2154746e-07 0.0 0.0 0.0
8.380398e-07 0.0 2.4714166e-07 0.0 5.2991743e-07 3.4490736e-06 1.2565835e-06 9.8784305e-12
0.0 0.0 1.10052625e-08 1.6982229e-08 0.0 0.0 1.4472229e-07 1.5991625e-10
0.0 4.8470605e-07 0.0 1.4686803e-07 0.0 0.0 3.8686707e-09 2.7104403e-07
7.588482e-07 4.0414243e-06 7.195994e-08 0.0 0.0 0.0 0.0 0.0
0.0 8.0208866e-07 5.8177363e-07 9.379877e-07 0.0 2.1194396e-06 8.9479795e-07 1.8015369e-07
0.0 0.0 1.2759582e-06 0.0 6.84718e-07 2.5610589e-06 1.3778196e-06 9.168871e-07
9.209635e-08 0.0 8.732737e-07 9.914554e-08 0.0 1.9261684e-06 8.200157e-08 1.1891752e-08
1.9485246e-06 3.0373973e-13 1.12201465e-14 1.49713e-07 0.0 0.0 4.5436836e-06 0.0
0.0 2.0377009e-07 0.0 0.0 1.4565786e-06 1.199034e-06 1.6569396e-06 9.821888e-07
2.6276882e-07 3.3560785e-10 4.9594623e-06 1.4110927e-09 8.983082e-07 0.0 0.0 0.0
1.2706927e-08 9.557393e-09 2.9528806e-07 1.4201443e-06 0.0 1.508718e-07 1.8947137e-06 2.899847e-07
1.0117805e-06 0.0 0.0 4.635268e-09
00000000: 0000 0000 0000 0000 e99b a42b 0000 0000
00000010: 0000 0000 a9d5 482f 0000 0000 0000 0000
00000020: bf91 7933 a2c1 d934 7087 0a35 0000 0000
00000030: 0000 0000 a227 8533 0000 0000 129d 8236
00000040: 5119 1a36 df73 0c33 0000 0000 3802 2830
00000050: 0000 0000 e52a ad28 0000 0000 34b8 5e31
00000060: 0000 0000 1882 3a35 40d6 6534 bcec 6236
00000070: b454 5d32 2755 ea33 7800 0c35 0000 0000
00000080: 0000 0000 0000 0000 a9f5 6035 0000 0000
00000090: e5ae 8434 0000 0000 a73f 0e35 a476 6736
000000a0: e3a7 a835 7fc8 2d2d 0000 0000 0000 0000
000000b0: a711 3d32 51e0 9132 0000 0000 0000 0000
000000c0: f764 1b34 6bd4 2f2f 0000 0000 bf1c 0235
000000d0: 0000 0000 c7b2 1d34 0000 0000 0000 0000
000000e0: 31ed 8431 0384 9134 a8b3 4b35 929b 8736
000000f0: 6588 9a33 0000 0000 0000 0000 0000 0000
00000100: 0000 0000 0000 0000 0000 0000 1d4f 5735
00000110: 2f2b 1c35 05ca 7b35 0000 0000 b23b 0e36
00000120: 0d32 7035 4570 4134 0000 0000 0000 0000
00000130: 9841 ab35 0000 0000 76cd 3735 a8de 2b36
00000140: 84ed b835 ff1f 7635 82c6 c533 0000 0000
00000150: ea6a 6a35 d7e9 d433 0000 0000 5343 0136
00000160: d718 b033 7c4c 4c32 66c3 0236 82fd aa2a
00000170: c81f 4a28 ccc0 2034 0000 0000 0000 0000
00000180: f375 9836 0000 0000 0000 0000 e8cb 5a34
00000190: 0000 0000 0000 0000 aa7f c335 81ee a035
000001a0: 0464 de35 c0d3 8335 ac12 8d34 9c80 b82f
000001b0: 7569 a636 6cf0 c130 4623 7135 0000 0000
000001c0: 0000 0000 0000 0000 a84d 5a32 df31 2432
000001d0: 1788 9e34 cb9b be35 0000 0000 54ff 2134
000001e0: df4d fe35 34af 9b34 84cc 8735 0000 0000
000001f0: 0000 0000 4344 9f31 0000 0000 0000 0000
00000200: e99b a42b 0000 0000 0000 0000 a9d5 482f
00000210: 0000 0000 0000 0000 be91 7933 a2c1 d934
00000220: 6f87 0a35 0000 0000 0000 0000 a027 8533
00000230: 0000 0000 0f9d 8236 5019 1a36 de73 0c33
00000240: 0000 0000 3802 2830 0000 0000 e32a ad28
00000250: 0000 0000 33b8 5e31 0000 0000 1882 3a35
00000260: 40d6 6534 baec 6236 b254 5d32 2455 ea33
00000270: 7800 0c35 0000 0000 0000 0000 0000 0000
00000280: a8f5 6035 0000 0000 e4ae 8434 0000 0000
00000290: a63f 0e35 a276 6736 e1a7 a835 7fc8 2d2d
000002a0: 0000 0000 0000 0000 a811 3d32 51e0 9132
000002b0: 0000 0000 0000 0000 f664 1b34 6cd4 2f2f
000002c0: 0000 0000 bf1c 0235 0000 0000 c7b2 1d34
000002d0: 0000 0000 0000 0000 30ed 8431 0284 9134
000002e0: a7b3 4b35 929b 8736 6588 9a33 0000 0000
000002f0: 0000 0000 0000 0000 0000 0000 0000 0000
00000300: 0000 0000 1d4f 5735 2e2b 1c35 06ca 7b35
00000310: 0000 0000 b23b 0e36 0c32 7035 4570 4134
00000320: 0000 0000 0000 0000 9741 ab35 0000 0000
00000330: 76cd 3735 a8de 2b36 85ed b835 0020 7635
00000340: 81c6 c533 0000 0000 e96a 6a35 d6e9 d433
00000350: 0000 0000 5243 0136 d718 b033 7a4c 4c32
00000360: 66c3 0236 82fd aa2a cb1f 4a28 ccc0 2034
00000370: 0000 0000 0000 0000 f275 9836 0000 0000
00000380: 0000 0000 e5cb 5a34 0000 0000 0000 0000
00000390: a97f c335 7fee a035 0364 de35 c0d3 8335
000003a0: ac12 8d34 9b80 b82f 7569 a636 69f0 c130
000003b0: 4523 7135 0000 0000 0000 0000 0000 0000
000003c0: a84d 5a32 dc31 2432 1588 9e34 c99b be35
000003d0: 0000 0000 53ff 2134 de4d fe35 32af 9b34
000003e0: 83cc 8735 0000 0000 0000 0000 4044 9f31

exp_avg f4 [2]
0.1575844 -0.15758438
00000000: ce5d 213e cd5d 21be

exp_avg_sq f4 [2]
0.0007612967 0.00076129666
00000000: c291 473a c191 473a

lstm.weight_ih_l0 f4 [504, 1]
0.032505825 -0.042806152 0.033981614 -0.063724786 -0.005614564 -0.02114658 0.05422069 0.0889844
-0.0021183938 -0.00801491 0.013501026 0.019401647 -0.022476226 0.011325985 0.032701157 0.013767526
0.08694346 -0.08867385 -0.04012752 -0.087511756 -0.030646041 -0.042932857 0.01820761 0.06126918
-0.03676393 0.035546407 -0.08447117 0.07859412 -0.059844743 0.025231205 -0.07759675 -0.0072455555
-0.06870793 0.062081918 -0.043985333 0.048224688 0.06174797 0.066649854 0.07463355 -0.08282752
0.064035416 -0.007811442 -0.030041285 0.011947073 0.07718614 -0.00014909357 -0.06555876 -0.02013696
0.06773874 -0.064332366 0.039101213 -0.008224286 0.05600205 0.086252436 0.08069195 -0.08189769
0.044166774 -0.047819484 -0.010474049 0.020840779 -0.08889879 -0.055801418 0.009475902 0.05943939
0.0855367 -0.020560078 -0.06419091 0.05966109 -0.071675345 0.0840067 0.02340293 -0.03702177
0.088225424 0.035900027 0.055563837 -0.0062668994 -0.03488571 -0.059455797 0.08103511 -0.032106515
-0.02229593 0.06397684 -0.026134871 -0.0017328262 0.04777831 0.033124983 -0.07225828 -0.060332596
-0.008711465 -0.034167062 -0.06086336 0.037882984 0.010564148 -0.017922014 0.058785155 -0.06321745
-0.056980122 0.058749065 -0.05874601 0.011174671 0.015758522 -0.042334303 0.06474079 -0.016185261
-0.05550477 -0.010211766 0.077123255 -0.027496293 0.05162403 -0.03745044 -0.005036339 -0.062761806
0.009032369 -0.07979478 0.0008851066 -0.065176204 -0.08496057 0.03655468 0.060301185 0.06644538
-0.06303477 0.086556 -0.08155802 -0.017794102 -0.00048062205 0.026350021 -0.03350398 0.038068473
0.014423981 0.04196538 0.042630807 -0.0012023672 -0.020811372 -0.019519478 0.048494995 0.035174623
0.04838261 0.017747797 -0.06254789 -0.03598063 -0.069302104 0.08234948 -0.07873492 0.050680384
0.00095192343 0.027096175 -0.016398862 -0.014252856 -0.036291488 -0.07217095 0.038145453 -0.080464005
-0.019166894 0.06850056 -0.014550768 0.016925715 -0.025338925 -0.010852672 0.006138183 -0.07736969
-0.07951739 -0.0039054975 0.029567704 -0.051591817 -0.036913883 0.078447774 0.00295759 0.07735145
0.0022275597 0.07097486 -0.07474868 0.009761475 0.048186734 -0.087142915 -0.040800627 -0.028103907
0.00079811364 -0.081352964 0.022959352 -0.050657142 0.026362449 -0.0075408444 0.08673723 0.06503649
-0.08086945 0.04913409 -0.034726426 -0.048585653 0.034664057 -0.014024749 0.02388426 0.049808323
0.071861655 0.0024234653 0.04908283 -0.03791708 -0.0468542 0.03195285 -0.06666261 0.08314641
-0.02670043 0.08058156 -0.042631473 0.024360865 -0.088938415 0.031972 -0.014887795 -0.041280482
-0.03465848 -0.07905799 -0.08184363 0.04161419 -0.042345423 0.01788202 -0.063858256 0.057117835
-0.0844341 -0.0584184 0.057551548 0.03923267 -0.06924486 0.06548786 -0.05139621 -0.075823896
0.054051653 -0.06760225 0.06377067 0.023975164 0.080142155 0.07172321 0.06387037 -0.044987958
0.079989895 -0.017869204 0.001182653 -0.081595294 -0.06937319 0.031186119 0.085754275 0.04431042
0.025928356 -0.018613532 0.021227919 -0.08303847 0.060507447 -0.02970976 -0.059714086 0.0328952
0.046613246 0.07180549 0.07457335 -0.071041174 0.049610004 0.0259538 -0.04784129 -0.08254481
00000000: d424 053d 8155 2fbd 4e30 0b3d 2482 82bd
00000010: 60fa b7bb 983b adbc 8416 5e3d 743d b63d
00000020: c0d4 0abb f850 03bc 6833 5d3c 34f0 9e3c
00000030: 1020 b8bc a090 393c a6f1 053d 3091 613c
00000040: 6a0f b23d a39a b5bd c15c 24bd 5d39 b3bd
00000050: 680d fbbc 5dda 2fbd 2028 953c 64f5 7a3d
00000060: c695 16bd 1c99 113d 39ff acbd f4f5 a03d
00000070: c31f 75bd acb1 ce3c 0beb 9ebd 206c edbb
00000080: beb6 8cbd 9c49 7e3d f729 34bd 4087 453d
00000090: 70eb 7c3d b87f 883d 7ad9 983d 7aa1 a9bd
000000a0: 0025 833d 20f7 ffbb 2419 f6bc a8bd 433c
000000b0: c413 9e3d 0056 1cb9 ac43 86bd 44f6 a4bc
000000c0: 9cba 8a3d b0c0 83bd 9828 203d 28bf 06bc
000000d0: 6862 653d 1ea5 b03d d241 a53d fab9 a7bd
000000e0: 38e8 343d 5dde 43bd 589b 2bbc 48ba aa3c
000000f0: 9210 b6bd 0790 64bd d040 1b3c b876 733d
00000100: de2d af3d 9c6d a8bc 8676 83bd 305f 743d
00000110: 86ca 92bd b40b ac3d 80b7 bf3c 24a4 17bd
00000120: 88af b43d e80b 133d e896 633d 905a cdbb
00000130: 51e4 0ebd ec87 73bd bcf5 a53d 1f82 03bd
00000140: f4a5 b6bc 4a06 833d cc18 d6bc 0020 e3ba
00000150: 30b3 433d 10ae 073d 26fc 93bd 501f 77bd
00000160: 88ba 0ebc c3f2 0bbd dc4b 79bd 302b 1b3d
00000170: 4015 2d3c 30d1 92bc b4c8 703d 2778 81bd
00000180: fd63 69bd dca2 703d a89f 70bd f815 373c
00000190: 0418 813c bc66 2dbd d296 843d f496 84bc
000001a0: f858 63bd 404f 27bc ccf2 9d3d e83f e1bc
000001b0: b873 533d a265 19bd e007 a5bb 4389 80bd
000001c0: 80fc 133c 726b a3bd 8006 683a 1a7b 85bd
000001d0: cfff adbd 5cba 153d 60fe 763d 8414 883d
000001e0: 6018 81bd 4644 b13d e407 a7bd f0c4 91bc
000001f0: 00fc fbb9 00dc d73c 783b 09bd b0ed 1b3d
00000200: 9052 6c3c e4e3 2b3d a49d 2e3d c098 9dba
00000210: 9c7c aabc 50e7 9fbc b0a2 463d 4413 103d
00000220: d82c 463d d463 913c 1c19 80bd 6d60 13bd
00000230: 43ee 8dbd d8a6 a83d c63f a1bd 3c96 4f3d
00000240: 808a 793a ccf8 dd3c e856 86bc d084 69bc
00000250: 62a6 14bd 5dce 93bd 683e 1c3d 50ca a4bd
00000260: e403 9dbc 064a 8c3d 5866 6ebc cca7 8a3c
00000270: 9493 cfbc 68cf 31bc d022 c93b 0074 9ebd
00000280: 03da a2bd 60f3 7fbb f837 f23c f151 53bd
00000290: 0333 17bd 3aa9 a03d 20d4 413b 706a 9e3d
000002a0: 40fc 113b 445b 913d d615 99bd 98ee 1f3c
000002b0: 745f 453d fc77 b2bd 8f1e 27bd 2a3a e6bc
000002c0: 8038 513a 629c a6bd 4015 bc3c dd7d 4fbd
000002d0: 10f6 d73c 3019 f7bb 4aa3 b13d da31 853d
000002e0: e29e a5bd d440 493d 4c3d 0ebd c001 47bd
000002f0: e6fb 0d3d 10c8 65bc eca8 c33c d003 4c3d
00000300: 342c 933d 00d3 1e3b 140b 493d f14e 1bbd
00000310: 31ea 3fbd fee0 023d 6886 88bd aa48 aa3d
00000320: dcba dabc f207 a53d 579e 2ebd 7090 c73c
00000330: 5825 b6bd 12f5 023d f0eb 73bc b915 29bd
00000340: 0df6 0dbd 28e9 a1bd a29d a7bd a473 2a3d
00000350: 6572 2dbd 507d 923c 1ec8 82bd 64f4 693d
00000360: c9eb acbd 2248 6fbd 2cbb 6b3d 70b2 203d
00000370: 40d0 8dbd 801e 863d d584 52bd 8f49 9bbd
00000380: 4465 5d3d 0c73 8abd 329a 823d 9067 c43c
00000390: 9221 a43d 9ee3 923d 78ce 823d 4b45 38bd
000003a0: bed1 a33d 7062 92bc 4003 9b3a 6f1b a7bd
000003b0: 8813 8ebd 087a ff3c f09f af3d d87e 353d
000003c0: b467 d43c 687b 98bc 2ce6 ad3c 1310 aabd
000003d0: a8d6 773d e261 f3bc c296 74bd 1ebd 063d
000003e0: 88ed 3e3d c20e 933d eab9 983d 097e 91bd
000003f0: dc33 4b3d 109d d43c 3af5 43bd 410d a9bd

lstm.weight_hh_l0 f4 [504, 126]
-0.067693494 -0.08338439 -0.0026792362 -0.08498741 -0.04147164 0.021630682 -0.04048089 -0.013263077
-0.05040621 -0.06723954 0.018460557 -0.013413876 -0.07066683 0.08840001 0.08170712 0.07920022
0.010583743 0.039580926 0.063620195 0.04071428 0.005540319 -0.081144854 0.07211971 0.03942713
-0.019022577 0.05535531 -0.02917448 0.039538145 0.053856358 -0.059355576 -0.086268395 -0.07386109
-0.05793379 0.054218546 0.07485567 0.03225655 0.008773498 -0.07272221 -0.010253154 0.058800027
0.062115222 0.06616706 0.06549531 -0.048064712 0.08876328 0.027284816 -0.048245963 -0.016800076
0.08719002 0.016422391 -0.024035767 0.021590143 0.0244769 0.03005682 0.07425165 -0.07822704
0.07992944 -0.0741738 -0.04472164 -0.007565506 0.009518415 -0.038580887 0.011710219 -0.08247896
-0.042870816 -0.02317866 0.037183344 0.046725407 0.033834375 0.06474602 0.013510756 0.05908382
-0.05682797 0.033616923 -0.0023655295 0.021492913 -0.046806857 -0.040274385 0.029325105 0.009805992
0.061824933 0.08433466 -0.011622481 -0.06939052 -0.050002556 -0.06677173 -0.088879794 -0.02554971
-0.02837611 0.057216227 -0.008015268 -0.0680112 0.07883941 0.023977377 -0.07169901 -0.05850558
0.08260362 0.05305679 0.037896737 -0.018237285 -0.07104569 -0.024396442 -0.059544813 -0.014469571
-0.05862222 -0.028975897 0.043394044 -0.070632726 -0.025461614 0.053861246 -0.043591063 0.008800164
-0.03393797 0.08176878 -0.042366814 -0.013052985 -0.064378254 0.03018403 -0.059245862 -0.034767292
0.018492684 0.07244623 -0.0744313 -0.026926402 0.037617907 -0.052024096 -0.056274507 0.06989588
0.05744198 -0.017429173 0.038235262 0.022239327 0.083562404 0.08397865 -0.05316496 -0.056380242
-0.08825147 0.07432914 0.039848804 -0.05833561 -0.08797964 0.07757801 -0.059308656 -0.006374903
0.047956586 0.0051489547 0.061251774 -0.0820772 -0.02739549 -0.075238466 0.056914717 -0.027012806
0.070979655 -0.053714026 -0.05240225 -0.029772323 -0.058944285 -0.031019643 -0.05906723 -0.055969164
0.055544063 0.042112976 -0.062292762 0.08581917 -0.03674032 -0.013593107 -0.07364105 0.058837876
-0.050044134 -0.04243884 0.0241272 0.081578344 -0.02246081 -0.05126346 0.03121861 0.011340037
0.06728983 0.008351795 -0.016504012 -0.015420854 -0.05954969 0.056722328 0.031899042 -0.038886264
-0.04564901 -0.06987488 -0.07268321 -0.045816712 0.026615575 0.080825746 0.025884844 -0.077152
0.0008188337 0.043559402 0.045489445 -0.0076528937 0.028788142 0.024712123 -0.08575676 -0.0057841986
-0.053338725 0.0077588707 -0.038053688 -0.0039353 0.031414017 0.075718105 -0.026530765 -0.08738638
0.008641906 -0.04360865 -0.060955524 -0.06099933 -0.06761891 -0.013215594 -0.039424848 0.061665654
-0.040790506 -0.052553706 -0.011929415 0.024698913 0.066490665 -0.0073156953 0.060744077 0.07779829
-0.07522192 0.018953413 0.0016411841 -0.08655817 0.058557376 0.0074356273 0.08384557 -0.04438012
0.07201612 -0.030766673 -0.05482782 -0.078717634 -0.08626468 -0.05370865 0.03717111 0.047517598
-0.00039325655 -0.04276364 0.0018233061 -0.036457945 -0.013987079 0.050826624 0.009203106 -0.022298567
0.07232875 -0.022935279 0.005735822 -0.0752339 -0.023598373 0.01964099 0.08101469 -0.023148827
00000000: e3a2 8abd 6fc5 aabd 2096 2fbb e10d aebd
00000010: 2bde 29bd d432 b13c 4acf 25bd 604d 59bc
00000020: be76 4ebd e2b4 89bd 983a 973c e0c5 5bbc
00000030: c5b9 90bd 100b b53d 1056 a73d ba33 a23d
00000040: 7067 2d3c 9c1f 223d 4e4b 823d 04c4 263d
00000050: 908b b53b 462f a6bd 80b3 933d 587e 213d
00000060: 3cd5 9bbc 40bc 623d 52ff eebc c0f2 213d
00000070: 7c98 5c3d d51e 73bd 7cad b0bd 7c44 97bd
00000080: fb4b 6dbd 4414 5e3d ee4d 993d 721f 043d
00000090: b8be 0f3c 62ef 94bd d8fc 27bc 4cd8 703d
000000a0: 886c 7e3d 9882 873d 6822 863d 81df 44bd
000000b0: 86c9 b53d 6884 df3c 8f9d 45bd 50a0 89bc
000000c0: ae90 b23d 4088 863c a8e6 c4bc d0dd b03c
000000d0: c883 c83c b839 f63c 4011 983d 8035 a0bd
000000e0: 0cb2 a33d 6fe8 97bd 0a2e 37bd 10e8 f7bb
000000f0: 20f3 1b3c fe06 1ebd 38dc 3f3c bbea a8bd
00000100: 4f99 2fbd 2ce1 bdbc 904d 183d 2463 3f3d
00000110: ea95 0a3d 9099 843d 385c 5d3c e001 723d
00000120: 72c4 68bd e6b1 093d 0007 1bbb e811 b03c
00000130: 8cb8 3fbd c1f6 24bd 343b f03c 50a9 203c
00000140: 243c 7d3d a6b7 ac3d 386c 3ebc 9e1c 8ebd
00000150: 7bcf 4cbd 9ebf 88bd 9c06 b6bd a04d d1bc
00000160: 0475 e8bc 905b 6a3d 7852 03bc 7549 8bbd
00000170: 8e76 a13d 346c c43c eed6 92bd 8ca3 6fbd
00000180: 162c a93d 1452 593d 9c39 1b3d 5c66 95bc
00000190: 6780 91bd 0cdb c7bc 43e5 73bd c811 6dbc
000001a0: da1d 70bd dc5e edbc f4bd 313d e4a7 90bd
000001b0: e094 d0bc 9c9d 5c3d 8b8c 32bd 902e 103c
000001c0: 8a02 0bbd 6476 a73d d388 2dbd 30dc 55bc
000001d0: bfd8 83bd 8044 f73c caab 72bd 2668 0ebd
000001e0: f87d 973c b05e 943d 706f 98bd c294 dcbc
000001f0: 3c15 1a3d 3817 55bd 1980 66bd 9225 8f3d
00000200: 4848 6b3d a0c7 8ebc 949c 1c3d 402f b63c
00000210: c422 ab3d 00fd ab3d 80c3 59bd f8ee 66bd
00000220: 30bd b4bd e039 983d 8038 233d 52f1 6ebd
00000230: ab2e b4bd 38e1 9e3d a2ed 72bd 90e4 d0bb
00000240: 206e 443d 90b8 a83b 24e3 7a3d 1718 a8bd
00000250: 826c e0bc a016 9abd 681f 693d f649 ddbc
00000260: c85d 913d 3d03 5cbd bea3 56bd 16e5 f3bc
00000270: 906f 71bd e81c febc 7bf0 71bd ec3f 65bd
00000280: 2c82 633d a87e 2c3d b226 7fbd f6c1 af3d
00000290: 057d 16bd a0b5 5ebc 1ed1 96bd fcff 703d
000002a0: 14fb 4cbd 59d4 2dbd 68a6 c53c 8c12 a73d
000002b0: bcff b7bc a2f9 51bd 2cbe ff3c 90cb 393c
000002c0: 40cf 893d f8d5 083c 6c33 87bc c0a7 7cbc
000002d0: 60ea 73bd ac55 683d 92a8 023d 3447 1fbd
000002e0: 75fa 3abd 901a 8fbd efda 94bd 4eaa 3bbd
000002f0: e808 da3c f887 a53d 740c d43c de01 9ebd
00000300: 00a7 563a 586b 323d 2453 3a3d 20c5 fabb
00000310: 1cd5 eb3c 1471 ca3c 3da1 afbd 6089 bdbb
00000320: b579 5abd 203e fe3b 2fde 1bbd b0f3 80bb
00000330: fcab 003d 1812 9b3d 0c57 d9bc a1f7 b2bd
00000340: c896 0d3c fc9e 32bd 80ac 79bd 6fda 79bd
00000350: c87b 8abd 3886 58bc f37b 21bd 2095 7c3d
00000360: f213 27bd 8e42 57bd 9873 43bc 6055 ca3c
00000370: 422c 883d 80b8 efbb c8ce 783d b654 9f3d
00000380: f30d 9abd 3044 9b3c 001d d73a 6945 b1bd
00000390: dcd9 6f3d 90a6 f33b 3ab7 ab3d eec7 35bd
000003a0: 307d 933d 640a fcbc 2393 60bd b636 a1bd
000003b0: 89ab b0bd 9afd 5bbd bc40 183d d0a1 423d
000003c0: 002e ceb9 ed28 2fbd 00fc ee3a ed54 15bd
000003d0: 102a 65bc 942f 503d a0c8 163c 7cab b6bc
000003e0: 1821 943d c4e2 bbbc 90f3 bb3b 3b14 9abd
000003f0: 6051 c1bc 24e6 a03c 08eb a53d 9ca2 bdbc

lstm.bias_ih_l0 f4 [504]
0.07836202 0.058475226 0.034907214 -0.015304014 -0.045069434 -0.03597072 0.084206685 0.0342364
0.063378945 -0.01539664 -0.06417975 0.021276824 -0.01791434 -0.018679522 0.032206394 -0.06037791
-0.0862398 0.006544359 -0.016304642 -0.078938134 -0.055514954 0.06503402 -0.021141157 -0.05209562
0.058154732 0.05414377 0.047965407 0.04186651 0.084081784 -0.012625799 0.048677623 -0.03204062
-0.07163477 0.07793817 0.047230676 -0.06672086 -0.01362627 0.017312735 -0.023098424 0.025640078
0.08675103 -0.030455422 0.0041944757 0.061142668 0.0053090304 -0.010200009 -0.020646252 -0.038237635
0.018285342 -0.08099106 -0.06668989 0.04601963 0.0015595257 0.034453236 -0.08810108 0.030945167
0.03915885 -0.08795892 -0.075508624 -0.083140105 -0.07549956 0.05627507 -0.038314577 0.045224234
-0.034407593 0.051375628 -0.07330038 -0.076565996 -0.038154174 0.013990343 -0.014068402 0.04576382
-0.063769676 0.016039453 0.051656798 -0.01093673 -0.014944382 0.05351676 0.020005554 0.03000512
-0.08423014 -0.045456544 -0.079069 -0.034725662 0.027521148 -0.012815788 0.042668566 -0.040804908
0.06530905 0.019064128 -0.01992222 -0.07646445 0.05583839 0.012920588 -0.009812348 -0.0046477914
0.045004487 -0.05920632 0.03578157 0.037136972 0.08002041 -0.051121276 -0.045674242 -0.0063221157
-0.04775773 -0.049192354 0.019823909 -0.00021929294 0.04579477 -0.04795968 0.03289275 -0.0062166005
0.03602974 -0.056188308 0.04227753 -0.06444705 -0.06787187 -0.056120582 -0.048537407 -0.080113664
0.006134145 -0.034051973 0.03180871 -0.021908715 0.03893292 -0.036031127 0.070861146 0.06712586
-0.047067747 0.087744 0.0641886 -0.022487476 0.041032076 -0.07043569 0.023373812 -0.018288963
-0.0506554 0.055320323 -0.034481816 -0.08015829 -0.08177702 -0.01771579 0.08707331 -0.052192718
-0.036153246 0.08168355 0.07028782 -0.06461473 -0.07386491 0.044175252 0.03967923 -0.05636976
-0.06513684 0.0152559355 -0.07934971 -0.08349471 -0.08299637 -0.06286909 0.017272413 0.0758276
0.07998231 0.038973033 -0.04485197 0.08715762 -0.03608136 0.03648053 -0.081230134 0.001233086
-0.01630821 0.0795141 -0.025674455 0.08208153 -0.046761785 -0.02509784 0.004795477 0.03129206
-0.024286672 -0.017210297 0.0068838075 0.023174427 0.012650609 -0.07665507 -0.024051577 -0.08243454
0.024868064 0.0572605 0.02497878 0.043633714 0.088625714 0.0012819767 0.041130304 0.041726813
-0.056879837 -0.040941086 0.06794521 0.0616948 -0.009166524 -0.06790019 -0.037216585 -0.057924435
-0.078246586 0.025603116 -0.075122654 0.036707953 0.07351501 -0.04399675 -0.02666273 0.07992503
0.029339612 0.028481483 0.046605423 -0.061665468 0.0049357414 0.08496389 -0.04674458 -0.014989421
0.028592087 -0.0049471483 -0.038496062 0.08689162 0.06804761 -0.059905477 0.013811961 0.025890514
-0.078623615 0.074385315 -0.07490695 -0.06018538 0.08048566 -0.014886312 0.031304568 0.07050522
-0.050089 -0.036812305 0.08177824 -0.048603922 -0.06656128 -0.07651541 -0.008129574 -0.051372536
0.0040442124 -0.086537674 -0.070488065 0.055745587 0.020394884 -0.07770997 -0.0034809113 -0.013970166
-0.019105978 0.05068843 0.007104963 0.007356055 -0.062495075 -0.031353682 0.009814881 -0.052100632
00000000: 447c a03d b883 6f3d defa 0e3d b0bd 7abc
00000010: ba9a 38bd 0956 13bd 8e74 ac3d 783b 0c3d
00000020: d2cc 813d 3042 7cbc ac70 83bd bc4c ae3c
00000030: 18c1 92bc cc05 99bc daea 033d d44e 77bd
00000040: 7e9e b0bd 1072 d63b 5091 85bc 51aa a1bd
00000050: a663 63bd 8e30 853d 3830 adbc 3862 55bd
00000060: a833 6e3d dcc5 5d3d 6077 443d 387c 2b3d
00000070: 1233 ac3d 70dc 4ebc 3062 473d 063d 03bd
00000080: 40b5 92bd 0c9e 9f3d f474 413d f2a4 88bd
00000090: b840 5fbc 70d3 8d3c e838 bdbc 240b d23c
000000a0: 86aa b13d a67d f9bc d071 893b bc70 7a3d
000000b0: 60f7 ad3b f01d 27bc 5422 a9bc 119f 1cbd
000000c0: 24cb 953c a4de a5bd b694 88bd 147f 3c3d
000000d0: 0069 cc3a d61e 0d3d 576e b4bd b880 fd3c
000000e0: 0865 203d ce23 b4bd 44a4 9abd 5c45 aabd
000000f0: 839f 9abd b080 663d bfef 1cbd 0c3d 393d
00000100: faee 0cbd 406f 523d 821e 96bd a2ce 9cbd
00000110: 8d47 1cbd c037 653c 287f 66bc d872 3b3d
00000120: ad99 82bd 2c65 833c 1496 533d f82f 33bc
00000130: 48d9 74bc 6434 5b3d b0e2 a33c 4ccd f53c
00000140: da80 acbd a430 3abd eeee a1bd 7f3c 0ebd
00000150: 0874 e13c 50f9 51bc 3cc5 2e3d 0c23 27bd
00000160: c0c0 853d 602c 9c3c ec33 a3bc 6599 9cbd
00000170: ccb6 643d e0b0 533c f8c3 20bc 804c 98bb
00000180: a056 383d 5482 72bd b28f 123d f01c 183d
00000190: bee1 a33d 8b64 51bd ea14 3bbd c029 cfbb
000001a0: 9c9d 43bd ec7d 49bd c065 a23c 00f2 65b9
000001b0: 4c93 3b3d 5f71 44bd 8cba 063d a0b4 cbbb
000001c0: ec93 133d b625 66bd 342b 2d3d d1fc 83bd
000001d0: 6800 8bbd b2de 65bd 29cf 46bd a212 a4bd
000001e0: f000 c93b 157a 0bbd da49 023d e879 b3bc
000001f0: 2078 1f3d 6095 13bd a61f 913d 4879 893d
00000200: 1cca 40bd 20b3 b33d 5075 833d a837 b8bc
00000210: 4011 283d 9640 90bd 707a bf3c bcd2 95bc
00000220: 097c 4fbd 9097 623d ce3c 0dbd 082a a4bd
00000230: b67a a7bd b420 91bc 7e53 b23d 08c8 55bd
00000240: 6d15 14bd b449 a73d 10f3 8f3d ba54 84bd
00000250: 7c46 97bd 1cf1 343d b086 223d fae3 66bd
00000260: 7766 85bd 08f4 793c 1a82 a2bd 46ff aabd
00000270: 00fa a9bd 82c1 80bd e07e 8d3c 804b 9b3d
00000280: c4cd a33d 30a2 1f3d b3b6 37bd b27f b23d
00000290: 0cca 13bd 9c6c 153d fc5b a6bd 809f a13a
000002a0: cc98 85bc 4ad8 a23d 3c53 d2bc 5c1a a83d
000002b0: 4989 3fbd fc99 cdbc 6023 9d3b 1a2c 003d
000002c0: d8f4 c6bc 9cfc 8cbc 9091 e13b 4cd8 bd3c
000002d0: 8044 4f3c 55fd 9cbd d007 c5bc 71d3 a8bd
000002e0: 1cb8 cb3c fc89 6a3d 4ca0 cc3c 44b9 323d
000002f0: 6681 b53d 0008 a83a 4078 283d bce9 2a3d
00000300: d5fa 68bd d7b1 27bd dc26 8b3d b0b3 7c3d
00000310: 302f 16bc 410f 8bbd 6b70 18bd 2c42 6dbd
00000320: bf3f a0bd a0bd d13c e8d9 99bd 145b 163d
00000330: 0a8f 963d f035 34bd cc6b dabc bcaf a33d
00000340: a059 f03c 0052 e93c 54e5 3e3d ee94 7cbd
00000350: 00bc a13b 8c01 ae3d 3f77 3fbd 3096 75bc
00000360: f439 ea3c b01b a2bb 0cae 1dbd 3cf4 b13d
00000370: 8c5c 8b3d 725f 75bd 904b 623c 5818 d43c
00000380: 6b05 a1bd 5457 983d d168 99bd f284 76bd
00000390: aad5 a43d b8e5 73bc 3839 003d 0a65 903d
000003a0: 202a 4dbd 80c8 16bd 5a7b a73d e814 47bd
000003b0: 4851 88bd 1cb4 9cbd e831 05bc 026c 52bd
000003c0: 5085 843b aa3a b1bd 0c5c 90bd 7c55 643d
000003d0: 2c13 a73c 6826 9fbd 0020 64bb 20e3 64bc
000003e0: 2484 9cbc ac9e 4f3d c0d0 e83b 100b f13b
000003f0: d6fa 7fbd b86c 00bd 98ce 203c 7967 55bd

lstm.bias_hh_l0 f4 [504]
0.059035152 0.0025083795 0.035501815 -0.06670949 0.08703497 -0.0110856965 -0.016122118 -0.06589009
-0.055893444 -0.032269754 0.06936054 -0.04044131 0.051990256 -0.032718047 0.013784774 -0.083196364
0.016089134 0.02431456 -0.05226465 -0.04066366 0.04656838 -0.0060238615 -0.071560346 0.023460753
-0.029602148 -0.06391913 0.02333396 0.08760896 -0.085634135 -0.036834955 0.085093394 0.039875597
-0.035402115 -0.030704439 0.08131167 -0.075020425 -0.018590376 -0.08407486 -0.03168213 0.039493755
-0.037471805 -0.049446322 -0.044277873 -0.088566385 -0.08663997 -0.07323754 0.07352671 -0.01573997
-0.019453987 0.027918592 0.05159676 -0.07065928 0.058503687 -0.011990353 0.045879915 -0.06866896
-0.084489346 0.06550452 0.015879482 0.043058723 0.07194351 0.079195455 0.015741773 0.040446475
0.058272094 -0.024190463 -0.081008784 -0.03961944 -0.0013042986 0.0062296316 -0.0729746 -0.0542972
-0.04407125 -0.087533206 -0.039543685 -0.08601093 0.011928245 0.0072930753 0.077972025 0.0813646
-0.08354352 -0.08891765 0.08087164 -0.062233534 0.04631336 0.020776875 0.072423324 0.047443807
-0.04150934 0.05327432 -0.06125474 0.07618955 0.058653787 -0.06764547 0.072089136 0.034855388
-0.05791595 0.043513656 0.045754433 -0.021380708 0.0007979423 0.010698244 0.038324833 -0.082126
0.06731373 -0.05259746 0.06875728 0.045815676 0.035917923 0.06852545 0.088768184 0.048998
-0.025442064 -0.03767158 -0.005008012 -0.04622074 -0.06999463 0.028236084 0.06302856 0.063772574
-0.072593786 -0.061009035 0.056112602 0.028857544 -0.040997192 0.035597406 0.076146424 -0.02051714
0.0015392527 -0.07581356 -0.070991665 -0.0068560615 -0.0075230226 -0.062047288 0.03156174 -0.02545879
0.029295906 -0.014007337 -0.045239035 -0.024086729 0.014601037 0.042166963 0.047836587 0.027998738
-0.06555128 -0.045374885 -0.026517488 0.021479532 -0.024424434 -0.058159262 -0.03319496 -0.08251508
0.04754111 -0.040635232 -0.031922087 0.072205216 0.082473725 -0.05572519 0.0045583546 -0.010796577
0.031120129 -0.06052041 -0.047008447 0.05408007 0.07363078 0.0277984 0.016523287 0.03344331
0.033419743 -0.00095842034 0.00930322 0.046382785 -0.033701938 0.08548279 -0.081239894 0.078286186
-0.06925367 -0.019269057 0.077490225 0.07066417 -0.073253855 -0.08543545 -0.034353305 0.07580674
-0.05788895 -0.043156005 -0.07170005 -0.078925565 0.023746826 0.007757701 0.007798359 -0.023970716
0.047013238 0.07312967 -0.015147455 -0.071189374 -0.054911345 0.032238528 0.0049395263 -0.03375852
0.059728757 0.06134048 0.07880999 0.023526356 0.0576452 0.08132331 0.085521415 -0.069109
-0.04520226 -0.0431127 0.0007948652 -0.0082151 -0.023249619 0.039328396 -0.012884587 -0.07325123
0.01173988 0.02136182 0.0021959543 0.020638458 0.057134524 0.05799575 -0.04628979 0.085308224
0.020680763 0.050459564 -0.050855085 0.08078003 0.036715955 -0.037201293 -0.06904067 0.0018837526
0.05136469 0.07457942 0.00240089 -0.019400463 0.0063227937 0.06929591 -0.027985398 0.02563931
-0.04114273 -0.05051322 -0.02331809 -0.002344422 0.05192545 0.033424757 -0.05178005 -0.08668376
-0.020698205 0.0012233257 -0.034274675 0.034331053 -0.060066402 0.0060278326 -0.036279954 -0.06829055
00000000: d8ce 713d a063 243b 5a6a 113d fc9e 88bd
00000010: 643f b23d c8a0 35bc 8812 84bc 62f1 86bd
00000020: 86f0 64bd 4a2d 04bd e60c 8e3d c9a5 25bd
00000030: bcf3 543d 5c03 06bd 88d9 613c db62 aabd
00000040: 5ccd 833c 542f c73c 7513 56bd f08e 26bd
00000050: 7cbe 3e3d d063 c5bb 3b8e 92bd c430 c03c
00000060: 3480 f2bc 08e8 82bd dc26 bf3c 546c b33d
00000070: f360 afbd 40e0 16bd 7245 ae3d 9854 233d
00000080: cf01 11bd e087 fbbc bc86 a63d 4fa4 99bd
00000090: d84a 98bc 712f acbd 1fc5 01bd 34c4 213d
000000a0: 097c 19bd 3a88 4abd b75c 35bd 4b62 b5bd
000000b0: 4c70 b1bd 90fd 95bd 2c95 963d 1cf1 80bc
000000c0: f85d 9fbc 88b5 e43c 2057 533d d0b5 90bd
000000d0: 90a1 6f3d 3073 44bc 94ec 3b3d 50a2 8cbd
000000e0: c008 adbd 3c27 863d b015 823c 585e 303d
000000f0: 1e57 933d 3a31 a23d e4f4 803c 34ab 253d
00000100: b8ae 6e3d 142b c6bc efe7 a5bd fe47 22bd
00000110: 00f5 aaba f021 cc3b b573 95bd be66 5ebd
00000120: 0e84 34bd 9c44 b3bd 8ff8 21bd 8026 b0bd
00000130: b06e 433c c0fa ee3b ccaf 9f3d 7ca2 a63d
00000140: dd18 abbd 751a b6bd 08a0 a53d 97e8 7ebd
00000150: 14b3 3d3d 4434 aa3c ae52 943d 7054 423d
00000160: b305 2abd 2c36 5a3d 40e6 7abd 4409 9c3d
00000170: f43e 703d b589 8abd 78a3 933d 86c4 0e3d
00000180: 4639 6dbd 603b 323d 0069 3b3d 9826 afbc
00000190: 002d 513a b047 2f3c 80fa 1c3d ad31 a8bd
000001a0: c8db 893d 6f70 57bd 9ed0 8c3d 38a9 3b3d
000001b0: ac1e 133d 1257 8c3d 18cc b53d 20b2 483d
000001c0: e06b d0bc 844d 1abd 401a a4bb f551 3dbd
000001d0: 5859 8fbd 5c4f e73c 1e15 813d 329b 823d
000001e0: 0dac 94bd 9ce4 79bd 54d6 653d a866 ec3c
000001f0: acec 27bd 96ce 113d a8f2 9b3d 9013 a8bc
00000200: c0c0 c93a 2444 9bbd 1464 91bd d0a8 e0bb
00000210: b083 f6bb 4c25 7ebd e246 013d f48e d0bc
00000220: f8fd ef3c 087f 65bc 914c 39bd 8851 c5bc
00000230: 3039 6f3c 44b7 2c3d 4cf0 433d 9c5d e53c
00000240: c03f 86bd 04db 39bd 343b d9bc d8f5 af3c
00000250: c015 c8bc 6838 6ebd 70f7 07bd abfd a8bd
00000260: 78ba 423d 2171 26bd bcc0 02bd 54e0 933d
00000270: fce7 a83d 1940 64bd 405e 953b 20e4 30bc
00000280: a4ef fe3c 40e4 77bd ee8b 40bd 1083 5d3d
00000290: bccb 963d 78b9 e33c d85b 873c dafb 083d
000002a0: 24e3 083d 803e 7bba 886c 183c e0fb 3d3d
000002b0: 0b0b 0abd 9a11 af3d 1a61 a6bd 8254 a03d
000002c0: ded4 8dbd 24da 9dbc 32b3 9e3d 60b8 903d
000002d0: 1e06 96bd c8f8 aebd 0db6 0cbd 9040 9b3d
000002e0: f71c 6dbd 5ac4 30bd 7ad7 92bd baa3 a1bd
000002f0: b488 c23c 5034 fe3b 6089 ff3b 3c5e c4bc
00000300: f490 403d 02c5 953d 082d 78bc bccb 91bd
00000310: b8ea 60bd 8c0c 043d c0db a13b 6046 0abd
00000320: 24a6 743d 2840 7b3d 2267 a13d 58ba c03c
00000330: 601d 6c3d d68c a63d da25 af3d 0589 8dbd
00000340: 0126 39bd f196 30bd 805e 503a a098 06bc
00000350: fc75 bebc d016 213d e019 53bc be04 96bd
00000360: a058 403c fcfe ae3c 00ea 0f3b fc11 a93c
00000370: e405 6a3d f48c 6d3d 5d9a 3dbd 14b6 ae3d
00000380: b46a a93c b0ae 4e3d 6c4d 50bd 0070 a53d
00000390: 7863 163d 6260 18bd 3265 8dbd 40e8 f63a
000003a0: c863 523d 18bd 983d 4058 1d3b b8ed 9ebc
000003b0: 702f cf3b 04eb 8d3d a241 e5bc 8809 d23c
000003c0: 4785 28bd f3e6 4ebd 9405 bfbc e0a4 19bb
000003d0: c8af 543d 66e8 083d 5117 54bd 4187 b1bd
000003e0: 488f a9bc 0058 a03a 9a63 0cbd b89e 0c3d
000003f0: 3008 76bd 2085 c53b 4a9a 14bd eadb 8bbd

classifier.2.weight f4 [2, 126]
-0.06834764 -0.027162995 0.04532785 -0.05991526 -0.07420258 0.063264005 -0.009895705 -0.04372506
0.08842561 6.508601e-05 0.044856124 -0.0816482 -0.036539327 -0.04480841 0.026940413 0.044997927
-0.0058264113 -0.067358084 0.01058837 -0.01520349 0.08634381 0.00714999 -0.07366763 0.08567529
0.023265801 0.08696825 0.007820713 -0.038657133 -0.052258145 -0.06489087 0.022926427 -0.009492978
0.06790738 -0.010367475 -0.06135566 0.004976459 -0.039331138 0.012914404 -0.06986343 0.027134057
-0.028990893 -0.040940512 0.06918788 0.06934735 0.05755065 0.02763528 -0.08244376 -0.07826451
-0.061022542 -0.008995604 -0.075117916 0.029225625 0.082301795 0.026015839 0.040269732 -0.03942828
-0.062153224 0.07937823 -0.0071019703 -0.083532624 0.007841259 -0.05441399 -0.026620697 0.08849241
0.023125894 0.049480125 -0.033694003 -0.07042134 0.0699887 -0.07640332 0.06971304 0.06440972
-0.06760068 -0.061806656 0.007406406 0.039968252 0.072448544 0.061053842 -0.08479103 -0.07756326
-0.07406349 0.019666998 0.0126048485 -0.04961228 -0.022544257 -0.009808559 -0.07545769 0.071865216
-0.0881342 0.045364283 -0.008809322 0.020391578 0.0034494996 -0.05224374 -0.06885053 -0.026197746
-0.058306407 -0.011749826 0.0394091 0.019898394 0.0299206 -0.032204546 -0.02023672 -0.03746822
-0.049615886 0.06729847 0.025617482 0.04343054 -0.069712825 -0.050467934 -0.08128032 -0.072976105
0.06613572 0.033390492 -0.058904327 -0.04794542 -0.018769426 0.019018393 -0.047500663 -0.041947618
0.013960933 -0.04569188 -0.009775155 -0.046920776 0.045030713 -0.063203625 0.03050366 -0.0604385
0.08390253 -0.05459831 0.06847249 0.07228083 0.019828238 0.05294183 0.024464441 0.06662833
-0.073850214 -0.000839971 -0.066877484 -0.07246003 -0.015748732 -0.0042564548 -0.065140404 -0.082129635
0.07310459 -0.04605338 -0.007089123 -0.06583278 -0.015026294 0.037371382 -0.021804288 0.055922456
-0.033981055 0.08896615 0.085848875 0.0021956852 0.021777913 0.08202532 0.042574525 0.03150312
0.0010833037 0.022488989 0.058467958 -0.022152625 -0.07221455 0.030388344 -0.035609554 0.082825996
0.052661642 0.058883473 0.047035966 -0.043924734 0.028235726 0.02851168 0.04512187 0.03857876
-0.03801386 0.06505684 -0.082460456 -0.07314078 0.06533563 -0.060758933 0.035226118 -0.04575601
0.08433858 -0.012667043 0.06543077 -0.06786968 -0.028028972 0.007550806 -0.08623211 -0.010778926
-0.00035230815 -0.054952987 -0.03486518 0.041812014 -0.060666837 -0.021201286 -0.08781533 -0.06328536
-0.046355985 0.012879074 -0.07039574 -0.023112878 -0.024631945 -0.015308027 0.012494166 -0.08690618
0.07862737 0.018350452 -0.0022031441 0.007772108 0.058071822 -0.062000047 -0.044583987 -0.04821679
0.07369036 -0.028090784 0.0731449 -0.076396964 0.045744568 -0.04149406 0.020690251 -0.03941137
-0.060222283 0.081206806 -0.06254351 0.08746821 0.021492627 0.08700312 0.05240221 0.02898447
0.018884322 0.017076273 -0.07825481 0.064683706 -0.030158233 0.046287045 -0.014064543 -0.035484854
-0.047229867 -0.03248537 0.06995715 -0.04657733 0.020047091 -0.016501056 0.027543724 0.059381288
0.002677613 0.042854384 -0.020545192 0.06376711
00000000: d9f9 8bbd ee84 debc b2a9 393d b469 75bd
00000010: 86f7 97bd 8f90 813d 9821 22bc 0c19 33bd
00000020: 7c18 b53d c97e 8838 0ebb 373d 2c37 a7bd
00000030: 43aa 15bd 0689 37bd 24b2 dc3c bf4f 383d
00000040: 7beb bebb 09f3 89bd d87a 2d3c 0f18 79bc
00000050: 06d5 b03d 774a ea3b 0edf 96bd 8776 af3d
00000060: ec97 be3c 691c b23d 7322 003c f156 1ebd
00000070: a30c 56bd 81e5 84bd 34d0 bb3c 7088 1bbc
00000080: 0613 8b3d 58dc 29bc 1350 7bbd 9011 a33b
00000090: b019 21bd f096 533c 8f14 8fbd 3e48 de3c
000000a0: 4f7e edbc 3db1 27bd 60b2 8d3d fc05 8e3d
000000b0: 3bba 6b3d 6263 e23c 46d8 a8bd 2549 a0bd
000000c0: c6f2 79bd 4c62 13bc 6cd7 99bd 946a ef3c
000000d0: d88d a83d 2b1f d53c e0f1 243d 8c7f 21bd
000000e0: 6194 7ebd 0e91 a23d a5b7 e8bb 2713 abbd
000000f0: a078 003c 34e1 5ebd a613 dabc 823b b53d
00000100: 8472 bd3c acab 4a3d b902 0abd 1039 90bd
00000110: 3c56 8f3d 5879 9cbd b6c5 8e3d 3ee9 833d
00000120: 3a72 8abd fa28 7dbd 70b1 f23b c0b5 233d
00000130: e75f 943d 9813 7a3d eba6 adbd 7dd9 9ebd
00000140: 99ae 97bd af1c a13c 9184 4e3c 3f36 4bbd
00000150: bcae b8bc 14b4 20bc 9089 9abd 122e 933d
00000160: b47f b4bd e6cf 393d f954 10bc 3d0c a73c
00000170: 0011 623b 88fd 55bd 8201 8dbd a89c d6bc
00000180: b3d2 6ebd 5882 40bc 706b 213d f501 a33c
00000190: 0c1c f53c eae8 03bd 7ac7 a5bc 4778 19bd
000001a0: 073a 4bbd c8d3 893d c1db d13c 39e4 313d
000001b0: 99c5 8ebd 77b7 4ebd 4c76 a6bd 7f74 95bd
000001c0: 2a72 873d 78c4 083d aa45 71bd 6b62 44bd
000001d0: 57c2 99bc 76cc 9b3c 0e90 42bd 44d1 2bbd
000001e0: 66bc 643c 6927 3bbd f927 20bc 0030 40bd
000001f0: 2072 383d e770 81bd d0e2 f93c 5c8e 77bd
00000200: 17d5 ab3d 7aa2 5fbd 4e3b 8c3d f907 943d
00000210: d46e a23c 88d9 583d a769 c83c 6f74 883d
00000220: c83e 97bd 8031 5cba 10f7 88bd ed65 94bd
00000230: 7c03 81bc bb79 8bbb 5568 85bd 9533 a8bd
00000240: dcb7 953d 78a2 3cbd e04b e8bb 56d3 86bd
00000250: d830 76bc bc12 193d e89e b2bc f20e 653d
00000260: b82f 0bbd e333 b63d 89d1 af3d 7ce5 0f3b
00000270: 9867 b23c e4fc a73d a062 2e3d 6a09 013d
00000280: a4fd 8d3a d43a b83c 197c 6f3d 6c79 b5bc
00000290: 39e5 93bd faf0 f83c 53db 11bd ada0 a93d
000002a0: bcb3 573d cc2f 713d c9a8 403d 6cea 33bd
000002b0: 9c4e e73c 5491 e93c b6d1 383d c304 1e3d
000002c0: 6cb4 1bbd 853c 853d 07e1 a8bd d5ca 95bd
000002d0: b0ce 853d 5cde 78bd 4349 103d a76a 3bbd
000002e0: b5b9 ac3d 6e89 4fbc 9100 863d 42ff 8abd
000002f0: 049d e5bc c06c f73b 769a b0bd 189a 30bc
00000300: 00b6 b8b9 6216 61bd cace 0ebd 1343 2b3d
00000310: ca7d 78bd 52ae adbc 86d8 b3bd c19b 81bd
00000320: c6df 3dbd c002 533c a42b 90bd 3857 bdbc
00000330: efc8 c9bc 85ce 7abc 55b4 4c3c defb b1bd
00000340: 6307 a13d b053 963c a062 10bb 2bad fe3b
00000350: b8dc 6d3d c3f3 7dbd b39d 36bd f87e 45bd
00000360: f9ea 963d a51e e6bc fecc 953d 0376 9cbd
00000370: a85e 3b3d adf5 29bd 9a7e a93c d16d 21bd
00000380: a4ab 76bd c14f a63d d016 80bd 8822 b33d
00000390: 4e11 b03c b12e b23d b3a3 563d d770 ed3c
000003a0: 4bb3 9a3c 8ae3 8b3c 0f44 a0bd e478 843d
000003b0: 660e f7bc 7c97 3d3d f86e 66bc 9158 11bd
000003c0: 1b74 41bd 610f 05bd b245 8f3d dfc7 3ebd
000003d0: cc39 a43c 392d 87bc 60a3 e13c cb39 733d
000003e0: e47a 2f3b 1488 2f3d 644e a8bc 5598 823d

classifier.2.bias f4 [2]
0.038283866 0.02446469
00000000: 8bcf 1c3d 2c6a c83c
