models/optweezer/z09a48x4/checkpoints/epoch=0-step=11.ckpt (torch, 789231 bytes, 18 tensors)

exp_avg f4 [504, 1]
00000000: 6ece 60b5 68e8 4236 9f8c 3136 fd5f 0235
00000010: e874 04b5 7f06 b936 46e1 d931 ab04 2935
00000020: 4308 2336 c606 fa34 8256 7c34 3f99 3936
00000030: c35c 0835 db16 7b34 f331 b134 0f31 56b3
00000040: 5d6e b234 0ae0 90b6 c6e3 8234 ec2a ceb6
00000050: 78e2 d034 794b 5835 6f39 4a35 809a 80b5
00000060: b695 b9b4 b4bc a036 fe92 b134 c36f 3735
00000070: 4d6e 7933 6959 7bb4 4e11 c9b5 97c8 dfb2
00000080: 0ddd a3b2 ac91 9a34 34ac 8936 a38a 8bb2
00000090: dff8 3335 ed8b 12b4 5f0c 8035 648e e8b4
000000a0: 7f60 2434 37d6 afb1 3957 f7b3 1bdb e5b1
000000b0: fdf6 acb4 ea1a 9834 04ad 2cb6 46c4 fb35
000000c0: 4519 46b5 b4ff 78b4 d4f7 a5b5 7cb5 23b4
000000d0: c6d6 75b6 b90f a1b5 c5b0 72b3 5fe4 59b4
000000e0: def8 edb5 b8cb 3133 db8a 7035 a0cf 8db5
000000f0: 2407 7533 51b0 3833 1fbf 5536 9fa5 8cb5
00000100: cc10 e335 15a2 4d35 f2c5 4636 a55d dcb3
00000110: 8b72 9134 a3d8 d1b5 3646 5cb5 cf1c 2436
00000120: f5b8 79b3 856c cfb4 3aab 6234 2c17 8a34
00000130: dbec 2234 e365 8936 463e 79b4 d590 21b4
00000140: 153d f8b4 d1ac 15b6 cc5b 2c35 c8ce cd35
00000150: 80ad 1e33 ac76 8ab3 9307 9e34 eb70 d834
00000160: b4ae 80b5 a46b 4d35 8942 ccb5 3889 c735
00000170: 6a8e 4735 6102 8435 67ed 93b5 dc99 8435
00000180: 28f6 b135 7541 c435 bf27 9336 b11a a7b5
00000190: 9557 aeb4 18e8 8035 9d66 9233 b610 b3b6
000001a0: 93bf ac35 8c22 6533 ac00 6e34 03f3 a6b4
000001b0: 9c40 b635 791f 1fb3 051d 93b5 1702 2ab6
000001c0: 8867 3e35 4ec8 ccb3 9f1f 0236 5b68 5e36
000001d0: 3849 d3b6 5e49 19b4 f849 50b4 a890 bb35
000001e0: 901d 9134 49dc 9c34 4558 1135 c391 9ab4
000001f0: 7f71 87b5 1a7a b7b4 1dfa 63b5 d1cc 3036
00000200: 98b3 2736 92c4 0335 ee04 01b5 9471 b836
00000210: f12c 19b3 eaaa 3d35 f038 1836 38a6 0235
00000220: 08bd 9c34 843b 4836 0234 0435 e179 7534
00000230: d995 a334 590a 5ab3 fda4 b934 68d1 81b6
00000240: 00ec 3b34 ec75 d5b6 629c b734 cbf2 4935
00000250: 8b76 5835 1255 83b5 5a22 14b5 2df4 9236
00000260: b969 2e34 7aed 3a35 d0e3 8633 5b2c 66b4
00000270: 83b5 c7b5 b03a 75b2 0932 9bb2 bde1 6734
00000280: 8d1e 8536 5445 edb2 0d5f 2135 11fd 27b4
00000290: 5445 7635 5961 1cb5 5cb4 fc33 ccf2 09b2
000002a0: ccf6 d0b3 e3ae eeb1 228a aeb4 93eb b033
000002b0: 1b88 3cb6 f905 0e36 f85e 2ab5 b13f 75b4
000002c0: 4a01 aab5 c6f6 99b4 e0e2 6cb6 0b3b 93b5
000002d0: d9ef deb2 f647 5eb4 8076 f0b5 9d3b 5233
000002e0: 64bb 8735 ad5b 8bb5 1ba1 8533 5c20 2433
000002f0: 4975 5436 89c3 86b5 deaf f535 be2d 8635
00000300: 217f 4a36 9207 bbb3 6ad8 9034 ff66 96b5
00000310: a073 53b5 f8df 2436 2109 1231 4961 ddb4
00000320: ef34 6a34 6861 7234 7d57 2934 6a0c 9136
00000330: 41da 86b4 b16b 33b4 a04d fcb4 fe06 15b6
00000340: e5df 0135 7fa3 c135 ca79 2e33 864e 34b3
00000350: afe4 c334 4596 d434 cafe 63b5 7f3c 6635
00000360: de1b 09b6 fc54 cb35 274a 2b35 aa0d 8735
00000370: 31d0 97b5 db32 6e35 8ead bc35 9256 be35
00000380: a254 a836 2722 b6b5 b9c3 a132 58e1 4f35
00000390: 14b2 7e33 6aa0 b9b6 e74c 9e35 3b71 a732
000003a0: cf89 8134 c7be 9cb4 df10 ca35 85e2 8eb3
000003b0: 6bba 6cb5 b654 29b6 2268 2a35 75d3 d9b3
000003c0: 37bf 0236 9976 4236 cb10 f1b6 892d 1fb4
000003d0: 31c7 51b4 87c1 d735 2737 ac34 9fa4 9034
000003e0: 4a2b 3634 f109 97b4 43df 8cb5 4607 a1b4
000003f0: fdd1 2fb8 499a aa38 b76c 2638 bb00 2fb8
-8.37469e-07 2.904353e-06 2.6456908e-06 4.8568455e-07 -4.9343953e-07 5.514186e-06 6.341142e-09 6.29642e-07
2.4293702e-06 4.6571057e-07 2.35008e-07 2.765635e-06 5.0798934e-07 2.3384511e-07 3.3005162e-07 -4.9870376e-08
3.3235384e-07 -4.317616e-06 2.4380114e-07 -6.144275e-06 3.8907797e-07 8.05761e-07 7.533444e-07 -9.581709e-07
-3.4567864e-07 4.7903395e-06 3.307577e-07 6.833545e-07 5.807515e-08 -2.3408724e-07 -1.4980703e-06 -2.6051834e-08
-1.907622e-08 2.8790726e-07 4.1029652e-06 -1.6244774e-08 6.704485e-07 -1.3648214e-07 9.540344e-07 -4.331697e-07
1.5308795e-07 -5.1175237e-09 -1.15176995e-07 -6.6896866e-09 -3.2217204e-07 2.833179e-07 -2.5730706e-06 1.875808e-06
-7.379752e-07 -2.3189824e-07 -1.2365585e-06 -1.5246582e-07 -3.663286e-06 -1.2000011e-06 -5.6505787e-08 -2.0292781e-07
-1.7730306e-06 4.1396305e-08 8.960903e-07 -1.0565745e-06 5.7050002e-08 4.3001197e-08 3.185072e-06 -1.0479015e-06
1.6917706e-06 7.660431e-07 2.9619519e-06 -1.0261582e-07 2.7091696e-07 -1.5634763e-06 -8.2058557e-07 2.4454673e-06
-5.8143048e-08 -3.8635713e-07 2.1110182e-07 2.5721363e-07 1.5173593e-07 4.0947793e-06 -2.3212587e-07 -1.5046983e-07
-4.6238043e-07 -2.2303323e-06 6.4208575e-07 1.5333871e-06 3.694504e-08 -6.447712e-08 2.9435304e-07 4.0315294e-07
-9.587588e-07 7.652509e-07 -1.5218549e-06 1.4866591e-06 7.4340517e-07 9.835459e-07 -1.1021447e-06 9.879545e-07
1.3259169e-06 1.4622188e-06 4.3855684e-06 -1.2450238e-06 -3.247375e-07 9.604291e-07 6.81732e-08 -5.336561e-06
1.2870754e-06 5.3349638e-08 2.2165722e-07 -3.1096724e-07 1.357886e-06 -3.7048697e-08 -1.0960799e-06 -2.533319e-06
7.0931173e-07 -9.5359255e-08 1.9389915e-06 3.314132e-06 -6.296814e-06 -1.4275926e-07 -1.9398419e-07 1.3974686e-06
2.7029864e-07 2.9217543e-07 5.414516e-07 -2.879079e-07 -1.0091316e-06 -3.4175247e-07 -8.492805e-07 2.6345263e-06
2.4989477e-06 4.908735e-07 -4.806342e-07 5.4968496e-06 -3.5663962e-08 7.06567e-07 2.2682907e-06 4.8670654e-07
2.9194803e-07 2.9836965e-06 4.9249513e-07 2.2861742e-07 3.0470144e-07 -5.076649e-08 3.457898e-07 -3.8688777e-06
1.7501588e-07 -6.3616226e-06 3.420019e-07 7.5231645e-07 8.0638773e-07 -9.785019e-07 -5.5184285e-07 4.379565e-06
1.6243474e-07 6.9635973e-07 6.2813e-08 -2.1436556e-07 -1.4879482e-06 -1.4274221e-08 -1.8067128e-08 2.1595675e-07
3.9672655e-06 -2.7621958e-08 6.011549e-07 -1.5645152e-07 9.1743027e-07 -5.825619e-07 1.17674716e-07 -8.029655e-09
-9.730647e-08 -6.946594e-09 -3.251053e-07 8.2384894e-08 -2.8093407e-06 2.1163125e-06 -6.346813e-07 -2.2840574e-07
-1.2666362e-06 -2.8678022e-07 -3.52988e-06 -1.0969537e-06 -2.5953272e-08 -2.070154e-07 -1.7915881e-06 4.8948653e-08
1.0112822e-06 -1.0382988e-06 6.2226e-08 3.8213656e-08 3.165873e-06 -1.0040686e-06 1.8305107e-06 9.997091e-07
3.0174344e-06 -8.709243e-08 2.6979552e-07 -1.1205847e-06 -7.877188e-07 2.4568271e-06 2.1250985e-09 -4.1235242e-07
2.1812205e-07 2.2573442e-07 1.577118e-07 4.322782e-06 -2.5118246e-07 -1.6709852e-07 -4.6995137e-07 -2.22068e-06
4.8382054e-07 1.4427204e-06 4.06233e-08 -4.1980933e-08 3.648797e-07 3.9597413e-07 -8.4934857e-07 8.576971e-07
-2.0430812e-06 1.5149412e-06 6.381037e-07 1.0062261e-06 -1.1310968e-06 8.8735914e-07 1.4057603e-06 1.4181298e-06
5.0166427e-06 -1.3569996e-06 1.8831871e-08 7.744143e-07 5.9300945e-08 -5.5321043e-06 1.1794299e-06 1.949285e-08
2.412839e-07 -2.9196073e-07 1.5055083e-06 -6.653594e-08 -8.8188125e-07 -2.523227e-06 6.348147e-07 -1.0143314e-07
1.9482811e-06 2.8977286e-06 -7.1843147e-06 -1.4824595e-07 -1.9537107e-07 1.6075072e-06 3.2077625e-07 2.6941868e-07
1.696582e-07 -2.8133175e-07 -1.049579e-06 -2.999388e-07 -4.1918818e-05 8.1349695e-05 3.9678733e-05 -4.172393e-05

exp_avg_sq f4 [504, 1]
00000000: 8cda 472a 4065 d02b a78f b22b fe90 4629
00000010: 7a05 0d2a a080 432c 1a28 052b 1941 392a
00000020: 8a8a a32b d6c1 3e29 8164 4628 a27d 8d2b
00000030: dcfc d629 d0bb 0a29 9b98 6128 a6e7 5827
00000040: e2c7 a52a bacd d82c 8466 5328 e618 512c
00000050: a82b 6928 d955 1b2b 2ba5 4d29 97c0 a129
00000060: b1c0 7c2a 8fcf af2b 6ed9 4328 81e2 8629
00000070: 6f7f 2828 8024 9729 3258 2b2a 4037 9c28
00000080: 8489 9024 ca4e 7929 1d6c 952b 0a55 cc25
00000090: 014c ac29 1e6d ec28 8755 9d29 4a9d dd29
000000a0: 07d3 9f27 0fae 7828 2420 0727 e82c ec24
000000b0: 0e44 8328 d032 9528 3ca7 8e2b d3ff 642b
000000c0: 9aab 0b29 1308 0d28 82c3 cf2a 9e68 e928
000000d0: 5f07 6f2b 5f9f e82a f26b 6f26 18ec fa28
000000e0: 09e2 d62a 0c30 cb29 262e b52a beb7 362b
000000f0: 15c0 f227 cef6 1528 3aa0 802c 8977 122a
00000100: 39dc 342b c284 522a 51c5 8f2b d269 0f27
00000110: ef91 4d29 6c44 0c2a 7821 062a f642 ff2a
00000120: db56 0827 c27a e428 5bf3 2b28 df95 be2a
00000130: d84b 5227 d2e1 fb2b 0680 4928 aef2 1429
00000140: 2c0e 9429 0c37 f82b 865a d42a 1681 d02a
00000150: e16c 2626 f8bb c326 3c4e 9a28 c8f1 8f28
00000160: c1ff ff29 c21a e129 5ab3 9e2b eb54 c22a
00000170: 25b2 182b e94a 3f2a 1ad7 e02a bda0 b82a
00000180: 8e84 4c2b 455c 952b a822 282c 5be1 0e2a
00000190: 9696 bf2a 8318 6c2a 11b0 9627 00f6 bf2c
000001a0: 2b4b 722a e47b fa28 4019 c728 d5fc b828
000001b0: 7802 3f2a c9b9 9927 4e25 302b 8599 2e2c
000001c0: bbb7 0f2b 17ff 1327 450a 272c d460 382c
000001d0: 9a7d 7b2c 90a5 3228 3aaa ca27 5c7e 242b
000001e0: e7a3 9128 b657 8828 c364 4f2a 970d ab28
000001f0: 09d6 8c2b 0bce 8128 3bc2 132a 4bfb a82b
00000200: bae9 a32b d25c 8429 22b7 122a 18bc 292c
00000210: 68b9 022b e3b0 6f2a c344 8f2b 9ec3 1c29
00000220: 439f 8828 529f 952b 776d b529 8748 3d29
00000230: b273 6728 fa50 6627 4fa7 a62a f6bc c82c
00000240: 9529 2d28 82d7 482c 187b 7e28 073d f82a
00000250: 3831 5429 4953 9c29 8c37 9a2a 484d 792b
00000260: b08a 9527 a1b7 8c29 6275 1928 bd8a 8129
00000270: 9e9a 1f2a bf9b 9c28 d3cb bb24 f913 5029
00000280: 5bd8 872b 6dba 5225 4eb0 9c29 b777 d428
00000290: f9aa 9a29 96b7 052a 1ee9 6a27 6aae 6b28
000002a0: 75bc d426 3452 0425 dcc8 9628 7a48 1327
000002b0: d4d4 a92b 80d6 902b 0b22 f428 0c87 3228
000002c0: bad3 e12a 65b9 6f29 b4d1 692b 3956 ba2a
000002d0: 459c c924 a7b9 1329 f178 d72a ccfa af29
000002e0: 14bb f12a 98b2 3b2b 98b1 0528 946c dd27
000002f0: c5da 6f2c 8dae fa29 9a8f 5b2b caa4 972a
00000300: a35a 8f2b 4add e926 c844 6c29 1a71 ec29
00000310: ded4 052a 0e3e e42a 6753 ae25 91e6 f928
00000320: 78b4 2b28 6c42 a62a 5faa 5e27 e2af 072c
00000330: 0b9b 1f28 2ee0 0929 8c02 9c29 4359 fc2b
00000340: e164 9f2a 58c6 622a b1a4 8725 31c4 9b25
00000350: b5b5 b128 9488 8f28 2512 d529 00e8 c629
00000360: 1fc7 d42b a205 c32a f412 db2a b22e 252a
00000370: d154 b32a 6de1 972a da24 572b 98ed 8a2b
00000380: d1ac 612c 8c3c 242a 453f c82a 4cbb 172a
00000390: c398 8327 8948 d12c e455 442a 9896 0829
000003a0: 0a7d 3d28 eb1e a828 64a3 662a 812e c027
000003b0: 1f7c 412b a94d 2e2c 8c8f e32a 556a 7727
000003c0: 9b81 272c 482e 0f2c 4275 9d2c fd64 5628
000003d0: f601 cf27 559b 592b 65be 4d28 a374 7a28
000003e0: 7b2a c829 e705 a428 a539 8c2b 9ea3 4428
000003f0: 510d 9a2f 9e7e 9f30 cdc9 962f 6303 fb2f
1.7750574e-13 1.4807391e-12 1.2687532e-12 4.4090592e-14 1.2525216e-13 2.7782568e-12 4.7306744e-13 1.6453886e-13
1.1620299e-12 4.23566e-14 1.1013001e-14 1.0053523e-12 9.547373e-14 3.0805057e-14 1.25231e-14 3.0101599e-15
2.9448584e-13 6.1619295e-12 1.17350824e-14 2.9714508e-12 1.2943565e-14 5.51862e-13 4.5662404e-14 7.183245e-14
2.244895e-13 1.2492107e-12 1.0871822e-14 5.9900876e-14 9.353506e-15 6.712079e-14 1.521845e-13 1.734344e-14
6.2683006e-17 5.5357445e-14 1.0617094e-12 3.5445984e-16 7.651519e-14 2.6248585e-14 6.987037e-14 9.841657e-14
4.436016e-15 1.38045084e-14 1.8752437e-15 1.0242476e-16 1.4573436e-14 1.656436e-14 1.0136124e-12 8.13569e-13
3.101304e-14 7.828823e-15 3.6906247e-13 2.5913567e-14 8.4920086e-13 4.1322065e-13 8.3066075e-16 2.7857965e-14
3.817088e-13 9.023346e-14 3.218408e-13 6.491438e-13 6.737675e-15 8.324679e-15 3.6557675e-12 1.3008877e-13
6.4254467e-13 1.8697806e-13 1.0215527e-12 1.9902602e-15 4.564572e-14 1.2458236e-13 1.1913203e-13 4.5343563e-13
1.8920876e-15 2.5366323e-14 9.545176e-15 3.3854774e-13 2.918447e-15 1.78973e-12 1.1185502e-14 3.3073093e-14
6.574979e-14 1.7636738e-12 3.7721578e-13 3.7037794e-13 5.774038e-16 1.3581792e-15 1.7131363e-14 1.5981045e-14
1.1368641e-13 9.996649e-14 1.1276355e-12 3.4520246e-13 5.4248473e-13 1.6990197e-13 3.993965e-13 3.27965e-13
7.2659316e-13 1.0612697e-12 2.3893474e-12 1.269032e-13 3.4032906e-13 2.0969515e-13 4.1824255e-15 5.455858e-12
2.1519997e-13 2.7809305e-14 2.2104389e-14 2.0537752e-14 1.6965064e-13 4.266746e-15 6.257953e-13 2.4812108e-12
5.1058783e-13 2.0538633e-15 2.3737828e-12 2.6201723e-12 3.5738968e-12 9.9168856e-15 5.6250823e-15 5.8439863e-13
1.6169315e-14 1.5137072e-14 1.8420252e-13 1.8990707e-14 1.0007005e-12 1.4411234e-14 1.312361e-13 1.2006866e-12
1.1646719e-12 5.878079e-14 1.3030942e-13 2.4120757e-12 4.644258e-13 2.1288834e-13 1.0179846e-12 3.480863e-14
1.5168102e-14 1.0631307e-12 8.057004e-14 4.2029338e-14 1.2848163e-14 3.196281e-15 2.9603617e-13 5.7053208e-12
9.612446e-15 2.854134e-12 1.4126524e-14 4.4095996e-13 4.7116147e-14 6.9422393e-14 2.739444e-13 8.856982e-13
4.1506173e-15 6.2491035e-14 8.5186595e-15 5.752818e-14 1.417568e-13 1.7387023e-14 8.1443614e-17 4.62026e-14
9.652378e-13 1.827776e-16 6.958376e-14 2.3588646e-14 6.868633e-14 1.1876467e-13 3.2600397e-15 1.30829406e-14
1.4761536e-15 1.1477026e-16 1.6740454e-14 2.0439638e-15 1.2067244e-12 1.0291351e-12 2.7104206e-14 9.9102685e-15
4.0114944e-13 5.3229465e-14 8.306925e-13 3.3100066e-13 8.7434586e-17 3.2801585e-14 3.8275592e-13 7.8150675e-14
4.2940011e-13 6.6683594e-13 7.421493e-15 6.1457543e-15 3.4085384e-12 1.113251e-13 7.8003717e-13 2.6937334e-13
1.0185918e-12 1.6227603e-15 5.2462185e-14 1.05001253e-13 1.1886626e-13 4.0543995e-13 3.0240704e-16 2.7744546e-14
9.53154e-15 2.9533613e-13 3.0901047e-15 1.9282288e-12 8.859893e-15 3.0614556e-14 6.9282335e-14 1.7930452e-12
2.8314073e-13 2.0141647e-13 2.3530366e-16 2.7021158e-16 1.972975e-14 1.593542e-14 9.462248e-14 8.833212e-14
1.5118773e-12 3.4642867e-13 3.8915366e-13 1.4671145e-13 3.185564e-13 2.697941e-13 7.6434486e-13 9.871435e-13
3.2070355e-12 1.4587133e-13 3.557104e-13 1.3476476e-13 3.652543e-15 5.9481903e-12 1.7438096e-13 3.0328686e-14
1.0518721e-14 1.8665155e-14 2.0484791e-13 5.3341125e-15 6.8739627e-13 2.4769997e-12 4.0422906e-13 3.4335779e-15
2.3804073e-12 2.0347213e-12 4.4752266e-12 1.1901285e-14 5.7456168e-15 7.7309453e-13 1.1421071e-14 1.3903079e-14
8.8891534e-14 1.8210217e-14 9.963598e-13 1.09156645e-14 2.80219e-10 1.1604759e-09 2.742823e-10 4.565904e-10

exp_avg f4 [504, 126]
00000000: c2e1 efb3 6845 f8b3 ea42 8db4 1083 4633
00000010: 2bca 88b4 dc37 67b4 9d47 a2b4 6f75 1f34
00000020: e12e adb4 9c13 b3b2 75af 1734 3166 b834
00000030: 5b80 10b4 1970 a633 058c 19b3 aeff 7234
00000040: 4ee6 9a34 b2e4 88b4 d1dd cb32 8a6a 03b4
00000050: 7cea cbb2 438d cfb3 6740 2d34 0f03 b834
00000060: 0bfa 50b4 3d40 fbb3 f9c7 4d33 147d 1834
00000070: d0fd 3a33 da4f aeb4 91ed 0eb4 82b0 8633
00000080: de3b 4831 050a 1e34 68f8 2db4 ccd4 11b1
00000090: c46d c733 39dd f3b2 3755 18b4 2e82 50b4
000000a0: 270e 8c33 83c3 0834 97ed b933 cce6 5d32
000000b0: a9a6 b833 abba 00b3 fa1f 97b4 e1d8 8634
000000c0: 7788 af33 2410 1033 0b14 8ab4 aa43 af33
000000d0: 5c67 3cb4 6a35 4f34 7c81 05b2 1524 2634
000000e0: 0db2 2bb4 23bc d633 79fc 43b4 cc12 86b4
000000f0: d869 8633 1f66 dc33 74cb c434 461a 6934
00000100: bbff c1b4 c766 c0b3 77ed 20b4 e7c6 f633
00000110: 11e7 0a34 060e a3b3 9eca adb3 68cd 03b4
00000120: 6743 94b1 9a5f 4b34 93c5 75b3 12a9 a834
00000130: 4d56 8d33 c36c 56b4 052d 69b3 66de 37b3
00000140: 6208 4034 8dfe 78b4 b116 cab3 7eb3 10b3
00000150: 3dc9 7db2 3d49 a1b2 d7f9 6034 a5a7 bd33
00000160: b830 9d34 4f03 c4b3 be02 06b4 f41c 5d34
00000170: e01b 5a34 547a 7b34 30dd e0b3 0ce8 bb34
00000180: 3a2e 47b4 d91c 46b4 0be6 b0b4 e3e0 49b4
00000190: 06b1 45b3 d38e 8db2 a762 feb2 eaaa 81b4
000001a0: bc42 a3b3 705c 5db4 1417 2132 9ef5 d133
000001b0: 4bf4 8fb4 9650 7533 d974 80b4 ece0 08b4
000001c0: 6c25 b534 21c8 b832 b6a3 d634 c204 44b4
000001d0: c48e 97b4 21b6 1734 a7e9 a0b2 b691 d634
000001e0: 424e c733 cc66 16b4 8993 53b3 7999 8234
000001f0: 6c1f b134 ad52 aeb2 8958 9034 b719 3e34
00000200: 4a9e f034 acd8 0cb3 3e3f be34 4d6e 9934
00000210: 04ee 0a35 a720 5db4 0df1 1635 6983 ac32
00000220: b5c3 89b4 7189 2ab5 2ccb 4534 0aec adb3
00000230: d752 fe32 c890 e0b4 bd78 e4b4 aea1 0035
00000240: 78a8 72b2 0405 ed33 b628 7cb2 82b4 0934
00000250: 58a0 a8b4 fb43 23b5 1c28 7134 8598 f933
00000260: b459 3eb4 64da 77b4 7a41 96b3 5c73 fc34
00000270: 648e 3234 fcb7 1fb4 a362 cdb0 a302 5bb4
00000280: d34f 6934 83e6 9832 40f6 0eb4 8e4a c631
00000290: 02e4 6334 d9e5 d534 fd7d 38b3 7642 3ab4
000002a0: d0f1 feb3 adaa b2b2 efa6 f4b3 62b8 0134
000002b0: a258 f934 0099 d6b4 1dc9 aeb3 2023 71b2
000002c0: c8ee f634 fd50 0eb3 9703 a034 4689 b4b4
000002d0: b8a9 4633 2753 63b4 6589 8534 0a4d 57b4
000002e0: 2588 c634 391d e434 77fb dbb3 a64c 39b4
000002f0: f0d8 2db5 702b ccb4 21fe 1c35 f6d1 3b34
00000300: 421b 5634 000a 04b4 9f99 4eb4 d2c4 4c33
00000310: 3f98 2e34 572c 8134 a740 a433 ecec d7b4
00000320: 2fc6 b233 a1b2 18b5 f8ad d2b3 897d bf34
00000330: e43c 0533 8e46 ca32 1646 a6b4 862b b734
00000340: f5f8 7d34 dda6 e2b2 d5b8 9a33 c00c 7733
00000350: eb13 e1b4 7fee c9b3 fb9b f5b4 f0c3 6534
00000360: 3942 8734 23bf b9b4 79a3 d0b4 bce7 e8b4
00000370: ae88 7a34 93c0 2fb5 9b6c bb34 e152 bf34
00000380: 20c5 1735 1424 9734 6748 d233 73d9 42b3
00000390: a06a 7533 0e8c a934 85b3 c633 3d8c e134
000003a0: 1877 b2b3 1997 1db4 7bc1 0b35 f093 2ab3
000003b0: aaff b734 c99f 6234 8fec 19b5 ef6b 1e33
000003c0: 1ec0 40b5 6d42 8534 0fed 1135 791f 2bb4
000003d0: 5008 1f33 789c 46b5 150b 68b4 ef5f 8334
000003e0: e2ea 1a34 60df d8b4 4dd3 18b5 49af c732
000003f0: 18a3 15b2 eee2 74b4 d467 dfb4 7961 3e34
-1.117037e-07 -1.1561025e-07 -2.6311983e-07 4.6219668e-08 -2.547907e-07 -2.1533873e-07 -3.0226957e-07 1.4850751e-07
-3.225787e-07 -2.084726e-08 1.4126802e-07 3.4347025e-07 -1.345774e-07 7.750368e-08 -3.5750436e-08 2.2631022e-07
2.8852304e-07 -2.5498372e-07 2.373318e-08 -1.2239084e-07 -2.3738941e-08 -9.664884e-08 1.613531e-07 3.4274896e-07
-1.9462475e-07 -1.1699783e-07 4.7912156e-08 1.4201606e-07 4.353734e-08 -3.2468125e-07 -1.3311207e-07 6.271968e-08
2.913786e-09 1.4718542e-07 -1.620225e-07 -2.1221238e-09 9.286626e-08 -2.8389524e-08 -1.4187104e-07 -1.9418869e-07
6.521832e-08 1.2737114e-07 8.657951e-08 1.291637e-08 8.598483e-08 -2.9972096e-08 -2.8149208e-07 2.5117245e-07
8.173895e-08 3.3542292e-08 -2.5719086e-07 8.1613805e-08 -1.7546466e-07 1.9297809e-07 -7.77106e-09 1.5473081e-07
-1.599039e-07 9.9993734e-08 -1.8252639e-07 -2.4973122e-07 6.259114e-08 1.0263124e-07 3.6655877e-07 2.1709374e-07
-3.613512e-07 -8.959392e-08 -1.498755e-07 1.1491448e-07 1.2936313e-07 -7.59283e-08 -8.092796e-08 -1.2275052e-07
-4.3150297e-09 1.8940628e-07 -5.72232e-08 3.1415453e-07 6.581522e-08 -1.996987e-07 -5.4290485e-08 -4.2810278e-08
1.7884443e-07 -2.3189405e-07 -9.4104855e-08 -3.369086e-08 -1.47722945e-08 -1.8776172e-08 2.0952517e-07 8.831493e-08
2.9278976e-07 -9.127563e-08 -1.248072e-07 2.0592762e-07 2.0312973e-07 2.34207e-07 -1.04710466e-07 3.50003e-07
-1.8550136e-07 -1.8450682e-07 -3.2949933e-07 -1.8801397e-07 -4.602864e-08 -1.647951e-08 -2.9614354e-08 -2.415248e-07
-7.602418e-08 -2.0615857e-07 9.376681e-09 9.7769984e-08 -2.6813572e-07 5.71168e-08 -2.3926876e-07 -1.2747813e-07
3.3741105e-07 2.1511427e-08 3.9979722e-07 -1.8255653e-07 -2.8229817e-07 1.4129229e-07 -1.8732704e-08 3.9966625e-07
9.2808946e-08 -1.4007236e-07 -4.926145e-08 2.4326053e-07 3.2991682e-07 -2.0293863e-08 2.6886508e-07 1.7704484e-07
4.4818654e-07 -3.2793352e-08 3.5436273e-07 2.8578725e-07 5.1755364e-07 -2.0594108e-07 5.623013e-07 2.0083194e-08
-2.5660634e-07 -6.352994e-07 1.8420968e-07 -8.0988755e-08 2.9607163e-08 -4.1828594e-07 -4.2556158e-07 4.791899e-07
-1.4124559e-08 1.1037085e-07 -1.4677587e-08 1.2824788e-07 -3.1409104e-07 -6.0821156e-07 2.2459466e-07 1.1622709e-07
-1.7727763e-07 -2.3083118e-07 -6.9968294e-08 4.7022593e-07 1.6629343e-07 -1.4874962e-07 -1.4943747e-09 -2.0396924e-07
2.1728856e-07 1.7799954e-08 -1.3314366e-07 5.7710343e-09 2.1223971e-07 3.9841578e-07 -4.2955424e-08 -1.7346778e-07
-1.1871782e-07 -2.0799542e-08 -1.13925005e-07 1.2081139e-07 4.6444353e-07 -3.9971928e-07 -8.139089e-08 -1.4036033e-08
4.5994807e-07 -3.313561e-08 2.9804934e-07 -3.3627492e-07 4.6254826e-08 -2.1171273e-07 2.4873148e-07 -2.0051462e-07
3.6979432e-07 4.2489572e-07 -1.02437234e-07 -1.7257352e-07 -6.476321e-07 -3.8029566e-07 5.8484335e-07 1.7492115e-07
1.994022e-07 -1.2297096e-07 -1.9241132e-07 4.767646e-08 1.62604e-07 2.4060384e-07 7.648605e-08 -4.0219254e-07
8.32482e-08 -5.688435e-07 -9.810532e-08 3.566786e-07 3.1021855e-08 2.354798e-08 -3.0970904e-07 3.4118074e-07
2.3653031e-07 -2.6385743e-08 7.2048046e-08 5.7520765e-08 -4.1924008e-07 -9.403174e-08 -4.5748297e-07 2.1398569e-07
2.5193893e-07 -3.4598006e-07 -3.886196e-07 -4.3381976e-07 2.3332788e-07 -6.547281e-07 3.4910485e-07 3.5636825e-07
5.653874e-07 2.8152192e-07 9.792057e-08 -4.5366914e-08 5.7140483e-08 3.1580606e-07 9.252748e-08 4.2011553e-07
-8.310434e-08 -1.4676733e-07 5.2063086e-07 -3.9715758e-08 3.4272426e-07 2.110602e-07 -5.734118e-07 3.6885407e-08
-7.180514e-07 2.4821512e-07 5.4361675e-07 -1.5937066e-07 3.7027633e-08 -7.398844e-07 -2.1610715e-07 2.4470452e-07
1.4427818e-07 -4.0395662e-07 -5.6931896e-07 2.324636e-08 -8.710025e-09 -2.2806827e-07 -4.1612532e-07 1.7730589e-07

exp_avg_sq f4 [504, 126]
00000000: 72a3 a027 3349 ed27 7565 0e29 ce2a cd26
00000010: 5149 1629 467c db28 2b34 3a29 46cb 4d28
00000020: 29bf 5129 e17f ba25 e44f 1e28 740d 6329
00000030: ca3e 2628 c8d5 8027 93b5 7f26 526c c228
00000040: da06 3a29 e572 f628 4239 ef25 004a 2428
00000050: ea4b 3a26 024e b227 199a 3e28 734c 6929
00000060: a280 bc28 8ec3 0928 e3a2 2026 81ba 2928
00000070: 1509 7626 3971 6d29 f1a5 2928 e213 c026
00000080: b50a 6522 c4d2 4c28 9b4d 7728 33e1 7222
00000090: a678 9e27 0817 3826 462c 3528 118e 8628
000000a0: 4c07 5627 e27a 1728 8b9e 8a27 8dc5 a924
000000b0: e55c 8b27 576c 6325 069c 2529 a85d 0629
000000c0: 119f 8e27 e66b 7426 82e8 0329 d5ed aa27
000000d0: 378c 7628 0985 9828 9289 a723 e3b4 5b28
000000e0: 2337 5d28 4573 9427 944a 7728 f69e fd28
000000f0: f08d 0027 2551 a727 cda4 8429 3fbb be28
00000100: 8510 8929 3cce 6527 46c2 5428 f8c3 0928
00000110: 01c4 1728 4791 8a27 fb1a 3327 ff76 e327
00000120: e450 fb24 63a2 7928 917a df26 f42b 4329
00000130: ea3a 1927 e91e 9a28 4036 1227 4d15 b426
00000140: 9ade 8028 f1a8 e828 f275 5527 1aa2 ae26
00000150: dea6 7224 2f56 ce24 eb04 a428 e100 a727
00000160: 90ad 3929 08fe 5327 a493 db27 3a41 ab28
00000170: c405 9c28 6b77 d128 ae30 9227 ebbf 6c29
00000180: b995 8328 b591 8028 6f71 5d29 3fb7 9b28
00000190: edeb 6726 9c01 0e26 ab63 e825 bb5a 0829
000001a0: c792 6127 2a88 9c28 c996 ab24 1460 aa27
000001b0: 3e22 0529 47e6 1f27 ce75 0129 9765 0b28
000001c0: e998 6929 4c02 3726 b586 9e29 c257 9b28
000001d0: 3681 1529 8c77 4828 473c 1225 b6d5 9a29
000001e0: 248e 5627 720e 1c28 561a 4726 d5de f828
000001f0: 9bcc 5729 7538 8425 02d2 9f29 138d 062a
00000200: 5358 1a2b babf 0729 b17c 2c2b 3d78 fe2a
00000210: 526c 472b 414b 6e2a 235e 602b 0a74 0928
00000220: dba7 282a 5b2c 6c2b e49f 3c2a a8c0 a029
00000230: 49a9 b128 67a4 c62a f033 512b 525d fd2a
00000240: 141e 2528 62b4 4b2a 1b02 9828 480d d129
00000250: fcfb 3e2a 853d 762b 64cf de2a 1e36 212a
00000260: 0c67 3a28 9c5f 392a 1300 7f28 6e25 862b
00000270: f14b 442a c4b8 ab28 0cd5 2524 27c9 702a
00000280: 4036 8f2a e0b5 5d25 26b7 b629 eed4 7e28
00000290: f13f 4f2a b2ce 862a e9c3 9029 9b68 2e2a
000002a0: e65e 9e29 8532 b026 74f7 9f29 7f44 9027
000002b0: 291f 342b 9a86 132b 45e6 af29 ad10 a928
000002c0: b779 0c2b dffc e029 7b1d 812a 2ecd a52a
000002d0: a1a7 8626 1fbc 782a 4148 752a 6ef2 9929
000002e0: c018 812a d154 072b d057 0929 2874 ad29
000002f0: 500b 8b2b 40d0 cc2a 55dc 942b 7ae8 5f29
00000300: 0281 782a 689e 272a a560 2e2a 9560 b329
00000310: 3eff 2429 a4af ee29 a1a8 bf27 d8e6 772a
00000320: 4427 ef28 c376 4f2b 749d 2b29 655a 9e2a
00000330: 70e2 4029 ba76 ec28 65e3 882a ca08 fc2a
00000340: 6456 4929 e9ac 0829 3e24 f326 7b91 a526
00000350: 2813 ac2a 9b22 d029 528c 4e2b 1925 4929
00000360: af2f d529 a1b1 b42a da63 a12a ad84 d72a
00000370: 341c 8d29 b5dd 782b 9800 892a 1e99 852a
00000380: 661b 6e2b db12 ad2a 9f53 6028 4945 7e28
00000390: 06ec 0428 2b76 1c2b 34e3 8429 ae21 a22a
000003a0: 1221 9027 19be bf29 2546 072b 4923 5529
000003b0: a865 122b e279 1c2a 33cf 7b2b 1b74 9a28
000003c0: 9f6b a82b f933 b22a 9f1e 192b c862 6e2a
000003d0: 400f f926 0d9a a22b 60be 4229 975c 242a
000003e0: 1e3a 3528 11b7 082b 3ed5 602b e4d4 9c27
000003f0: 30d0 5929 ff0f c629 8259 dd2a f057 d628
4.458613e-15 6.5860077e-15 3.1618334e-14 1.4236335e-15 3.3370283e-14 2.436778e-14 4.1345545e-14 1.1423864e-14
4.6573127e-14 3.235251e-16 8.788085e-15 5.0415794e-14 9.228466e-15 3.575892e-15 8.8716976e-16 2.1585303e-14
4.130624e-14 2.7361314e-14 4.149869e-16 9.119875e-15 6.4634596e-16 4.94895e-15 1.0580533e-14 5.1802702e-14
2.0927978e-14 7.647432e-15 5.5731904e-16 9.421826e-15 8.5360703e-16 5.2722776e-14 9.417367e-15 1.3328066e-15
3.1040955e-18 1.1369977e-14 1.3728082e-14 3.2916335e-18 4.3984617e-15 6.3869037e-16 1.0057119e-14 1.49386e-14
2.9702422e-15 8.40883e-15 3.8474587e-15 7.362673e-17 3.8680967e-15 1.9725818e-16 3.677269e-14 2.983521e-14
3.9585378e-15 8.4800735e-16 2.928951e-14 4.7442337e-15 1.36861475e-14 1.6933085e-14 1.816444e-17 1.2196166e-14
1.227992e-14 4.1203227e-15 1.3727426e-14 2.815758e-14 1.7840513e-15 4.643979e-15 5.890566e-14 2.1175443e-14
6.086888e-14 3.1891934e-15 1.181049e-14 7.647522e-15 8.424685e-15 3.8460204e-15 2.4855866e-15 6.3134172e-15
1.0899093e-16 1.3857489e-14 1.5506955e-15 4.333682e-14 2.1264953e-15 1.711084e-14 2.029098e-15 1.2495783e-15
1.4307393e-14 2.583044e-14 2.9623626e-15 1.2117613e-15 5.2616727e-17 8.948426e-17 1.820979e-14 4.6352764e-15
4.1228793e-14 2.9419843e-15 6.0944783e-15 1.9013101e-14 1.732198e-14 2.325545e-14 4.057592e-15 5.256899e-14
1.4608853e-14 1.4274045e-14 4.9170246e-14 1.7287927e-14 8.0463964e-16 4.926833e-16 4.0313122e-16 3.0276762e-14
3.130459e-15 1.7378531e-14 7.441487e-17 4.7288647e-15 2.9561633e-14 2.2190516e-15 2.8745933e-14 7.738079e-15
5.186902e-14 6.349399e-16 7.0399775e-14 1.7246516e-14 3.319672e-14 1.1128153e-14 1.2683904e-16 6.876047e-14
2.977552e-15 8.662872e-15 6.9077686e-16 2.7630169e-14 4.7917057e-14 2.2936607e-16 7.097449e-14 1.1950536e-13
5.4834365e-13 3.0142318e-14 6.127972e-13 4.5202896e-13 7.0849327e-13 2.1164755e-13 7.971143e-13 7.63019e-15
1.4979634e-13 8.39056e-13 1.6753227e-13 7.138848e-14 1.9724363e-14 3.5285942e-13 7.4323794e-13 4.5006582e-13
9.165862e-15 1.8092605e-13 1.6876303e-14 9.2837684e-14 1.6962815e-13 8.748213e-13 3.9579028e-13 1.4318448e-13
1.0347419e-14 1.6464472e-13 1.415536e-14 9.531661e-13 1.7434644e-13 1.9064943e-14 3.595913e-17 2.1386071e-13
2.5439546e-13 1.9230316e-16 8.114195e-14 1.4146004e-14 1.8407477e-13 2.3946605e-13 6.4288696e-14 1.5490597e-13
7.033072e-14 1.2226147e-15 7.103945e-14 4.0042293e-15 6.399209e-13 5.241169e-13 7.8115066e-14 1.8770001e-14
4.9906905e-13 9.9914644e-14 2.293546e-13 2.945226e-13 9.343554e-16 2.2092092e-13 2.178544e-13 6.83662e-14
2.2932177e-13 4.807934e-13 3.0496276e-14 7.702893e-14 9.879684e-13 3.6382182e-13 1.0577187e-12 4.9717588e-14
2.2071583e-13 1.4887538e-13 1.5487835e-13 7.965951e-14 3.6636703e-14 1.0599792e-13 5.3195977e-15 2.2018097e-13
2.6551359e-14 7.370599e-13 3.8106196e-14 2.8129162e-13 4.2828967e-14 2.6252753e-14 2.431624e-13 4.477029e-13
4.4705898e-14 3.0348042e-14 1.6871336e-15 1.1488608e-15 3.056663e-13 9.2430587e-14 7.3380635e-13 4.4663143e-14
9.467372e-14 3.2097678e-13 2.866863e-13 3.8283734e-13 6.26655e-14 8.841498e-13 2.43365e-13 2.3731792e-13
8.459261e-13 3.0744057e-13 1.245263e-14 1.4114856e-14 7.378651e-15 5.5586324e-13 5.901391e-14 2.880035e-13
4.0003884e-15 8.5150806e-14 4.805898e-13 4.7326106e-14 5.2010696e-13 1.389787e-13 8.946066e-13 1.7147787e-14
1.1966989e-12 3.1655215e-13 5.4399015e-13 2.1172918e-13 1.7281979e-15 1.155355e-12 4.3241777e-14 1.459825e-13
1.00601205e-14 4.857096e-13 7.987672e-13 4.3529514e-15 4.8364253e-14 8.795741e-14 3.9319595e-13 2.379691e-14

exp_avg f4 [504]
00000000: 9ed4 90b6 f261 ed36 b881 f7b6 eca1 e435
00000010: aaf3 bf35 6af8 edb4 6063 3837 d104 bd36
00000020: f648 17b6 6026 eb35 d3f4 e9b5 d2c1 4cb6
00000030: 7e90 8835 e60e 4d34 f95a ef35 0cef 8135
00000040: 59d8 d336 cb2f e1b7 2d42 f9b4 0a73 b935
00000050: 2dc6 c734 2528 c9b6 90e2 5035 1e0b d736
00000060: 24bf 98b7 a63e 9cb7 67db d9b4 27ba 2e36
00000070: 3c2d 27b5 3980 14b7 b821 1036 f8cc 2a34
00000080: 35df c633 ed84 a631 a024 d034 2dd9 8634
00000090: cd63 0736 c651 29b6 5a07 80b3 8584 9d36
000000a0: 7339 d2b5 38b1 23b6 38ab cd35 6083 5e33
000000b0: 171d 1435 737b dc34 23b5 36b7 3562 8936
000000c0: 87c5 fb35 d106 2bb4 a9a7 0f37 bb0e 81b6
000000d0: 32f1 b4b6 6c6c b3b5 69bc b0b4 c9f1 9535
000000e0: 6124 a9b6 43b2 b1b5 e136 1b35 74ca 6836
000000f0: d274 39b4 37ef 4c36 144e 3f37 7740 c936
00000100: d82c 74b6 6d74 d7b6 11f4 4b37 b0d5 94b5
00000110: 9522 9433 a917 c037 c589 3cb5 a5d5 d837
00000120: f781 9834 4014 cfb5 db3f 0f36 f762 b936
00000130: b738 2835 9168 6037 3fc1 4035 9722 12b6
00000140: 7476 1bb6 d5a2 20b7 6037 fe36 4448 6736
00000150: 1336 5f34 99ee 6fb4 8aaa 30b6 d74e a435
00000160: 85a0 6b36 6d7e ae36 8ac3 9c36 14c8 4fb4
00000170: e251 2137 e301 5cb6 7503 a4b6 0249 4c37
00000180: 3866 ee36 a574 0737 5676 9137 30a9 1a36
00000190: ffc2 80b7 d3dc cab6 a394 5cb5 762f c836
000001a0: 334c 9134 d47a ec35 82b7 b6b5 0876 d2b5
000001b0: 4f43 79b6 83eb 0fb6 c613 3038 eb55 96b7
000001c0: aadd 0837 5f5e 18b5 ff08 7e37 a55a 9337
000001d0: 66d2 3db7 09c8 a135 6b59 82b3 9143 1037
000001e0: bc03 bfb3 27d3 b1b5 e8f3 6736 62f7 8334
000001f0: 2d1d 68b7 a7a6 50b5 45f2 82b6 5dd7 cc36
00000200: cfa0 e8b6 118e 1336 0baf 9335 01b0 03b5
00000210: b369 3637 95cf d836 c93d 21b6 2382 8f35
00000220: 4c85 09b6 37c7 81b6 0294 8b35 145f 2835
00000230: bd68 de35 c71e 7f35 5966 d236 7c8c d0b7
00000240: 66d3 68b4 0281 f133 3aa5 4d35 e77e d0b6
00000250: 7463 7a35 abde db36 e5df a0b7 6bf5 8cb7
00000260: 2769 3e34 4875 3236 430e 1cb5 675b 0bb7
00000270: 8862 0c36 9612 46b3 b64d dfb3 28ef 0634
00000280: a6bd 69b4 ed81 1d34 a90c 0436 0323 feb5
00000290: 2708 afb3 1377 9d36 08f6 c8b5 9551 23b6
000002a0: 83c7 be35 e7bb 5133 f2de d134 dc55 ae35
000002b0: 1dd7 45b7 48ef 9b36 ab55 cc35 a314 d7b4
000002c0: 7ce1 0e37 b52c a6b6 c077 cbb6 3a2a 7ab5
000002d0: 6cb9 efb3 ee6c 8935 2e02 abb6 1846 97b5
000002e0: c77c 9834 2c96 5636 2b50 33b4 a814 2e36
000002f0: c5ad 3237 e374 c336 8891 77b6 6a7a d0b6
00000300: 67f4 4c37 1088 98b5 54a1 5234 5c1b b437
00000310: 93cf f1b5 540c f137 3134 6e35 9ebe d9b5
00000320: 0dea 1336 2868 ad36 75ad 2f35 19af 7d37
00000330: 6433 1c35 8689 e5b5 c8e2 1ab6 2548 35b7
00000340: 6e85 f636 5cb8 6936 c3a2 02b3 082c cab4
00000350: d7e3 54b6 df9a 9935 8b68 5c36 bd25 9736
00000360: 3051 cf36 0152 b4b3 72ae 0637 b4da 61b6
00000370: 41de 79b6 6be8 3d37 172e ee36 1bec f736
00000380: 4472 ab37 746b 3136 69a9 96b7 73f3 8cb6
00000390: 9ac0 68b5 8963 8636 bd2e d434 e2e8 dd35
000003a0: 6ded 02b6 9ba7 c9b5 83ba 79b6 4377 15b6
000003b0: 6175 3238 d47d 8eb7 4a0d f536 c42e 81b5
000003c0: 42fb 7c37 f2aa 8537 8ce3 35b7 770e 8e35
000003d0: 5546 67b4 306c 2337 1a8b 26b5 f113 9bb5
000003e0: 0019 bb36 483c 8934 69cc 66b7 8a1d 49b5
000003f0: 9964 04b9 fc6a 6139 ac23 eab8 8885 3db9
-4.3162863e-06 7.0745527e-06 -7.376275e-06 1.7034449e-06 1.4301525e-06 -4.4325435e-07 1.0990392e-05 5.6331996e-06
-2.2543222e-06 1.7520033e-06 -1.7431106e-06 -3.0511187e-06 1.0174842e-06 1.9097533e-07 1.7833364e-06 9.680821e-07
6.313476e-06 -2.6844345e-05 -4.6428013e-07 1.3817055e-06 3.721083e-07 -5.9949402e-06 7.781573e-07 6.4087935e-06
-1.8208819e-05 -1.8625822e-05 -4.0579036e-07 2.6036375e-06 -6.227817e-07 -8.851342e-06 2.14773e-06 1.5907051e-07
9.2606946e-08 4.8463478e-09 3.8769667e-07 2.511746e-07 2.017466e-06 -2.523056e-06 -5.961802e-08 4.694392e-06
-1.5662939e-06 -2.4392048e-06 1.5323521e-06 5.1807888e-08 5.517663e-07 4.1068014e-07 -1.08902195e-05 4.094351e-06
1.8758445e-06 -1.5928096e-07 8.562501e-06 -3.8462144e-06 -5.392497e-06 -1.3368094e-06 -3.291964e-07 1.1171734e-06
-5.0408275e-06 -1.3239409e-06 5.782186e-07 3.4688537e-06 -1.7271967e-07 3.053761e-06 1.1402666e-05 5.9977715e-06
-3.6384936e-06 -6.421053e-06 1.2156569e-05 -1.108905e-06 6.8980775e-08 2.2899201e-05 -7.023594e-07 2.5848693e-05
2.8406768e-07 -1.5428595e-06 2.134583e-06 5.5249507e-06 6.266741e-07 1.3375787e-05 7.1806784e-07 -2.177583e-06
-2.3165749e-06 -9.574655e-06 7.5762364e-06 3.4463746e-06 2.0788166e-07 -2.2345411e-07 -2.632531e-06 1.2241898e-06
3.5111163e-06 5.200322e-06 4.671926e-06 -1.9351165e-07 9.615413e-06 -3.2783653e-06 -4.8879833e-06 1.2176346e-05
7.1048526e-06 8.0737855e-06 1.7340451e-05 2.3046268e-06 -1.5349591e-05 -6.0457764e-06 -8.217268e-07 5.9659897e-06
2.7063797e-07 1.7619118e-06 -1.3613464e-06 -1.5680571e-06 -3.714307e-06 -2.1445746e-06 4.1980085e-05 -1.7921402e-05
8.157842e-06 -5.676174e-07 1.5141674e-05 1.7565975e-05 -1.1314265e-05 1.2053653e-06 -6.069862e-08 8.5988e-06
-8.89481e-08 -1.3248981e-06 3.4563654e-06 2.4580646e-07 -1.3835071e-05 -7.772855e-07 -3.902506e-06 6.1047454e-06
-6.9328594e-06 2.19874e-06 1.1003298e-06 -4.905742e-07 1.0872655e-05 6.4614674e-06 -2.4026833e-06 1.0692205e-06
-2.049218e-06 -3.8676912e-06 1.0399383e-06 6.2723234e-07 1.6570772e-06 9.503969e-07 6.2704025e-06 -2.486095e-05
-2.168359e-07 1.12459034e-07 7.660889e-07 -6.2136564e-06 9.327698e-07 6.5526306e-06 -1.9177745e-05 -1.6803582e-05
1.7733383e-07 2.6592334e-06 -5.813528e-07 -8.306327e-06 2.0918978e-06 -4.611737e-08 -1.0398382e-07 1.2566727e-07
-2.176881e-07 1.4669031e-07 1.9676902e-06 -1.8934664e-06 -8.1505554e-08 4.6928267e-06 -1.4972766e-06 -2.433638e-06
1.4214169e-06 4.88325e-08 3.9091498e-07 1.2988999e-06 -1.17922e-05 4.647216e-06 1.5224117e-06 -4.0061886e-07
8.516359e-06 -4.95239e-06 -6.063812e-06 -9.3193705e-07 -1.1163033e-07 1.0238998e-06 -5.096451e-06 -1.1270777e-06
2.8402994e-07 3.1975896e-06 -1.6699839e-07 2.5940044e-06 1.0650086e-05 5.8250603e-06 -3.6890578e-06 -6.213134e-06
1.2216252e-05 -1.1364482e-06 1.9616465e-07 2.1470412e-05 -1.8016311e-06 2.873518e-05 8.873786e-07 -1.6223237e-06
2.2040942e-06 5.167927e-06 6.5444993e-07 1.5120743e-05 5.818931e-07 -1.7101854e-06 -2.3079792e-06 -1.0805238e-05
7.3469046e-06 3.4827017e-06 -3.0416015e-08 -3.765747e-07 -3.1723082e-06 1.1444462e-06 3.2843407e-06 4.504544e-06
6.178532e-06 -8.3968196e-08 8.027639e-06 -3.3654915e-06 -3.723326e-06 1.1319392e-05 7.0983183e-06 7.38866e-06
2.0437998e-05 2.6437601e-06 -1.7960281e-05 -4.2006664e-06 -8.6707007e-07 4.0050986e-06 3.9522084e-07 1.6533561e-06
-1.950971e-06 -1.5024447e-06 -3.7212455e-06 -2.227215e-06 4.2547825e-05 -1.6986312e-05 7.303116e-06 -9.62486e-07
1.5078871e-05 1.5934438e-05 -1.0841421e-05 1.0584034e-06 -2.1539138e-07 9.7407465e-06 -6.204224e-07 -1.1554204e-06
5.5759447e-06 2.55621e-07 -1.3756661e-05 -7.492132e-07 -0.00012625977 0.00021497527 -0.00011164634 -0.00018074189

exp_avg_sq f4 [504]
00000000: c755 182d 96ae 252f f089 ee2e d4ea 5e2c
00000010: 8109 6c2d d0c7 a72f 04d0 152d 623b 462d
00000020: 8e6e f72e 9cfc ce2c 9e6d 732b 53a1 752e
00000030: 421f ff2c 9e50 a52c e717 b22b 0c14 9b2b
00000040: 023a 442d ca3e 1a30 da08 842b 4c55 f82f
00000050: 2897 082c a889 ff2d 9010 f52b e80e 4b2d
00000060: 4389 252e 84a6 e92e 421f 722a 4c43 2f2c
00000070: d480 112b 3460 b12d 1ce7 212d b5b8 012b
00000080: 2517 5427 2a6a c72c 3de6 3d2f 3e25 2828
00000090: 1520 8f2c b892 602c 3a51 752c ebf1 ab2c
000000a0: d4b6 1f2b 3039 b12b 3d7a 2c2b f7c5 1028
000000b0: d721 d92b 6008 5c29 7626 1d2f eede 112e
000000c0: 7e84 562c ba32 622b 5e62 f92d fa75 462c
000000d0: 53d4 d22e 7ac1 a32d c90e 0d29 8b1f 2c2c
000000e0: 1d99 5e2e cd8b 212c 2254 6d2e ee64 cc2e
000000f0: 4a73 c32a f758 8a2b 1c0f 2d2f 9bd3 172d
00000100: bf7d 832e 3105 8f2d c2d9 b82e 8c86 c72a
00000110: 8b1c 402c a427 ef2d f9e7 2d2d f8ab 0e2f
00000120: a3b2 f029 1ab7 8e2b a9bb ab2b 6cd8 4c2d
00000130: 61c7 782a ee8b 712f 15f1 f52a 9ada 232c
00000140: fe4f 9c2c 38b8 1c2f b5e9 0a2e f1dc 162e
00000150: 8d0f 9f28 55a1 5228 e6cf 2b2c bb39 802b
00000160: 3ffe 2a2d 73b5 0f2d 0962 e32e 85d9 a32d
00000170: 0f1f ff2d 9f1d 2d2d 87b0 352d d8c3 322d
00000180: 0bd5 f72d bff6 ac2e b18b c62f 8ff0 b02d
00000190: 9139 212e 437c 842d 29c2 cd29 acf8 de2f
000001a0: aa8e f52d 3bc4 3d2c ffcb 172b ee07 cd2b
000001b0: f411 8b2c 1274 ca2a e499 102f cfbf bf2f
000001c0: 317e 972d f983 112b 8d2d df2e cf7c 7a2f
000001d0: 84df d72f 2d43 992b ac2a 172b f642 ad2d
000001e0: 9d77 6a2b 945d cf2b 7bbe e42c 09a0 322c
000001f0: f77c 4b2e 5e2b 322c ae43 182d e6c7 012f
00000200: 0dee da2e e277 782c 890d 6d2d 9b4b 912f
00000210: 414a 0e2d ed35 6f2d 1e1f db2e 4b1a 952c
00000220: ae1d 9f2b b6eb 852e 856d e62c 1a6f c12c
00000230: a4c0 8c2b 745a 942b ab83 402d 4fb4 1d30
00000240: 6e63 482b c32d ea2f 77e7 f82b 5a2d d92d
00000250: cd88 f82b 3752 492d 3ded 2d2e 76b4 ba2e
00000260: f240 ea29 be3f 382c d020 032b c02f 9f2d
00000270: f356 192d a8d1 0c2b ed30 3927 1349 a12c
00000280: 24a1 1e2f 48e1 7d28 006b 7c2c dd87 2e2c
00000290: 586f 722c edc9 c12c 5cbb 222b d58b b62b
000002a0: a797 182b 6147 1328 4e78 e62b 43df 352b
000002b0: 9787 3c2f 4d7e 392e 3730 332c fb64 842b
000002c0: ca22 012e 430e 942c 2047 dc2e 5b23 882d
000002d0: 28c7 5228 0811 3b2c 9aef 5c2e ec4e 112c
000002e0: b05b 902e a6df d02e fbc3 d42a e78e 462b
000002f0: bb51 242f 5a85 062d 0379 9c2e 3f59 e52d
00000300: 0d59 af2e ed76 d52a f18c 582c a557 d42d
00000310: a026 8d2d 9319 352f 0365 062a a40c a62b
00000320: 022d b42b a4a5 382d c810 822a c558 912f
00000330: 8b3f a32a 4a03 3e2c ee46 a82c bcc1 252f
00000340: cdcb 322e 4489 cb2d f5bf a928 ca3b f229
00000350: 1422 5a2c 413d 7a2b 464e 102d bb0a 3c2d
00000360: f04c 152f c1df a22d f501 c42d 45ee 1e2d
00000370: 658a 0d2d 9c50 182d 5538 072e 7b7e b02e
00000380: 2021 0830 4134 cc2d 65bc 702e bae9 6b2d
00000390: 08e1 dd29 9f72 ef2f 93ed c22d c6f4 562c
000003a0: a518 392b 6e23 b62b f77f b72c 2f89 eb2a
000003b0: 4a7f 102f 9e91 b82f 57a3 732d 7061 232b
000003c0: 3228 e82e 1271 452f 4b7d 0b30 bf88 9d2b
000003d0: 84ab 332b 7d1a eb2d c0e8 4e2b 2599 bb2b
000003e0: 107b 7f2d 9016 2c2c 7637 4b2e ff42 0c2c
000003f0: cc0a ad32 bf3f fb33 b963 c932 447a ab32
8.659246e-12 1.5068688e-10 1.08474896e-10 3.1678453e-12 1.3417157e-11 3.0519098e-10 8.515858e-12 1.1268183e-11
1.1251898e-10 5.8829174e-12 8.6483067e-13 5.5849835e-11 7.2510062e-12 4.6985324e-12 1.2654295e-12 1.1018977e-12
1.115419e-11 5.61141e-10 9.381621e-13 4.5171544e-10 1.941067e-12 2.9051275e-11 1.7412894e-12 1.1542524e-11
3.763857e-11 1.06251924e-10 2.1504762e-13 2.4906353e-12 5.1693133e-13 2.0165293e-11 9.203107e-12 4.608634e-13
2.9433457e-15 5.6677068e-12 1.7271247e-10 9.333949e-15 4.0678663e-12 3.191376e-12 3.4861684e-12 4.8869706e-12
5.674187e-13 1.2592479e-12 6.1276315e-13 8.0365326e-15 1.542817e-12 4.8857077e-14 1.4292731e-10 3.3167184e-11
3.0484777e-12 8.0361726e-13 2.8351706e-11 2.8202982e-12 9.587411e-11 1.8616875e-11 3.1321113e-14 2.446018e-12
5.0612948e-11 2.2957081e-12 5.3962286e-11 9.294775e-11 3.4718956e-13 9.830182e-13 1.5739626e-10 8.630342e-12
5.979527e-11 1.6259523e-11 8.406033e-11 3.5442862e-13 2.7300686e-12 2.7188758e-11 9.88542e-12 1.297592e-10
1.06891296e-13 1.0140528e-12 1.2202367e-12 1.1644113e-11 2.2095998e-13 2.1968535e-10 4.3688027e-13 2.3285041e-12
4.4426676e-12 1.4253565e-10 3.158514e-11 3.4302287e-11 1.765929e-14 1.1692325e-14 2.4415968e-12 9.11097e-13
9.719835e-12 8.168899e-12 1.03401794e-10 1.8627553e-11 2.9003936e-11 9.840489e-12 1.0327856e-11 1.0161615e-11
2.8175259e-11 7.865485e-11 3.6115247e-10 2.0115713e-11 3.665829e-11 1.5061846e-11 9.13751e-14 4.0558257e-10
2.791663e-11 2.6967445e-12 5.392908e-13 1.4568327e-12 3.952611e-12 3.5962948e-13 1.3151397e-10 3.4878986e-10
1.7222753e-11 5.1697497e-13 1.01489574e-10 2.2781708e-10 3.926709e-10 1.0889949e-12 5.3705196e-13 1.969756e-11
8.3299497e-13 1.4734208e-12 6.5012973e-12 2.5384159e-12 4.6267847e-11 2.5319395e-12 8.655228e-12 1.18035e-10
9.9557786e-11 3.5309468e-12 1.3474896e-11 2.6429067e-10 8.088253e-12 1.3597551e-11 9.9644945e-11 4.237754e-12
1.1305867e-12 6.0900104e-11 6.5491523e-12 5.4977247e-12 1.0001067e-12 1.0541138e-12 1.0943173e-11 5.73725e-10
7.119226e-13 4.2596868e-10 1.7685704e-12 2.4690184e-11 1.765943e-12 1.14437826e-11 3.9546356e-11 8.490357e-11
1.0402954e-13 2.6183357e-12 4.6586086e-13 1.8097412e-11 8.71635e-12 5.002895e-13 2.570043e-15 4.584008e-12
1.4427265e-10 1.4093171e-14 3.587075e-12 2.4802306e-12 3.4452077e-12 5.507808e-12 5.7813975e-13 1.2970689e-12
5.421171e-13 8.175617e-15 1.6375874e-12 6.4613955e-13 1.7146672e-10 4.2176308e-11 2.5464195e-12 9.407192e-13
2.9362103e-11 4.2079964e-12 1.0017076e-10 1.5477111e-11 1.1700527e-14 2.6583753e-12 5.0235018e-11 2.064955e-12
6.564649e-11 9.498473e-11 3.7794754e-13 7.054205e-13 1.494475e-10 7.646628e-12 7.115555e-11 2.6073919e-11
7.973897e-11 3.7918922e-13 3.0773684e-12 2.4140532e-11 1.6046997e-11 1.647094e-10 1.1936636e-13 1.1798518e-12
1.2802261e-12 1.0495969e-11 2.3104283e-13 2.643842e-10 2.8998708e-13 2.700245e-12 4.782722e-12 1.5075491e-10
4.0653526e-11 2.3139386e-11 1.8846017e-14 1.07573306e-13 3.099858e-12 8.890285e-13 8.2028325e-12 1.0688945e-11
1.3578805e-10 1.8516634e-11 2.228349e-11 9.034167e-12 8.045652e-12 8.6580985e-12 3.074548e-11 8.026021e-11
4.9523585e-10 2.321532e-11 5.473701e-11 1.3410101e-11 9.853408e-14 4.355529e-10 2.216075e-11 3.0547106e-12
6.5759404e-13 1.2941712e-12 5.2153798e-12 4.1839576e-13 1.3141946e-10 3.3572872e-10 1.38492195e-11 5.8044455e-13
1.0557279e-10 1.7957216e-10 5.074596e-10 1.1193476e-12 6.38316e-13 2.672817e-11 7.350891e-13 1.3329655e-12
1.4522397e-11 2.4455195e-12 4.6206115e-11 1.9932387e-12 2.014476e-08 1.1699694e-07 2.3444828e-08 1.996262e-08

exp_avg f4 [504]
00000000: 9ed4 90b6 f261 ed36 b881 f7b6 eca1 e435
00000010: aaf3 bf35 6af8 edb4 6063 3837 d104 bd36
00000020: f648 17b6 6026 eb35 d3f4 e9b5 d2c1 4cb6
00000030: 7e90 8835 e60e 4d34 f95a ef35 0cef 8135
00000040: 59d8 d336 cb2f e1b7 2d42 f9b4 0a73 b935
00000050: 2dc6 c734 2528 c9b6 90e2 5035 1e0b d736
00000060: 24bf 98b7 a63e 9cb7 67db d9b4 27ba 2e36
00000070: 3c2d 27b5 3980 14b7 b821 1036 f8cc 2a34
00000080: 35df c633 ed84 a631 a024 d034 2dd9 8634
00000090: cd63 0736 c651 29b6 5a07 80b3 8584 9d36
000000a0: 7339 d2b5 38b1 23b6 38ab cd35 6083 5e33
000000b0: 171d 1435 737b dc34 23b5 36b7 3562 8936
000000c0: 87c5 fb35 d106 2bb4 a9a7 0f37 bb0e 81b6
000000d0: 32f1 b4b6 6c6c b3b5 69bc b0b4 c9f1 9535
000000e0: 6124 a9b6 43b2 b1b5 e136 1b35 74ca 6836
000000f0: d274 39b4 37ef 4c36 144e 3f37 7740 c936
00000100: d82c 74b6 6d74 d7b6 11f4 4b37 b0d5 94b5
00000110: 9522 9433 a917 c037 c589 3cb5 a5d5 d837
00000120: f781 9834 4014 cfb5 db3f 0f36 f762 b936
00000130: b738 2835 9168 6037 3fc1 4035 9722 12b6
00000140: 7476 1bb6 d5a2 20b7 6037 fe36 4448 6736
00000150: 1336 5f34 99ee 6fb4 8aaa 30b6 d74e a435
00000160: 85a0 6b36 6d7e ae36 8ac3 9c36 14c8 4fb4
00000170: e251 2137 e301 5cb6 7503 a4b6 0249 4c37
00000180: 3866 ee36 a574 0737 5676 9137 30a9 1a36
00000190: ffc2 80b7 d3dc cab6 a394 5cb5 762f c836
000001a0: 334c 9134 d47a ec35 82b7 b6b5 0876 d2b5
000001b0: 4f43 79b6 83eb 0fb6 c613 3038 eb55 96b7
000001c0: aadd 0837 5f5e 18b5 ff08 7e37 a55a 9337
000001d0: 66d2 3db7 09c8 a135 6b59 82b3 9143 1037
000001e0: bc03 bfb3 27d3 b1b5 e8f3 6736 62f7 8334
000001f0: 2d1d 68b7 a7a6 50b5 45f2 82b6 5dd7 cc36
00000200: cfa0 e8b6 118e 1336 0baf 9335 01b0 03b5
00000210: b369 3637 95cf d836 c93d 21b6 2382 8f35
00000220: 4c85 09b6 37c7 81b6 0294 8b35 145f 2835
00000230: bd68 de35 c71e 7f35 5966 d236 7c8c d0b7
00000240: 66d3 68b4 0281 f133 3aa5 4d35 e77e d0b6
00000250: 7463 7a35 abde db36 e5df a0b7 6bf5 8cb7
00000260: 2769 3e34 4875 3236 430e 1cb5 675b 0bb7
00000270: 8862 0c36 9612 46b3 b64d dfb3 28ef 0634
00000280: a6bd 69b4 ed81 1d34 a90c 0436 0323 feb5
00000290: 2708 afb3 1377 9d36 08f6 c8b5 9551 23b6
000002a0: 83c7 be35 e7bb 5133 f2de d134 dc55 ae35
000002b0: 1dd7 45b7 48ef 9b36 ab55 cc35 a314 d7b4
000002c0: 7ce1 0e37 b52c a6b6 c077 cbb6 3a2a 7ab5
000002d0: 6cb9 efb3 ee6c 8935 2e02 abb6 1846 97b5
000002e0: c77c 9834 2c96 5636 2b50 33b4 a814 2e36
000002f0: c5ad 3237 e374 c336 8891 77b6 6a7a d0b6
00000300: 67f4 4c37 1088 98b5 54a1 5234 5c1b b437
00000310: 93cf f1b5 540c f137 3134 6e35 9ebe d9b5
00000320: 0dea 1336 2868 ad36 75ad 2f35 19af 7d37
00000330: 6433 1c35 8689 e5b5 c8e2 1ab6 2548 35b7
00000340: 6e85 f636 5cb8 6936 c3a2 02b3 082c cab4
00000350: d7e3 54b6 df9a 9935 8b68 5c36 bd25 9736
00000360: 3051 cf36 0152 b4b3 72ae 0637 b4da 61b6
00000370: 41de 79b6 6be8 3d37 172e ee36 1bec f736
00000380: 4472 ab37 746b 3136 69a9 96b7 73f3 8cb6
00000390: 9ac0 68b5 8963 8636 bd2e d434 e2e8 dd35
000003a0: 6ded 02b6 9ba7 c9b5 83ba 79b6 4377 15b6
000003b0: 6175 3238 d47d 8eb7 4a0d f536 c42e 81b5
000003c0: 42fb 7c37 f2aa 8537 8ce3 35b7 770e 8e35
000003d0: 5546 67b4 306c 2337 1a8b 26b5 f113 9bb5
000003e0: 0019 bb36 483c 8934 69cc 66b7 8a1d 49b5
000003f0: 9964 04b9 fc6a 6139 ac23 eab8 8885 3db9
-4.3162863e-06 7.0745527e-06 -7.376275e-06 1.7034449e-06 1.4301525e-06 -4.4325435e-07 1.0990392e-05 5.6331996e-06
-2.2543222e-06 1.7520033e-06 -1.7431106e-06 -3.0511187e-06 1.0174842e-06 1.9097533e-07 1.7833364e-06 9.680821e-07
6.313476e-06 -2.6844345e-05 -4.6428013e-07 1.3817055e-06 3.721083e-07 -5.9949402e-06 7.781573e-07 6.4087935e-06
-1.8208819e-05 -1.8625822e-05 -4.0579036e-07 2.6036375e-06 -6.227817e-07 -8.851342e-06 2.14773e-06 1.5907051e-07
9.2606946e-08 4.8463478e-09 3.8769667e-07 2.511746e-07 2.017466e-06 -2.523056e-06 -5.961802e-08 4.694392e-06
-1.5662939e-06 -2.4392048e-06 1.5323521e-06 5.1807888e-08 5.517663e-07 4.1068014e-07 -1.08902195e-05 4.094351e-06
1.8758445e-06 -1.5928096e-07 8.562501e-06 -3.8462144e-06 -5.392497e-06 -1.3368094e-06 -3.291964e-07 1.1171734e-06
-5.0408275e-06 -1.3239409e-06 5.782186e-07 3.4688537e-06 -1.7271967e-07 3.053761e-06 1.1402666e-05 5.9977715e-06
-3.6384936e-06 -6.421053e-06 1.2156569e-05 -1.108905e-06 6.8980775e-08 2.2899201e-05 -7.023594e-07 2.5848693e-05
2.8406768e-07 -1.5428595e-06 2.134583e-06 5.5249507e-06 6.266741e-07 1.3375787e-05 7.1806784e-07 -2.177583e-06
-2.3165749e-06 -9.574655e-06 7.5762364e-06 3.4463746e-06 2.0788166e-07 -2.2345411e-07 -2.632531e-06 1.2241898e-06
3.5111163e-06 5.200322e-06 4.671926e-06 -1.9351165e-07 9.615413e-06 -3.2783653e-06 -4.8879833e-06 1.2176346e-05
7.1048526e-06 8.0737855e-06 1.7340451e-05 2.3046268e-06 -1.5349591e-05 -6.0457764e-06 -8.217268e-07 5.9659897e-06
2.7063797e-07 1.7619118e-06 -1.3613464e-06 -1.5680571e-06 -3.714307e-06 -2.1445746e-06 4.1980085e-05 -1.7921402e-05
8.157842e-06 -5.676174e-07 1.5141674e-05 1.7565975e-05 -1.1314265e-05 1.2053653e-06 -6.069862e-08 8.5988e-06
-8.89481e-08 -1.3248981e-06 3.4563654e-06 2.4580646e-07 -1.3835071e-05 -7.772855e-07 -3.902506e-06 6.1047454e-06
-6.9328594e-06 2.19874e-06 1.1003298e-06 -4.905742e-07 1.0872655e-05 6.4614674e-06 -2.4026833e-06 1.0692205e-06
-2.049218e-06 -3.8676912e-06 1.0399383e-06 6.2723234e-07 1.6570772e-06 9.503969e-07 6.2704025e-06 -2.486095e-05
-2.168359e-07 1.12459034e-07 7.660889e-07 -6.2136564e-06 9.327698e-07 6.5526306e-06 -1.9177745e-05 -1.6803582e-05
1.7733383e-07 2.6592334e-06 -5.813528e-07 -8.306327e-06 2.0918978e-06 -4.611737e-08 -1.0398382e-07 1.2566727e-07
-2.176881e-07 1.4669031e-07 1.9676902e-06 -1.8934664e-06 -8.1505554e-08 4.6928267e-06 -1.4972766e-06 -2.433638e-06
1.4214169e-06 4.88325e-08 3.9091498e-07 1.2988999e-06 -1.17922e-05 4.647216e-06 1.5224117e-06 -4.0061886e-07
8.516359e-06 -4.95239e-06 -6.063812e-06 -9.3193705e-07 -1.1163033e-07 1.0238998e-06 -5.096451e-06 -1.1270777e-06
2.8402994e-07 3.1975896e-06 -1.6699839e-07 2.5940044e-06 1.0650086e-05 5.8250603e-06 -3.6890578e-06 -6.213134e-06
1.2216252e-05 -1.1364482e-06 1.9616465e-07 2.1470412e-05 -1.8016311e-06 2.873518e-05 8.873786e-07 -1.6223237e-06
2.2040942e-06 5.167927e-06 6.5444993e-07 1.5120743e-05 5.818931e-07 -1.7101854e-06 -2.3079792e-06 -1.0805238e-05
7.3469046e-06 3.4827017e-06 -3.0416015e-08 -3.765747e-07 -3.1723082e-06 1.1444462e-06 3.2843407e-06 4.504544e-06
6.178532e-06 -8.3968196e-08 8.027639e-06 -3.3654915e-06 -3.723326e-06 1.1319392e-05 7.0983183e-06 7.38866e-06
2.0437998e-05 2.6437601e-06 -1.7960281e-05 -4.2006664e-06 -8.6707007e-07 4.0050986e-06 3.9522084e-07 1.6533561e-06
-1.950971e-06 -1.5024447e-06 -3.7212455e-06 -2.227215e-06 4.2547825e-05 -1.6986312e-05 7.303116e-06 -9.62486e-07
1.5078871e-05 1.5934438e-05 -1.0841421e-05 1.0584034e-06 -2.1539138e-07 9.7407465e-06 -6.204224e-07 -1.1554204e-06
5.5759447e-06 2.55621e-07 -1.3756661e-05 -7.492132e-07 -0.00012625977 0.00021497527 -0.00011164634 -0.00018074189
