models/optweezer/38fr67vz/checkpoints/epoch=0-step=46.ckpt (torch, 789231 bytes, 18 tensors)

exp_avg f4 [504, 1]
0	0xb6709960	-3.5852063e-06
1	0x335d3c05	5.151016e-08
2	0xb43d44ef	-1.7627075e-07
3	0xb4f318d2	-4.5280336e-07
4	0x35a90e63	1.2595668e-06
5	0xb125e750	-2.4142146e-09
6	0x306d07e6	8.623132e-10
7	0x34cae1a7	3.7789616e-07
8	0x3475f139	2.290516e-07
9	0xb69bef49	-4.6472164e-06
10	0x32864ad6	1.5633685e-08
11	0x301ffbd2	5.820172e-10
12	0xb229f99c	-9.893849e-09
13	0x310781a3	1.9718776e-09
14	0xb3adf61b	-8.1007066e-08
15	0xb5cae9ba	-1.5118196e-06
16	0xb3626915	-5.2715297e-08
17	0x31d2c170	6.1337957e-09
18	0xb31f2147	-3.7050338e-08
19	0xb33aae47	-4.3465004e-08
20	0x33610a6d	5.2396377e-08
21	0xb531c166	-6.621907e-07
22	0xb4b2dd1c	-3.3315962e-07
23	0xb421a93f	-1.5055865e-07
24	0xb53216ba	-6.634324e-07
25	0xb50b7235	-5.194773e-07
26	0x31161553	2.1839994e-09
27	0xb1c92b37	-5.854783e-09
28	0x356b562c	8.766972e-07
29	0xb4ebd199	-4.3924663e-07
30	0x318e184e	4.135507e-09
31	0x34342a7b	1.677926e-07
32	0x30a027d7	1.1652855e-09
33	0x32236128	9.5099395e-09
34	0x35d32591	1.5731658e-06
35	0xb520e578	-5.9938566e-07
36	0xb5ad0855	-1.2891929e-06
37	0x2e957fac	6.7984146e-11
38	0xb32d4831	-4.034536e-08
39	0x3317a760	3.5309654e-08
40	0x334f3e22	4.8252453e-08
41	0x34a149d7	3.0042312e-07
42	0xb4b5cc76	-3.3862642e-07
43	0xb1d7cc2a	-6.2805343e-09
44	0xae9d4164	-7.151149e-11
45	0xb30bad22	-3.2520923e-08
46	0xb34004fc	-4.4708017e-08
47	0xb5a70fdf	-1.2447089e-06
48	0xb49bcf04	-2.9021624e-07
49	0xb2711df0	-1.4034853e-08
50	0x311f388d	2.316969e-09
51	0x3489dcf3	2.5679e-07
52	0x2e362094	4.1410944e-11
53	0xb141ee80	-2.8220768e-09
54	0xb5371a6f	-6.821128e-07
55	0xb39f31a5	-7.413045e-08
56	0xb2f9f6ee	-2.9099706e-08
57	0xb37a54b0	-5.8284684e-08
58	0x331ffb30	3.7248526e-08
59	0xb580ecdc	-9.605678e-07
60	0xb4a3f3ab	-3.0538408e-07
61	0xb0d7139e	-1.5648884e-09
62	0x33a26621	7.56229e-08
63	0xb2f71419	-2.8763724e-08
64	0xb08cddc1	-1.0249367e-09
65	0xae16c996	-3.4285096e-11
66	0x32b55c00	2.111301e-08
67	0xb241ef13	-1.1288438e-08
68	0xb262319a	-1.31662095e-08
69	0xb5c775e5	-1.4860967e-06
70	0x2e10a41a	3.288756e-11
71	0xaf9ac88e	-2.815494e-10
72	0x3294b42f	1.7311406e-08
73	0x338f44ca	6.671469e-08
74	0xb1525167	-3.0605294e-09
75	0x334a5eb9	4.711794e-08
76	0xb3f21c3c	-1.1274139e-07
77	0x33ab31d0	7.971869e-08
78	0xb6c8efa7	-5.9883637e-06
79	0xb5db51bb	-1.6340558e-06
80	0x34b1c939	3.3115228e-07
81	0xb4a2bb1e	-3.0310997e-07
82	0x3548f0f5	7.4856445e-07
83	0x3457197e	2.003271e-07
84	0xb2976b7b	-1.762759e-08
85	0xb4cf29dc	-3.858721e-07
86	0xb5543f51	-7.906829e-07
87	0xb4ac6a50	-3.211485e-07
88	0x367b830d	3.7478196e-06
89	0xb4e486a2	-4.2566268e-07
90	0xb6132ca9	-2.1930703e-06
91	0xb4296688	-1.5776652e-07
92	0xb400c0ca	-1.1991065e-07
93	0x340ffcd2	1.3409888e-07
94	0xb33ab602	-4.3472035e-08
95	0xb2751cd3	-1.4267431e-08
96	0xb591926f	-1.084596e-06
97	0xb1508f84	-3.0349563e-09
98	0x33a68305	7.75381e-08
99	0xb5362d4d	-6.7866205e-07
100	0xb11d9940	-2.293362e-09
101	0x33b3c867	8.37179e-08
102	0xb6349016	-2.690596e-06
103	0xb5a98b8b	-1.2632094e-06
104	0xb69283f7	-4.366502e-06
105	0x33db9cf4	1.0226532e-07
106	0xb46231c8	-2.1066e-07
107	0xaab2a385	-3.1732616e-13
108	0xb6a24dd2	-4.8370357e-06
109	0xb47ebb2a	-2.3723683e-07
110	0x32c482b4	2.287684e-08
111	0xb36129df	-5.2424976e-08
112	0x341bd1ec	1.4511869e-07
113	0x332d9210	4.0412544e-08
114	0xb5f6724b	-1.8361692e-06
115	0x33af4486	8.161537e-08
116	0xb6406b52	-2.8672698e-06
117	0x3249d521	1.17482e-08
118	0xb48f1779	-2.6652904e-07
119	0xb1f5ca72	-7.153454e-09
120	0x338c5f38	6.536578e-08
121	0xb1420dd1	-2.823857e-09
122	0x348b2071	2.5914372e-07
123	0xb3f6cfd3	-1.1493071e-07
124	0xb18aa043	-4.0345483e-09
125	0x3237e04c	1.0703001e-08
126	0xb52bf3bc	-6.4057144e-07
127	0x3228b978	9.821058e-09
128	0xb3238678	-3.8073694e-08
129	0xb48585ed	-2.4870624e-07
130	0x366a0d65	3.4876514e-06
131	0xb229b259	-9.877646e-09
132	0x318409b2	3.842808e-09
133	0x34d62921	3.989053e-07
134	0x349ec70b	2.9574616e-07
135	0xb5e53391	-1.7076837e-06
136	0x3352b8ec	4.906262e-08
137	0x3120307f	2.3310631e-09
138	0xb10206ef	-1.892143e-09
139	0x2fb6f2d8	3.3278158e-10
140	0xb3397501	-4.3180084e-08
141	0xb5d34416	-1.5740541e-06
142	0xb2a371c4	-1.9027432e-08
143	0x30fb145a	1.8268438e-09
144	0xb21cc4d3	-9.125148e-09
145	0xb1dc9016	-6.4192234e-09
146	0x34b20678	3.315979e-07
147	0xb446374e	-1.8460307e-07
148	0xb40b61cf	-1.2980966e-07
149	0xb4a49859	-3.0658228e-07
150	0xb58c67e2	-1.0461047e-06
151	0xb42caf8e	-1.6082615e-07
152	0x31ec0bd8	6.8698505e-09
153	0xb2ff487d	-2.9718871e-08
154	0x349d28d5	2.9273238e-07
155	0xb4408ab3	-1.7931852e-07
156	0x30cd74bd	1.4948892e-09
157	0x33325171	4.1517925e-08
158	0xb040baa8	-7.011445e-10
159	0x31073730	1.9676456e-09
160	0x363e0e6b	2.8320599e-06
161	0xb392c0e4	-6.8337414e-08
162	0xb55a6e46	-8.13718e-07
163	0x2fb3dc4c	3.271644e-10
164	0xb1eb9994	-6.85686e-09
165	0x32a85b88	1.9599398e-08
166	0x3212b0fb	8.538559e-09
167	0x3417c0e5	1.4133145e-07
168	0xb4c1a776	-3.6070895e-07
169	0x30efa3b4	1.7436066e-09
170	0xafb49739	-3.284926e-10
171	0xb253ebaa	-1.23354e-08
172	0xb44b85e4	-1.8954557e-07
173	0xb466e480	-2.1503547e-07
174	0xb386b3b6	-6.2725505e-08
175	0xb3565087	-4.9898997e-08
176	0x2ff49cfb	4.4494883e-10
177	0x339c4319	7.276521e-08
178	0x2f5f1528	2.0289248e-10
179	0xb0976dec	-1.1017938e-09
180	0xb557d930	-8.040979e-07
181	0xb2ba4ef8	-2.168916e-08
182	0xb1e06f76	-6.5319297e-09
183	0xb2832509	-1.5267249e-08
184	0x3236a041	1.0630232e-08
185	0xb480800a	-2.393502e-07
186	0xb41a33ba	-1.4361186e-07
187	0xb03610ba	-6.6234984e-10
188	0x32b3203f	2.0853006e-08
189	0xb20b6467	-8.113694e-09
190	0xb1991ee6	-4.456399e-09
191	0xaf453f19	-1.7939462e-10
192	0x318be7ee	4.0718e-09
193	0xb17e0ef1	-3.6970358e-09
194	0xb1341074	-2.62028e-09
195	0xb56eece4	-8.900663e-07
196	0x2f29ffa0	1.5461277e-10
197	0xb0efc338	-1.7445023e-09
198	0x316a77a9	3.41195e-09
199	0x327aec68	1.4605668e-08
200	0xb220ff97	-9.37134e-09
201	0x3231f5ad	1.0358616e-08
202	0xb330695b	-4.1074014e-08
203	0x345e3c5a	2.0697317e-07
204	0xb62ae4d0	-2.546516e-06
205	0xb52d6a7f	-6.4602494e-07
206	0x3598a001	1.137145e-06
207	0xb4322d87	-1.6594105e-07
208	0x34677079	2.1554469e-07
209	0x3386c0f3	6.2749585e-08
210	0xb37f5f31	-5.945839e-08
211	0xb3b48ad9	-8.4071594e-08
212	0xb5382f0b	-6.86138e-07
213	0xb3d71dc3	-1.0017131e-07
214	0x35d9471b	1.6188454e-06
215	0xb40dea56	-1.3216899e-07
216	0xb54802d8	-7.4509944e-07
217	0xb3f9165e	-1.15990346e-07
218	0xb2dd20de	-2.5742732e-08
219	0x33a32a00	7.597919e-08
220	0xb304b252	-3.0895826e-08
221	0xb1122d45	-2.127153e-09
222	0xb505b17f	-4.980465e-07
223	0xb254d7c2	-1.2389082e-08
224	0x344b8f3c	1.8957957e-07
225	0xb4940f5a	-2.7578318e-07
226	0xb2243c43	-9.559758e-09
227	0x342f3957	1.6319005e-07
228	0xb5bdc289	-1.4138215e-06
229	0xb4d6871c	-3.995891e-07
230	0xb6866991	-4.0058007e-06
231	0x328e7c5e	1.6587531e-08
232	0xb5583527	-8.054362e-07
233	0xac34c0bd	-2.568653e-12
234	0xb6233ce2	-2.4324331e-06
235	0xb38e108f	-6.615402e-08
236	0x3375ccf1	5.72299e-08
237	0xb387df57	-6.327053e-08
238	0x3351ee92	4.8878583e-08
239	0x31c17bcf	5.6311147e-09
240	0xb4f36ff1	-4.5343725e-07
241	0x349e17e5	2.944718e-07
242	0xb59b8554	-1.1587204e-06
243	0x314583aa	2.8742115e-09
244	0xb3a5f546	-7.728026e-08
245	0xb1f03cb1	-6.991819e-09
246	0x327a0c2a	1.4554681e-08
247	0x31586332	3.1488523e-09
248	0x33afaf81	8.1809965e-08
249	0xb3245673	-3.826285e-08
250	0xb1130a6d	-2.1397242e-09
251	0xb2bb2075	-2.1784425e-08
252	0xb5d41321	-1.5800798e-06
253	0xb447c9ee	-1.8606781e-07
254	0x3492ad53	2.732073e-07
255	0x35a6f9ef	1.2440704e-06

exp_avg_sq f4 [504, 1]
0	0x311bbe17	2.2663522e-09
1	0x2f59a405	1.9794306e-10
2	0x2d8d9e4c	1.6100142e-11
3	0x2fba3b89	3.3875505e-10
4	0x301135a5	5.2826926e-10
5	0x2ff98be1	4.5392226e-10
6	0x2cad93ee	4.9333792e-12
7	0x2d5a538f	1.2410419e-11
8	0x2d32dedc	1.0167613e-11
9	0x308cbce3	1.0240025e-09
10	0x3031deaf	6.470868e-10
11	0x2c836296	3.734189e-12
12	0x2ce62361	6.540921e-12
13	0x2cacb5ad	4.908704e-12
14	0x2de2c3ba	2.5780145e-11
15	0x309a2eff	1.1218332e-09
16	0x2ec9e967	9.181882e-11
17	0x2d04d2b1	7.550114e-12
18	0x2d2ad448	9.710517e-12
19	0x308f4840	1.0425154e-09
20	0x30f1d467	1.7595426e-09
21	0x30828c86	9.498684e-10
22	0x2d3d8697	1.0773291e-11
23	0x2cfa0f21	7.107107e-12
24	0x2e280e2e	3.821137e-11
25	0x2d9536d1	1.6963682e-11
26	0x2e374ed9	4.1679413e-11
27	0x2f57ebf2	1.9637961e-10
28	0x3109d597	2.0057536e-09
29	0x2ff3eaa8	4.4368176e-10
30	0x2d97c9d2	1.7256339e-11
31	0x2f86e079	2.4533955e-10
32	0x2e1f5bdd	3.6234005e-11
33	0x2eeafbb3	1.0685799e-10
34	0x30a7129b	1.2156137e-09
35	0x3040b455	7.010546e-10
36	0x2fa8604a	3.062744e-10
37	0x2d10f6c4	8.240245e-12
38	0x2e80050f	5.821665e-11
39	0x2d736e30	1.3837417e-11
40	0x2dc84638	2.2768551e-11
41	0x2d72f7a9	1.3811099e-11
42	0x2d5a2cb5	1.2401792e-11
43	0x30f901e6	1.8117674e-09
44	0x2d2af2e4	9.717314e-12
45	0x30826535	9.48751e-10
46	0x309f0dd1	1.15727e-09
47	0x311d48a9	2.288781e-09
48	0x2f3a89a5	1.6965503e-10
49	0x2db043d5	2.0039007e-11
50	0x2c99bcca	4.3694813e-12
51	0x2e96e538	6.861928e-11
52	0x2c498a3c	2.8640553e-12
53	0x2dafde84	1.9994013e-11
54	0x2f12cc8a	1.335129e-10
55	0x2faf03ca	3.1835007e-10
56	0x2e39be32	4.2233057e-11
57	0x2c96a691	4.281749e-12
58	0x2ec5b4b6	8.9906235e-11
59	0x2f9f0f5a	2.893284e-10
60	0x2f0a5864	1.258243e-10
61	0x2bef70d5	1.7013289e-12
62	0x2cc70ea6	5.6575465e-12
63	0x2e2d6e88	3.9433817e-11
64	0x2bc00b92	1.3645632e-12
65	0x2d1e6d8e	9.005586e-12
66	0x2e2e50ae	3.9634677e-11
67	0x2f2618ce	1.5106424e-10
68	0x2bbb2490	1.3297297e-12
69	0x3054e5df	7.7451817e-10
70	0x2cc690eb	5.6435876e-12
71	0x2edcc7e8	1.0039952e-10
72	0x2d7c274c	1.4333267e-11
73	0x2e6fb035	5.449881e-11
74	0x2c589ffa	3.078425e-12
75	0x2fb35950	3.262337e-10
76	0x2d7be455	1.4318398e-11
77	0x2f918b20	2.64742e-10
78	0x305ca53f	8.027036e-10
79	0x2fe2087b	4.1115186e-10
80	0x30180b7d	5.5313604e-10
81	0x2e36b448	4.154213e-11
82	0x30b55598	1.319381e-09
83	0x2d948697	1.6885422e-11
84	0x2dd4a923	2.4176721e-11
85	0x2eac3a86	7.83205e-11
86	0x2e316dbb	4.03426e-11
87	0x2f1587b2	1.359968e-10
88	0x3013faa4	5.383447e-10
89	0x2e825486	5.92673e-11
90	0x3006e71b	4.9077337e-10
91	0x2e50a680	4.7441606e-11
92	0x2ee19cb1	1.02596494e-10
93	0x2c3803e6	2.6150137e-12
94	0x2e2a6fd2	3.875284e-11
95	0x2e261719	3.7764545e-11
96	0x305dc98c	8.0685747e-10
97	0x2ca561ca	4.700439e-12
98	0x2d178301	8.612445e-12
99	0x2fd86744	3.9363546e-10
100	0x2cfc4d20	7.1708334e-12
101	0x2d812ba1	1.4684977e-11
102	0x300d1682	5.1327487e-10
103	0x30fcdef0	1.8398776e-09
104	0x3047b31a	7.2650297e-10
105	0x2ee3ebdf	1.0364664e-10
106	0x2edd98c8	1.0077056e-10
107	0x2df000dc	2.7285223e-11
108	0x2f21fb84	1.4732221e-10
109	0x2fb49801	3.2849815e-10
110	0x2ee47853	1.03896135e-10
111	0x2d150708	8.471231e-12
112	0x2e17a102	3.447643e-11
113	0x2d5301df	1.1994377e-11
114	0x312c6c65	2.509091e-09
115	0x3033622a	6.525932e-10
116	0x31817cd2	3.7685846e-09
117	0x2b7d49fa	8.998632e-13
118	0x2c9a9b97	4.394217e-12
119	0x2e31945c	4.037691e-11
120	0x2f2ab933	1.5527206e-10
121	0x2ff13efb	4.3882395e-10
122	0x2f067653	1.2229266e-10
123	0x2e1b18de	3.5265006e-11
124	0x2cdf405b	6.345186e-12
125	0x2dc8bf13	2.2822222e-11
126	0x300c1ee9	5.097563e-10
127	0x2e28748f	3.8302302e-11
128	0x2c68a498	3.306055e-12
129	0x30e9d0fa	1.7012376e-09
130	0x3098ded1	1.1122784e-09
131	0x306f0b67	8.6963897e-10
132	0x2d93720c	1.6762612e-11
133	0x2d915a8f	1.6524808e-11
134	0x2d2b6d6a	9.744519e-12
135	0x2ffb773b	4.5741352e-10
136	0x3089e470	1.0032988e-09
137	0x2cdc5af4	6.262874e-12
138	0x2bf61ae7	1.7486818e-12
139	0x2b3ed769	6.78005e-13
140	0x2e1044d9	3.280296e-11
141	0x30d847dc	1.5736492e-09
142	0x2f217170	1.4683166e-10
143	0x2bdeff2b	1.5844872e-12
144	0x2c61d1ae	3.2090819e-12
145	0x2fa28403	2.9561428e-10
146	0x31620e17	3.2895338e-09
147	0x309b2e6d	1.1290929e-09
148	0x2c2c598d	2.449238e-12
149	0x2d776afb	1.4064079e-11
150	0x2e44a1bf	4.47089e-11
151	0x2c984ee1	4.328857e-12
152	0x2f10e079	1.3176472e-10
153	0x301b144e	5.6417526e-10
154	0x306bdad5	8.580348e-10
155	0x2fcd307a	3.7323727e-10
156	0x2cd6f633	6.1095794e-12
157	0x2e8a4988	6.288575e-11
158	0x2dc65ae3	2.2550356e-11
159	0x2dc904f1	2.2853249e-11
160	0x312bdd1f	2.5009468e-09
161	0x2ec229fa	8.829555e-11
162	0x2fb1c505	3.2336103e-10
163	0x2d83cdb2	1.4984323e-11
164	0x2d53e8f7	1.204569e-11
165	0x2dc556cd	2.2434854e-11
166	0x2d235b15	9.2857015e-12
167	0x2d4b1517	1.1543897e-11
168	0x2d95b416	1.7019313e-11
169	0x30dbf0cb	1.6002785e-09
170	0x2d89af34	1.5652903e-11
171	0x30785218	9.0338537e-10
172	0x30c89c2b	1.4596301e-09
173	0x2fec79e1	4.301475e-10
174	0x2ec7dab4	9.088322e-11
175	0x2e130d00	3.3435477e-11
176	0x2b9ea580	1.1272511e-12
177	0x2dbba5c3	2.1333052e-11
178	0x2cc175c4	5.4984645e-12
179	0x2d8a3c14	1.5715464e-11
180	0x3002024b	4.7296983e-10
181	0x2f8acd82	2.5248076e-10
182	0x2debdc2a	2.681418e-11
183	0x2c6cbec9	3.3643524e-12
184	0x2e67faa6	5.274594e-11
185	0x2f1cbb81	1.4254732e-10
186	0x2f0781b4	1.2324258e-10
187	0x2b3cd749	6.7089785e-13
188	0x2c3231f4	2.532305e-12
189	0x2db7d819	2.0900658e-11
190	0x2ca5e291	4.714736e-12
191	0x2d7f596c	1.45149275e-11
192	0x2d156ae1	8.493401e-12
193	0x2e0a5b05	3.145841e-11
194	0x2b3b1fe6	6.6480014e-13
195	0x30455d14	7.1800454e-10
196	0x2d39fe00	1.0572432e-11
197	0x2f47d88f	1.8175882e-10
198	0x2ca12e70	4.581051e-12
199	0x2d425633	1.1046763e-11
200	0x2cabe7e7	4.8858586e-12
201	0x2f2316af	1.4832822e-10
202	0x2d351682	1.02936566e-11
203	0x2f9535e7	2.7141242e-10
204	0x2fe7a7f4	4.2137993e-10
205	0x2f9d5490	2.861822e-10
206	0x307993e9	9.0795865e-10
207	0x2e11e7c0	3.317502e-11
208	0x3026f00a	6.0731564e-10
209	0x2d07ea41	7.725876e-12
210	0x2e8ee61c	6.498288e-11
211	0x2dae0469	1.9783468e-11
212	0x2d9954ce	1.7431747e-11
213	0x2f09f10c	1.2545714e-10
214	0x2f88218b	2.476209e-10
215	0x2e2db7e1	3.9498963e-11
216	0x2f208364	1.4598595e-10
217	0x2e8f8705	6.5268714e-11
218	0x2e20ceeb	3.6563568e-11
219	0x2c0c8f29	1.9974666e-12
220	0x2e7ed931	5.794582e-11
221	0x2d852726	1.5137735e-11
222	0x3049d7b6	7.342992e-10
223	0x2d49bf29	1.1467973e-11
224	0x2e4928cf	4.5738354e-11
225	0x2f889f52	2.485146e-10
226	0x2cec23b1	6.711486e-12
227	0x2d9b6874	1.7667846e-11
228	0x2fbbc44e	3.4154585e-10
229	0x3064573c	8.3069884e-10
230	0x303ea938	6.936207e-10
231	0x2e53808b	4.8090015e-11
232	0x2f7fa7cd	2.325173e-10
233	0x2ec03a8a	8.741548e-11
234	0x2e57f614	4.91039e-11
235	0x2f37c318	1.6713064e-10
236	0x2e77c401	5.6335384e-11
237	0x2d35b1db	1.0328151e-11
238	0x2d6271fc	1.2871922e-11
239	0x2bc6bef3	1.4121745e-12
240	0x301ea44a	5.7713534e-10
241	0x305762b1	7.8356793e-10
242	0x313db947	2.7608438e-09
243	0x2a783a49	2.2047047e-13
244	0x2c227001	2.308376e-12
245	0x2e875522	6.154212e-11
246	0x2e706e61	5.466772e-11
247	0x2f085725	1.2400088e-10
248	0x2f075719	1.2309122e-10
249	0x2d45fefe	1.1254773e-11
250	0x2ce3d0e3	6.474919e-12
251	0x2dd2b6e3	2.3955454e-11
252	0x3127e5f6	2.4432416e-09
253	0x308ccd1b	1.0244635e-09
254	0x2f441080	1.7831958e-10
255	0x30014a42	4.7035453e-10

exp_avg f4 [504, 126]
0	0x358255af	9.710692e-07
1	0xb4800d12	-2.3851368e-07
2	0xb5967589	-1.1210078e-06
3	0xb62d64d9	-2.583771e-06
4	0x3700fe4c	7.688603e-06
5	0x36925fe6	4.362303e-06
6	0xb807ab23	-3.234589e-05
7	0xb70301be	-7.808614e-06
8	0xb710a5d3	-8.621678e-06
9	0x363cd23c	2.8136556e-06
10	0x37306b3e	1.0515387e-05
11	0xb7fbf7ba	-3.0036888e-05
12	0xb36531cd	-5.336351e-08
13	0xb34550a2	-4.5940972e-08
14	0x352716b6	6.2245397e-07
15	0x36c575de	5.884779e-06
16	0xb4881521	-2.5347347e-07
17	0xb44e02c6	-1.9186254e-07
18	0xb4e201cd	-4.209709e-07
19	0x35b407a5	1.341327e-06
20	0x37a03cf1	1.9101864e-05
21	0x359d5ac5	1.1723829e-06
22	0xb6113556	-2.163773e-06
23	0xb71970ea	-9.1458005e-06
24	0xb797620f	-1.8046265e-05
25	0xb5f0885d	-1.792108e-06
26	0x365ff6c7	3.3373233e-06
27	0x36ae9752	5.20322e-06
28	0x3618673f	2.2709862e-06
29	0x359017ca	1.073576e-06
30	0x343d85e4	1.7650706e-07
31	0xb4af78d8	-3.2684216e-07
32	0xb43be492	-1.7498886e-07
33	0xb41eaa72	-1.4776904e-07
34	0x37346b66	1.0753842e-05
35	0x34bed284	3.5543428e-07
36	0x366ad126	3.4990458e-06
37	0xb81da0d4	-3.75815e-05
38	0x3420ff3e	1.4994018e-07
39	0xb5e55967	-1.7087849e-06
40	0xb4bb6592	-3.4905366e-07
41	0xb5ede802	-1.7725399e-06
42	0xb6a7c50b	-4.9999267e-06
43	0x373223a5	1.0617926e-05
44	0xb817fc5c	-3.6236233e-05
45	0x3586bdce	1.0039018e-06
46	0x36ee8459	7.10836e-06
47	0x3580ef15	9.606325e-07
48	0x3519e5ea	5.733151e-07
49	0xb7a0967b	-1.914356e-05
50	0xb285b499	-1.5565364e-08
51	0x350e7d54	5.30815e-07
52	0xb80a6fa3	-3.3005734e-05
53	0xb4d6f3dc	-4.0038037e-07
54	0xb689042b	-4.0834034e-06
55	0xb4d16b10	-3.9007182e-07
56	0x33f95b53	1.1611578e-07
57	0xb43c4544	-1.7534063e-07
58	0xb3afde7a	-8.189541e-08
59	0x359fc8f7	1.1904912e-06
60	0x359ac430	1.1530992e-06
61	0xb3a91d81	-7.8750425e-08
62	0xb49ec568	-2.9573425e-07
63	0xb4755807	-2.2849427e-07
64	0xb75efa96	-1.3290575e-05
65	0xb7e41ddb	-2.719362e-05
66	0xb4018f68	-1.2066232e-07
67	0x33203434	3.730038e-08
68	0xb45ef825	-2.0765636e-07
69	0x367c58b4	3.7602558e-06
70	0xb8233da6	-3.8919643e-05
71	0x36f069c8	7.164872e-06
72	0x33d26c6b	9.798608e-08
73	0xb480373a	-2.388204e-07
74	0xb76d39f1	-1.4139791e-05
75	0xb42671c1	-1.5501338e-07
76	0xb61f7465	-2.3760597e-06
77	0x3656b1f9	3.1992079e-06
78	0x368c0daa	4.173916e-06
79	0x360c2e4d	2.0888576e-06
80	0x36b5d32d	5.4188044e-06
81	0xb67bd7d9	-3.7527554e-06
82	0x35e6fe43	1.7210335e-06
83	0xb58b02dd	-1.035714e-06
84	0x36bbf728	5.601807e-06
85	0x34ad6313	3.2295847e-07
86	0xb733d018	-1.0717682e-05
87	0xb597d53b	-1.1312435e-06
88	0x3696f4c3	4.4988424e-06
89	0xb55986fb	-8.103522e-07
90	0x36335c68	2.6726866e-06
91	0x35724d89	9.0264854e-07
92	0x34939bd1	2.7494255e-07
93	0xb5c15e30	-1.4407033e-06
94	0x352b3e53	6.379316e-07
95	0x338e6f51	6.6326386e-08
96	0x360cc979	2.0978898e-06
97	0xb75f0812	-1.3293715e-05
98	0xb651ab17	-3.1243014e-06
99	0x363c3914	2.8047407e-06
100	0xb79e550e	-1.8874674e-05
101	0xb781e2d2	-1.548362e-05
102	0x365bbd0e	3.2743587e-06
103	0x35a4cbfd	1.2278321e-06
104	0x36badf4b	5.5692267e-06
105	0xb42f79aa	-1.6342406e-07
106	0x3732c191	1.0654695e-05
107	0x36bc32eb	5.6087642e-06
108	0x36388bde	2.749955e-06
109	0x356366bd	8.4713594e-07
110	0x3673f31c	3.635133e-06
111	0xb6fb2549	-7.4847235e-06
112	0xb682fba1	-3.9035954e-06
113	0xb39da837	-7.34148e-08
114	0x35f6e34d	1.8394582e-06
115	0x375e87cd	1.326385e-05
116	0x366a8789	3.494761e-06
117	0xb36f9939	-5.578588e-08
118	0xb5237606	-6.089398e-07
119	0x359dec1a	1.1766126e-06
120	0xb3e1e61e	-1.0519237e-07
121	0x3536554c	6.7924407e-07
122	0xb5882531	-1.0143614e-06
123	0xb50c926d	-5.236714e-07
124	0xb6910e1e	-4.32298e-06
125	0xb71690a2	-8.974372e-06
126	0xb0aaa7b7	-1.2416795e-09
127	0x2f996e4b	2.7908906e-10
128	0x30aaf16a	1.2437742e-09
129	0x3129cc04	2.4708706e-09
130	0xb1f20415	-7.043591e-09
131	0xb1942c83	-4.3124273e-09
132	0x32e09b54	2.6147667e-08
133	0x31b7e1e0	5.35168e-09
134	0x318277bf	3.7971115e-09
135	0xb14c62da	-2.9742098e-09
136	0xb2280f6a	-9.782392e-09
137	0x32d5acd0	2.487505e-08
138	0x2e958e3d	6.801002e-11
139	0x2e675419	5.2598013e-11
140	0xb032d3f5	-6.505723e-10
141	0xb1a9b24d	-4.938818e-09
142	0x2fcfcdd2	3.7799325e-10
143	0x2f5b7090	1.9957924e-10
144	0x2fe4dbcd	4.1629136e-10
145	0xb09bea28	-1.1344286e-09
146	0xb23dbc2c	-1.1044033e-08
147	0xb0acc390	-1.2570229e-09
148	0x31166365	2.1884372e-09
149	0x31dfc187	6.5121557e-09
150	0x3297ac0f	1.7656957e-08
151	0x30e23158	1.6457689e-09
152	0xb17840b8	-3.6125538e-09
153	0xb1ac150e	-5.0082525e-09
154	0xb11caa68	-2.2797852e-09
155	0xb0f26be5	-1.7638483e-09
156	0xaf5dd8fb	-2.017692e-10
157	0x2f98c415	2.7787964e-10
158	0xaeca53a3	-9.2007534e-11
159	0x2f36ab7e	1.661373e-10
160	0xb220627f	-9.335621e-09
161	0xafb925af	-3.367808e-10
162	0xb1392136	-2.6939921e-09
163	0x330c255d	3.2630272e-08
164	0xaf365b30	-1.65852e-10
165	0x3041aed2	7.0461426e-10
166	0x2f86d9a5	2.4529104e-10
167	0x30d056b3	1.5158633e-09
168	0x31826210	3.7946464e-09
169	0xb2205bab	-9.334069e-09
170	0x330459b3	3.0815226e-08
171	0xb0972056	-1.0995886e-09
172	0xb1e2f7a8	-6.605621e-09
173	0xb08879e0	-9.929941e-10
174	0xb01fc23b	-5.811988e-10
175	0x327775f0	1.4404108e-08
176	0x2d8c82c9	1.5974238e-11
177	0xb00bc5e9	-5.084915e-10
178	0x32f7bec2	2.8841331e-08
179	0x2fa7eb27	3.054421e-10
180	0x318c3b06	4.0812465e-09
181	0x2fc49763	3.575976e-10
182	0xaeb571bd	-8.251131e-11
183	0x2f416b95	1.7591469e-10
184	0x2e2d5441	3.941048e-11
185	0xb0ad1441	-1.2593163e-09
186	0xb0622937	-8.227689e-10
187	0x2ea1cd4e	7.357902e-11
188	0x2f093088	1.2477319e-10
189	0x2f64c188	2.0805235e-10
190	0x321f258d	9.263556e-09
191	0x32c79d52	2.323819e-08
192	0x2ed8ae64	9.853521e-11
193	0xae8d742f	-6.432576e-11
194	0x2f3808f4	1.6737883e-10
195	0xb19a57c4	-4.4919677e-09
196	0x3311a346	3.390894e-08
197	0xb1f35bff	-7.0826895e-09
198	0x2e7bdedf	5.7268742e-11
199	0x2f8f84db	2.6105948e-10
200	0x323d44fb	1.1016932e-08
201	0x2f396528	1.686159e-10
202	0x30ce5c10	1.5014638e-09
203	0xb1681356	-3.3771435e-09
204	0xb176d1d6	-3.591699e-09
205	0xb0ff0795	-1.8555847e-09
206	0xb1afcb35	-5.1162723e-09
207	0x30edcdfb	1.7302563e-09
208	0xb11f50fd	-2.3183582e-09
209	0x3023cd44	5.9590755e-10
210	0xb1ce9b0c	-6.013016e-09
211	0xafd0d594	-3.7986736e-10
212	0x31c35301	5.6846834e-09
213	0x30bae8b9	1.3599425e-09
214	0xb10e49af	-2.0705604e-09
215	0x306fb613	8.7206437e-10
216	0xb10e3b2a	-2.069735e-09
217	0xb071c075	-8.7948787e-10
218	0xaf8dac16	-2.5770025e-10
219	0x3036a128	6.644023e-10
220	0xb04892ed	-7.296837e-10
221	0xae7bf7d4	-5.7290908e-11
222	0xb111157b	-2.1112487e-09
223	0x3217c49c	8.834061e-09
224	0x315f6029	3.2505432e-09
225	0xb118ff00	-2.2263862e-09
226	0x32659e73	1.33655815e-08
227	0x3203627b	7.6475954e-09
228	0xb181ab34	-3.7738577e-09
229	0xb0a53af5	-1.2022087e-09
230	0xb1f8762f	-7.231186e-09
231	0x2f27a01a	1.5245441e-10
232	0xb225c537	-9.6491055e-09
233	0xb1a50a96	-4.8033355e-09
234	0xb205ec18	-7.7953e-09
235	0xb086f6f7	-9.819975e-10
236	0xb178f6be	-3.6229006e-09
237	0x31c3a57c	5.6940603e-09
238	0x3180c0ca	3.747208e-09
239	0x2e8765a5	6.157145e-11
240	0xb118252a	-2.2140036e-09
241	0xb236e5e6	-1.0646067e-08
242	0xb10fcbcb	-2.0925082e-09
243	0xab8558f1	-9.474905e-13
244	0x302b59bb	6.233695e-10
245	0xb08a16ef	-1.004734e-09
246	0x2e3f4693	4.3491055e-11
247	0xb0327d1e	-6.4933825e-10
248	0x3088bb12	9.948471e-10
249	0x302cf49a	6.2920835e-10
250	0x3155b014	3.1095668e-09
251	0x31466001	2.8867364e-09
252	0xb215fbfe	-8.730238e-09
253	0x3120d0bd	2.3401718e-09
254	0x322d0387	1.0070727e-08
255	0x32c81f78	2.3297375e-08

exp_avg_sq f4 [504, 126]
0	0x30994b39	1.1153595e-09
1	0x2fec0cab	4.293715e-10
2	0x2f4576d6	1.7959265e-10
3	0x2ffc8697	4.5934165e-10
4	0x31d8347a	6.2923933e-09
5	0x3131b9b4	2.586245e-09
6	0x330946e3	3.196227e-08
7	0x31660f25	3.3478014e-09
8	0x3159bb13	3.1683995e-09
9	0x30a36d97	1.1890958e-09
10	0x31edcbba	6.920769e-09
11	0x330e0c8a	3.3073356e-08
12	0x2dee73dc	2.710892e-11
13	0x2cb240ab	5.066244e-12
14	0x303ccfb8	6.868919e-10
15	0x31229be0	2.3662707e-09
16	0x2f1e677e	1.4406784e-10
17	0x2e669493	5.2427906e-11
18	0x2f97a8bd	2.7586636e-10
19	0x3095b91b	1.0893787e-09
20	0x32bb2653	2.1787093e-08
21	0x2f8bfbb8	2.546281e-10
22	0x2fc023b0	3.4949954e-10
23	0x31594376	3.1616003e-09
24	0x32d848b0	2.5178764e-08
25	0x2fcab66a	3.68732e-10
26	0x319a80ae	4.496619e-09
27	0x31cf9d94	6.0424075e-09
28	0x30ced834	1.5049921e-09
29	0x30e101bb	1.6371396e-09
30	0x2ee55661	1.0429058e-10
31	0x2fb106cf	3.220095e-10
32	0x2ef585af	1.1165057e-10
33	0x2f012eb9	1.1749081e-10
34	0x32368152	1.0623198e-08
35	0x2f97aa14	2.7587588e-10
36	0x3172bcba	3.5322913e-09
37	0x33605a5b	5.2236242e-08
38	0x2ea4adc0	7.488721e-11
39	0x311de49f	2.2976463e-09
40	0x2f53dec3	1.9269479e-10
41	0x2fce3986	3.7512055e-10
42	0x31359b2a	2.6427167e-09
43	0x324dcf41	1.1979695e-08
44	0x3342bd1b	4.5341135e-08
45	0x2f8dccfd	2.5793404e-10
46	0x322e5dfd	1.01495035e-08
47	0x304bf2db	7.419609e-10
48	0x3027c260	6.103047e-10
49	0x322811bb	9.7829185e-09
50	0x2e138b50	3.3547665e-11
51	0x2f2ef8d0	1.5913604e-10
52	0x33144396	3.4520404e-08
53	0x2f49a045	1.8337783e-10
54	0x304e3d42	7.5029416e-10
55	0x2f5a1b13	1.9836603e-10
56	0x2f96e4e6	2.7447483e-10
57	0x2cfeb2bb	7.2389573e-12
58	0x2f37c1c9	1.67126e-10
59	0x307634e6	8.956945e-10
60	0x31410b5e	2.8091658e-09
61	0x2eca926a	9.211905e-11
62	0x2f0e01da	1.2915483e-10
63	0x2e420f1f	4.4123923e-11
64	0x31aeff32	5.093079e-09
65	0x328c42d1	1.632853e-08
66	0x2dd68eed	2.4392455e-11
67	0x2e55ec3a	4.8640404e-11
68	0x2d9eee93	1.8068469e-11
69	0x312d1a97	2.5189928e-09
70	0x338fc9e7	6.695682e-08
71	0x3194f16e	4.3348143e-09
72	0x2ee5a854	1.04436154e-10
73	0x2f4419d1	1.7835268e-10
74	0x31c4cccf	5.727635e-09
75	0x2ef7da28	1.1271012e-10
76	0x2f2fa590	1.5974977e-10
77	0x3145b405	2.8769602e-09
78	0x315b622e	3.1924503e-09
79	0x3128bb89	2.455382e-09
80	0x31becb3f	5.552834e-09
81	0x2f3ac546	1.6986687e-10
82	0x3073ee9b	8.8741964e-10
83	0x30c8f328	1.4621024e-09
84	0x32044f4f	7.701444e-09
85	0x2fc34dce	3.5525577e-10
86	0x30f83549	1.8059519e-09
87	0x2eca820c	9.2089975e-11
88	0x2f7df465	2.3097042e-10
89	0x2f0d2415	1.2836694e-10
90	0x30509e2d	7.589474e-10
91	0x30c11a5a	1.4050088e-09
92	0x2eb37abd	8.16178e-11
93	0x302ee72a	6.3629335e-10
94	0x30ae389b	1.2676254e-09
95	0x2eb12b43	8.056713e-11
96	0x314e1481	2.99886e-09
97	0x3188a007	3.976314e-09
98	0x317ac1db	3.6489982e-09
99	0x3045f01c	7.20094e-10
100	0x32818647	1.5078639e-08
101	0x3196514f	4.3748183e-09
102	0x312e44ad	2.535937e-09
103	0x3118bda0	2.22267e-09
104	0x3179b0d8	3.6334793e-09
105	0x30c1521f	1.4065938e-09
106	0x32561cae	1.246296e-08
107	0x3209f53d	8.03021e-09
108	0x2fb83080	3.3503866e-10
109	0x3023682c	5.944709e-10
110	0x31620e3b	3.2895418e-09
111	0x30f4ef71	1.782139e-09
112	0x310cb848	2.0477433e-09
113	0x2ce2a793	6.441911e-12
114	0x30389360	6.714824e-10
115	0x32ac41d5	2.0053372e-08
116	0x31a625c5	4.8355298e-09
117	0x2d1bbd0f	8.852709e-12
118	0x2f24688f	1.495286e-10
119	0x30c7a543	1.4526126e-09
120	0x3000ede0	4.690417e-10
121	0x2fea5f4a	4.263206e-10
122	0x310aaf32	2.018123e-09
123	0x2eb4968a	8.2121934e-11
124	0x303bb63a	6.8289163e-10
125	0x30b41077	1.3101403e-09
126	0x2d2e26c0	9.899359e-12
127	0x2e71994d	5.4933214e-11
128	0x2d591290	1.2339144e-11
129	0x2e3ea049	4.334336e-11
130	0x2f95449d	2.7151695e-10
131	0x2ff00127	4.3656564e-10
132	0x3137efbe	2.6766283e-09
133	0x2e981521	6.915913e-11
134	0x2e9e5d60	7.201595e-11
135	0x2f4d40b2	1.8667626e-10
136	0x308821ab	9.904871e-10
137	0x312fc0a8	2.5575364e-09
138	0x2bc5ab63	1.4045261e-12
139	0x2a32be35	1.5875567e-13
140	0x2d8b0ce3	1.5808193e-11
141	0x2eda919d	9.9393584e-11
142	0x2c97ecdc	4.317975e-12
143	0x2b765c4e	8.7524855e-13
144	0x2d35ca5c	1.0333592e-11
145	0x2dc57a36	2.245058e-11
146	0x30c8b621	1.4603679e-09
147	0x2ea80b95	7.641813e-11
148	0x2d104178	8.199989e-12
149	0x2fc89a3f	3.6489387e-10
150	0x2f05710e	1.2136445e-10
151	0x2e7d8ebe	5.765232e-11
152	0x2ead9459	7.893481e-11
153	0x2f230d96	1.482959e-10
154	0x2e775679	5.62381e-11
155	0x2dfec540	2.8964053e-11
156	0x2dadf15e	1.9775011e-11
157	0x2d9174ff	1.6536548e-11
158	0x2c0880e2	1.9398307e-12
159	0x2d664f41	1.3091584e-11
160	0x2eb1be8a	8.0828746e-11
161	0x2d215769	9.171199e-12
162	0x2efa0fac	1.1371468e-10
163	0x31831817	3.8153405e-09
164	0x2cd11a06	5.9430265e-12
165	0x2e9e3278	7.193973e-11
166	0x2d3ad82c	1.0620876e-11
167	0x2e2ca8ba	3.925813e-11
168	0x2f6ea1c7	2.1703449e-10
169	0x302e79e4	6.347405e-10
170	0x3161a5b9	3.2836012e-09
171	0x2d480342	1.1369407e-11
172	0x2f1fd820	1.4537749e-10
173	0x2d906e6c	1.6419942e-11
174	0x2dd4be97	2.4186248e-11
175	0x30d1baec	1.5259878e-09
176	0x2d2c8ea8	9.808744e-12
177	0x2e19c7c2	3.4965593e-11
178	0x313671b6	2.6549123e-09
179	0x2c31a3e3	2.5244188e-12
180	0x2e4bfcf2	4.6381517e-11
181	0x2db3fd61	2.0462467e-11
182	0x2d16a3fc	8.562925e-12
183	0x2b238427	5.809263e-13
184	0x2d4dc173	1.1695855e-11
185	0x2e16db6c	3.4300937e-11
186	0x2e9dc67f	7.1747934e-11
187	0x2d26f196	9.48965e-12
188	0x2c365cd5	2.5915288e-12
189	0x2d052411	7.568183e-12
190	0x300180a7	4.711275e-10
191	0x30b65bfd	1.3268387e-09
192	0x2ca1633b	4.586912e-12
193	0x2d9f85d2	1.8135635e-11
194	0x2bfaa507	1.7809373e-12
195	0x2e4882df	4.5590972e-11
196	0x31905fe2	4.201852e-09
197	0x30584962	7.8684625e-10
198	0x2b203857	5.6921606e-13
199	0x2d5139af	1.1893083e-11
200	0x2fad00d5	3.1469108e-10
201	0x2c9593e0	4.251252e-12
202	0x2d566004	1.2185811e-11
203	0x2f3da982	1.7249671e-10
204	0x2f000857	1.1644495e-10
205	0x2ea1a0e0	7.3500095e-11
206	0x2f8884f2	2.483272e-10
207	0x2d95f299	1.7047074e-11
208	0x2dfe3754	2.8901027e-11
209	0x2e4e73a8	4.69417e-11
210	0x2f1e7902	1.4413007e-10
211	0x2d610892	1.2791672e-11
212	0x2f077fed	1.2323627e-10
213	0x2d909ffb	1.644195e-11
214	0x2e715d11	5.4879715e-11
215	0x2c865e64	3.8189885e-12
216	0x2de40b84	2.5925713e-11
217	0x2e5a6c9c	4.9663926e-11
218	0x2cf39e22	6.9240317e-12
219	0x2d5330af	1.2004771e-11
220	0x2e0de0cd	3.225935e-11
221	0x2c1a7c93	2.1953869e-12
222	0x2e600414	5.0935325e-11
223	0x2fa1dde3	2.944339e-10
224	0x2f892589	2.4946825e-10
225	0x2ef77eb2	1.1254765e-10
226	0x308e6d2b	1.0362887e-09
227	0x2f3d3ae0	1.7210366e-10
228	0x2eaf1be2	7.9630316e-11
229	0x2db99532	2.1098321e-11
230	0x2e63e549	5.181747e-11
231	0x2aec9b1e	4.2029656e-13
232	0x2fc72ce7	3.6229794e-10
233	0x2f047e80	1.2050272e-10
234	0x2e1b88fe	3.5364593e-11
235	0x2d983e13	1.7307966e-11
236	0x2f02192c	1.1832374e-10
237	0x2e87019b	6.1393744e-11
238	0x2dc68d0f	2.2572636e-11
239	0x2baeb725	1.2414276e-12
240	0x2d567c78	1.2192129e-11
241	0x308ae36d	1.010546e-09
242	0x2e266c2b	3.7840103e-11
243	0x2ae2fdfd	4.0321904e-13
244	0x2d5c1330	1.2509813e-11
245	0x2e402374	4.3687234e-11
246	0x2d443a85	1.1154304e-11
247	0x2d91d628	1.6579696e-11
248	0x2e298d3b	3.855159e-11
249	0x2cc15814	5.4951686e-12
250	0x2d93d524	1.6806619e-11
251	0x2f9b31b2	2.8229646e-10
252	0x2c3c4a4b	2.6757648e-12
253	0x2ea0e020	7.31577e-11
254	0x2d84ab9a	1.5082869e-11
255	0x2dea8d78	2.6665545e-11

exp_avg f4 [504]
0	0x3826c391	3.975962e-05
1	0xb315a9b8	-3.4846124e-08
2	0xb4c41c3d	-3.652839e-07
3	0xb69a8d43	-4.6060027e-06
4	0xb754a26c	-1.26740015e-05
5	0x32a1962d	1.8811159e-08
6	0xb2fc818e	-2.9395576e-08
7	0xb69fac97	-4.7586614e-06
8	0xb6731163	-3.6219942e-06
9	0xb742bbfc	-1.160707e-05
10	0x3550e4e4	7.781912e-07
11	0xb2e6d230	-2.6871106e-08
12	0xb2c67ade	-2.3106107e-08
13	0x324f1f30	1.2056077e-08
14	0xb5523153	-7.830287e-07
15	0x38a43d6d	7.831571e-05
16	0x34ddc862	4.1310255e-07
17	0xb464ea8c	-2.1319482e-07
18	0xb503fd70	-4.9170103e-07
19	0x348d4aa8	2.6317616e-07
20	0xb5e572f9	-1.7095291e-06
21	0x36b830e8	5.4893208e-06
22	0xb4cf9638	-3.8666053e-07
23	0xb6044555	-1.970989e-06
24	0x3562a71a	8.4434726e-07
25	0x367e02a1	3.785048e-06
26	0x3595b31d	1.1153494e-06
27	0xb287d0bb	-1.5810988e-08
28	0xb581157b	-9.617501e-07
29	0xb6c3ea85	-5.8387545e-06
30	0xb59ed8d3	-1.1835021e-06
31	0x3563d1d9	8.486946e-07
32	0xb4960a33	-2.7947098e-07
33	0xb4487bd6	-1.8671503e-07
34	0x36fe0ba9	7.5711473e-06
35	0x369b023b	4.6196196e-06
36	0xb7a85e48	-2.0071064e-05
37	0x2fc86d0e	3.6457276e-10
38	0xb53fad87	-7.140556e-07
39	0xb54fcd2c	-7.7412074e-07
40	0x343cda2d	1.7588236e-07
41	0xb5e39e0e	-1.6958818e-06
42	0xb591f8e4	-1.0875779e-06
43	0x36b1ebfd	5.3024837e-06
44	0xb1755bf0	-3.5704453e-09
45	0x35dcab69	1.6441164e-06
46	0xb5ece1c9	-1.7649082e-06
47	0x3761d341	1.34602315e-05
48	0xb5a0c8cc	-1.1979369e-06
49	0x34258725	1.5415988e-07
50	0xb297d637	-1.7676127e-08
51	0x3669532d	3.476812e-06
52	0xb051b077	-7.628453e-10
53	0xb495a11d	-2.7870638e-07
54	0xb413d074	-1.3766277e-07
55	0xb311f662	-3.3984527e-08
56	0xb5ae0107	-1.2964309e-06
57	0x33edba61	1.10700746e-07
58	0xb375b0fd	-5.7204478e-08
59	0x379c2c85	1.861738e-05
60	0x3505d387	4.9854174e-07
61	0xb07d6dd9	-9.2196967e-10
62	0xb50ade70	-5.1732695e-07
63	0x342d0823	1.611484e-07
64	0xb2ccda5b	-2.3848022e-08
65	0xb06cb9c2	-8.612028e-10
66	0xb4ab99d4	-3.1963157e-07
67	0xb381daa5	-6.046802e-08
68	0xb47c048c	-2.3470983e-07
69	0x37d71419	2.5639356e-05
70	0xb07c36e8	-9.175509e-10
71	0xb156eb23	-3.1274758e-09
72	0xb580da37	-9.600252e-07
73	0xb3b8120f	-8.5714525e-08
74	0x329d6e3c	1.8327334e-08
75	0x3490ae2b	2.6948814e-07
76	0xb67b4e44	-3.7447471e-06
77	0x35889a47	1.017769e-06
78	0x382140ab	3.8445618e-05
79	0xb76a26d6	-1.3956529e-05
80	0xb62f2f18	-2.6104444e-06
81	0xb4c16237	-3.6020512e-07
82	0x367d04db	3.7702764e-06
83	0xb696ab76	-4.490309e-06
84	0x35ae0375	1.2965016e-06
85	0x35735f13	9.0662905e-07
86	0x3674e230	3.6490492e-06
87	0x358c1291	1.0436216e-06
88	0xb8c4fad0	-9.392726e-05
89	0x340f3f76	1.3341e-07
90	0xb806c726	-3.213356e-05
91	0xb5d7a09b	-1.6065491e-06
92	0x3556eb34	8.006348e-07
93	0xb5076a96	-5.044652e-07
94	0x356ec265	8.894479e-07
95	0xb4c2f364	-3.6312406e-07
96	0x369ef8ea	4.7377443e-06
97	0xb42f1dbb	-1.6308961e-07
98	0xb565a783	-8.555291e-07
99	0xb7212f85	-9.607412e-06
100	0xb39e8cd0	-7.383062e-08
101	0xb642027b	-2.8909697e-06
102	0x369c3086	4.654811e-06
103	0x3623f04b	2.4428762e-06
104	0x380dd7a7	3.381786e-05
105	0x350a433f	5.150686e-07
106	0x369442b5	4.4185094e-06
107	0xad86a550	-1.530745e-11
108	0x37c1af79	2.3089104e-05
109	0xb6b5938b	-5.4113966e-06
110	0xb530f35d	-6.591925e-07
111	0xb581d1d0	-9.672312e-07
112	0x33ff53ca	1.1889604e-07
113	0xb456179f	-1.9938896e-07
114	0x38b5780b	8.653112e-05
115	0x352024b5	5.965806e-07
116	0xb7667c01	-1.373794e-05
117	0xb37f2f56	-5.9414866e-08
118	0x35835411	9.784727e-07
119	0xb65e28d1	-3.3104336e-06
120	0xb34b04b2	-4.726889e-08
121	0x37955603	1.7802236e-05
122	0x35891d06	1.0215742e-06
123	0x3500c3aa	4.7968445e-07
124	0xb63bc982	-2.7982464e-06
125	0xb6765e18	-3.6711626e-06
126	0x36ebcd6b	7.0274596e-06
127	0xb209d728	-8.02337e-09
128	0xb3a385a2	-7.614587e-08
129	0xb62b6094	-2.5537202e-06
130	0xb813681c	-3.514449e-05
131	0x33a4fcba	7.682816e-08
132	0xb40b6814	-1.2983247e-07
133	0xb6a68270	-4.9623704e-06
134	0xb699f838	-4.588652e-06
135	0xb68df2d5	-4.230397e-06
136	0x3634e92d	2.6957816e-06
137	0xb3e8d140	-1.0841404e-07
138	0xb134627e	-2.6249434e-09
139	0x3102d63a	1.9039263e-09
140	0xb4cf0839	-3.8562737e-07
141	0x38a844ad	8.023656e-05
142	0x34230dd2	1.5185586e-07
143	0xb36ac74b	-5.4663627e-08
144	0xb3f97530	-1.1616282e-07
145	0x32fb9f41	2.9292666e-08
146	0xb74023cb	-1.14524255e-05
147	0x35cd8c3b	1.5314503e-06
148	0xb418ff3c	-1.4248957e-07
149	0xb6874037	-4.030789e-06
150	0x35c7dfb8	1.4891766e-06
151	0x3596a5e3	1.122415e-06
152	0x36b3461b	5.342777e-06
153	0xb3ab400e	-7.9744595e-08
154	0xb4c5ee1b	-3.6867354e-07
155	0xb5f2cf00	-1.809065e-06
156	0xb4a9c0ca	-3.1618976e-07
157	0x346b1b30	2.1895971e-07
158	0xb38ed4a2	-6.651068e-08
159	0xb327048f	-3.8886864e-08
160	0x3773ded4	1.453581e-05
161	0x350c092c	5.216741e-07
162	0xb759e4a8	-1.2987446e-05
163	0x30df8056	1.6261861e-09
164	0xb403b122	-1.2264766e-07
165	0xb4da3221	-4.0642138e-07
166	0x33238087	3.806829e-08
167	0xb5539630	-7.8822177e-07
168	0xb58f0cb2	-1.0658025e-06
169	0x3795f225	1.7874941e-05
170	0xb293dd21	-1.721361e-08
171	0x34ef84eb	4.461393e-07
172	0xb70b6808	-8.309267e-06
173	0x361b18ab	2.3111158e-06
174	0xb485682f	-2.4848984e-07
175	0x351e42a3	5.8956556e-07
176	0xb1727dd6	-3.5287164e-09
177	0x35823556	9.701278e-07
178	0xb1748cc5	-3.5586691e-09
179	0xb3cbaba8	-9.484148e-08
180	0xb3fa28f1	-1.16489794e-07
181	0x31989a62	4.4413335e-09
182	0xb4a7aebd	-3.1233313e-07
183	0x33014c0d	3.010432e-08
184	0xb2590684	-1.2632544e-08
185	0x369b46c7	4.6275995e-06
186	0x348dc06a	2.6403296e-07
187	0x30947af1	1.0803359e-09
188	0xb417f32c	-1.4151436e-07
189	0x3342bdbc	4.5341707e-08
190	0xb3e248a3	-1.05371576e-07
191	0xb187cf09	-3.9525543e-09
192	0xb385cc3a	-6.230444e-08
193	0xb13d5149	-2.7549325e-09
194	0xb3561cf4	-4.985209e-08
195	0x378036d9	1.528433e-05
196	0xb18f556e	-4.17156e-09
197	0xb2ac56e9	-2.0062958e-08
198	0xb44f903f	-1.9330854e-07
199	0xb2bce222	-2.1988914e-08
200	0x337c7a9b	5.878483e-08
201	0x33668697	5.3673457e-08
202	0xb5b25788	-1.3287508e-06
203	0x36305343	2.6274508e-06
204	0x3789507b	1.636915e-05
205	0xb6bdc3a1	-5.655413e-06
206	0xb7162565	-8.949403e-06
207	0xb3c79e95	-9.2955055e-08
208	0x35c9d1a4	1.503668e-06
209	0xb5bfa343	-1.4278124e-06
210	0x36945296	4.420358e-06
211	0x3451423e	1.948874e-07
212	0x366885a4	3.4648483e-06
213	0x34b087dd	3.2881408e-07
214	0xb8240d75	-3.911318e-05
215	0x33135e9f	3.4312162e-08
216	0xb737a306	-1.0945607e-05
217	0xb59979b8	-1.1434813e-06
218	0x343bc56d	1.7487555e-07
219	0xb48e1b5b	-2.6469465e-07
220	0x3526cdb5	6.213916e-07
221	0xb34b2435	-4.729755e-08
222	0x360e3ea7	2.1196117e-06
223	0xb52645f1	-6.1941597e-07
224	0xb60af446	-2.0705788e-06
225	0xb67edc78	-3.797728e-06
226	0xb48f14d9	-2.6650994e-07
227	0xb6c6cd08	-5.9247286e-06
228	0x3626c2d3	2.484933e-06
229	0x3546dd3c	7.4082686e-07
230	0x3802b17e	3.1159718e-05
231	0x33ac1fcc	8.015158e-08
232	0x378bdd0d	1.6673026e-05
233	0xaf0786fd	-1.2326136e-10
234	0x3758a629	1.291329e-05
235	0xb5c1f339	-1.4450408e-06
236	0xb5da3b77	-1.6259572e-06
237	0xb588f8c3	-1.0205189e-06
238	0x33993537	7.1342974e-08
239	0xb2f2cb4c	-2.8264957e-08
240	0x37b24d5b	2.1255275e-05
241	0x3615ddc2	2.233181e-06
242	0xb6a2a491	-4.8471343e-06
243	0xb27779f6	-1.4405023e-08
244	0x34992a51	2.852926e-07
245	0xb6182321	-2.2670213e-06
246	0xb20f0311	-8.324393e-09
247	0x36985e0d	4.540902e-06
248	0x34aaab7b	3.1789736e-07
249	0x342ff316	1.6386579e-07
250	0xb6861896	-3.9963734e-06
251	0xb67acb39	-3.7371194e-06
252	0x3794644f	1.7689685e-05
253	0x34188b6b	1.4206823e-07
254	0x34e6fe37	4.3025804e-07
255	0x3734a915	1.07682035e-05

exp_avg_sq f4 [504]
0	0x33bd88ef	8.8259064e-08
1	0x31ab3c1f	4.98359e-09
2	0x3033f116	6.5462424e-10
3	0x32885e6a	1.5875418e-08
4	0x332fc43e	4.0923844e-08
5	0x32f3ec57	2.8396398e-08
6	0x302175a8	5.873866e-10
7	0x3039e9c0	6.7634787e-10
8	0x2ffbb73c	4.578683e-10
9	0x33254c66	3.848654e-08
10	0x32ffe388	2.9789376e-08
11	0x2fb9deb2	3.3809539e-10
12	0x2fe45cb8	4.153884e-10
13	0x2e84d87c	6.0411204e-11
14	0x3073f97d	8.875743e-10
15	0x334bd30b	4.7456563e-08
16	0x30bdb982	1.3804284e-09
17	0x2f8f603a	2.6079922e-10
18	0x303f1a44	6.952272e-10
19	0x332bec64	4.0029036e-08
20	0x335987d1	5.0647774e-08
21	0x332e3bfe	4.0567095e-08
22	0x302622fd	6.044017e-10
23	0x2fdc1806	4.0034837e-10
24	0x30e03737	1.6313838e-09
25	0x30312aa8	6.4452843e-10
26	0x30eb6d63	1.712959e-09
27	0x322c9218	1.00449356e-08
28	0x33ad230b	8.0623145e-08
29	0x32c8094d	2.3287294e-08
30	0x305f5518	8.1247853e-10
31	0x323c9c0c	1.0978521e-08
32	0x318792d8	3.9457113e-09
33	0x31e9cee3	6.804713e-09
34	0x33a91949	7.874275e-08
35	0x32ea3906	2.7267117e-08
36	0x3267cfc6	1.3493212e-08
37	0x3091d8ee	1.0611794e-09
38	0x3165dfa2	3.3451006e-09
39	0x3021b8a9	5.8833877e-10
40	0x30e8a54d	1.6927203e-09
41	0x304d85de	7.47688e-10
42	0x304a9d8e	7.371107e-10
43	0x33b776c7	8.543207e-08
44	0x30085bba	4.9606863e-10
45	0x33924f56	6.813086e-08
46	0x333c063c	4.377783e-08
47	0x3399fabc	7.170226e-08
48	0x320aa9b8	8.071247e-09
49	0x30baf0ae	1.3601686e-09
50	0x2fa5f280	3.0185632e-10
51	0x31249070	2.3947244e-09
52	0x2ff57d9c	4.465449e-10
53	0x30233454	5.937342e-10
54	0x31d8c772	6.3091017e-09
55	0x321a5b68	8.984763e-09
56	0x311380be	2.1464497e-09
57	0x2f1b154e	1.4104737e-10
58	0x31991608	4.4553907e-09
59	0x326623c3	1.3395893e-08
60	0x31b90265	5.384481e-09
61	0x2ed0992a	9.485952e-11
62	0x2f735f9c	2.2134689e-10
63	0x3172c773	3.5329009e-09
64	0x2ed9a231	9.8968285e-11
65	0x303771b6	6.6736605e-10
66	0x3092397e	1.0639238e-09
67	0x319cbd9c	4.5617536e-09
68	0x2ea55b3d	7.5195385e-11
69	0x33003c94	2.9857418e-08
70	0x2fa45822	2.9894048e-10
71	0x31ff4044	7.428783e-09
72	0x304c26e7	7.427005e-10
73	0x314d9c50	2.992028e-09
74	0x2f8eadf6	2.5953256e-10
75	0x32a88ecd	1.9622712e-08
76	0x3043975a	7.115567e-10
77	0x322edca7	1.01783035e-08
78	0x331670f4	3.5027327e-08
79	0x328d02b9	1.6415798e-08
80	0x32dc0090	2.5611627e-08
81	0x30e49a43	1.6633027e-09
82	0x3382b886	6.087161e-08
83	0x30c7a9c9	1.4527411e-09
84	0x30a6e707	1.2143752e-09
85	0x313e3ba8	2.768255e-09
86	0x30e380c0	1.6553017e-09
87	0x32312a91	1.03124345e-08
88	0x32a40806	1.9095761e-08
89	0x318ca707	4.093525e-09
90	0x32bb974a	2.1838463e-08
91	0x313c48af	2.7398916e-09
92	0x31971904	4.3975223e-09
93	0x2f30ee92	1.6091864e-10
94	0x312394e4	2.3804256e-09
95	0x3100980e	1.8712885e-09
96	0x32e2e021	2.6411785e-08
97	0x2fef23a1	4.3499163e-10
98	0x30a7a68d	1.2198186e-09
99	0x32599b7c	1.26664155e-08
100	0x2fdae051	3.9813355e-10
101	0x302bbf0f	6.248095e-10
102	0x32bc9d0a	2.1957494e-08
103	0x338d8026	6.589134e-08
104	0x3307feed	3.166399e-08
105	0x318eb594	4.153387e-09
106	0x31d72483	6.2614745e-09
107	0x31036ccf	1.912486e-09
108	0x31e511a9	6.666785e-09
109	0x32804e11	1.4936662e-08
110	0x321ac88e	9.009581e-09
111	0x300a541a	5.0323623e-10
112	0x30b23c67	1.2968372e-09
113	0x30048f51	4.8224985e-10
114	0x33ca5ab0	9.422854e-08
115	0x331b7c4c	3.6201797e-08
116	0x340f47a6	1.3343978e-07
117	0x2e2938c7	3.847658e-11
118	0x2f5bda13	1.999541e-10
119	0x31302ec1	2.5637947e-09
120	0x320449f6	7.700228e-09
121	0x32bb6d85	2.1819469e-08
122	0x31ff9f82	7.4396107e-09
123	0x313126b3	2.5778888e-09
124	0x2f6f83d9	2.1783765e-10
125	0x30864efe	9.772234e-10
126	0x32a41d6f	1.9105498e-08
127	0x30ba33cd	1.3548004e-09
128	0x2fa856a1	3.0620576e-10
129	0x33944d72	6.905874e-08
130	0x336f0559	5.5651387e-08
131	0x3324c551	3.8363684e-08
132	0x30e59351	1.6703813e-09
133	0x3062fb21	8.2575197e-10
134	0x30143162	5.3912264e-10
135	0x32b047e9	2.0521798e-08
136	0x336369d5	5.294881e-08
137	0x302bc528	6.2489613e-10
138	0x2f129075	1.3329944e-10
139	0x2d2e017f	9.891087e-12
140	0x309677a7	1.0947944e-09
141	0x3399d256	7.1628776e-08
142	0x30fac759	1.8246552e-09
143	0x2ea06d75	7.295401e-11
144	0x2f6e2ce2	2.166192e-10
145	0x3250a090	1.2143701e-08
146	0x3412d87b	1.3676065e-07
147	0x331bb903	3.6257017e-08
148	0x2f4abfb3	1.8439898e-10
149	0x30444775	7.140593e-10
150	0x3145f370	2.8805651e-09
151	0x2f751ec8	2.2293556e-10
152	0x31c0b102	5.608059e-09
153	0x32e917cf	2.7135597e-08
154	0x332ecc77	4.069849e-08
155	0x32c045ae	2.2383428e-08
156	0x3014c480	5.412133e-10
157	0x3156f78d	3.1281815e-09
158	0x3159e4c6	3.1707699e-09
159	0x30e4c8f8	1.6646302e-09
160	0x342d1a91	1.6121545e-07
161	0x3178ca77	3.6203838e-09
162	0x32887155	1.5884021e-08
163	0x31033045	1.9090447e-09
164	0x305f9dc9	8.1351154e-10
165	0x30a4cc47	1.199063e-09
166	0x3088ea30	9.961862e-10
167	0x30384888	6.7041883e-10
168	0x3087aa16	9.870884e-10
169	0x33e60b31	1.0712245e-07
170	0x30778e6e	9.006048e-10
171	0x33a1c1a6	7.532371e-08
172	0x337d9197	5.9038566e-08
173	0x3274dcb1	1.4252849e-08
174	0x31a1a3b3	4.704327e-09
175	0x312615e4	2.4168623e-09
176	0x2f1d1fa3	1.4290306e-10
177	0x30d92852	1.5800288e-09
178	0x306696df	8.3887913e-10
179	0x3031e5a4	6.4718564e-10
180	0x32afd602	2.047e-08
181	0x32078b34	7.889685e-09
182	0x30e3322e	1.6530686e-09
183	0x2ef708da	1.1233832e-10
184	0x31756d41	3.5714296e-09
185	0x31fa33a0	7.2818267e-09
186	0x3200b93b	7.492697e-09
187	0x2e91ed39	6.635976e-11
188	0x2f222078	1.474535e-10
189	0x3108cc0a	1.9906587e-09
190	0x2fb06e75	3.2092698e-10
191	0x308d8e6a	1.0299577e-09
192	0x2f96b051	2.7410121e-10
193	0x30969df6	1.0958832e-09
194	0x2e330f15	4.0713283e-11
195	0x3309614a	3.1986282e-08
196	0x301f2230	5.7892446e-10
197	0x32820d6b	1.5140094e-08
198	0x2f97a869	2.7586403e-10
199	0x30758425	8.931827e-10
200	0x2fe5992c	4.1763693e-10
201	0x32406779	1.1199398e-08
202	0x302abf56	6.2117544e-10
203	0x32806c51	1.4950418e-08
204	0x32d0aaf3	2.4292126e-08
205	0x3261b395	1.3137556e-08
206	0x33395dea	4.3159083e-08
207	0x30add613	1.264825e-09
208	0x32f7ad11	2.8833286e-08
209	0x3031de3b	6.4708033e-10
210	0x316fa3e5	3.487224e-09
211	0x3064ad4c	8.3192186e-10
212	0x304e2334	7.499239e-10
213	0x323ff5d3	1.1173557e-08
214	0x3213ee89	8.610763e-09
215	0x315a739e	3.1788896e-09
216	0x3209c1aa	8.018484e-09
217	0x315cc2ce	3.2124947e-09
218	0x310c4c0b	2.0415907e-09
219	0x2f24d914	1.4992835e-10
220	0x314e1b63	2.9992513e-09
221	0x301e1ee6	5.7523974e-10
222	0x32d61e01	2.4926523e-08
223	0x305e3d1b	8.0849966e-10
224	0x31d7bbda	6.27868e-09
225	0x3277a31e	1.4414381e-08
226	0x2fefa3e3	4.3590295e-10
227	0x306ce95e	8.6187935e-10
228	0x32c5957d	2.3001798e-08
229	0x33145b76	3.454212e-08
230	0x3307d833	3.162877e-08
231	0x30d8afea	1.5766066e-09
232	0x32776765	1.4400801e-08
233	0x31cb0edd	5.9097673e-09
234	0x31527e5e	3.0630853e-09
235	0x320004b3	7.451649e-09
236	0x3203f039	7.679824e-09
237	0x303c8a76	6.8590766e-10
238	0x300c9f47	5.115805e-10
239	0x2e5b5df5	4.9878286e-11
240	0x32ca01a8	2.3516648e-08
241	0x33209622	3.7389448e-08
242	0x33ae7e78	8.125511e-08
243	0x2d67e269	1.3181103e-11
244	0x2ef951da	1.1337749e-10
245	0x317bd092	3.6643866e-09
246	0x315eba4f	3.2411156e-09
247	0x31dd4d89	6.4407613e-09
248	0x32172eae	8.7999705e-09
249	0x30a199e6	1.1758032e-09
250	0x2f7173c1	2.1959946e-10
251	0x30901f76	1.0486321e-09
252	0x33e9757b	1.08712776e-07
253	0x333e0068	4.4238192e-08
254	0x32ce1f8d	2.3995904e-08
255	0x3329f43c	3.957051e-08
