models/optweezer/5bkevqtc/checkpoints/epoch=0-step=23.ckpt (torch, 789231 bytes, 18 tensors)

exp_avg f4 [504, 1]
000000 f5 c7 8b 36 f3 5c 48 b3 45 1c c9 b5 50 a3 2d 36
       4.165801e-06 -4.6650666e-08 -1.4983895e-06 2.587407e-06
000010 cb 22 78 35 7a 89 89 34 30 9c 47 33 78 ed 11 35
       9.243783e-07 2.5618266e-07 4.647535e-08 5.436227e-07
000020 45 e0 45 36 36 65 97 34 16 be 5e 36 cd e3 c2 b4
       2.948583e-06 2.8199582e-07 3.3191222e-06 -3.6301063e-07
000030 f4 b5 76 35 65 3c 49 b3 cd c7 86 34 1b d0 6b 37
       9.190692e-07 -4.6853888e-08 2.510482e-07 1.4055545e-05
000040 c3 6b 69 37 01 af ad b5 df ce 05 b6 3e d1 03 34
       1.39129725e-05 -1.2940437e-06 -1.993896e-06 1.2276448e-07
000050 7b 85 0c 35 55 77 ec b2 b8 1c a3 34 6f 0e 64 b5
       5.2348304e-07 -2.7528282e-08 3.0382012e-07 -8.495762e-07
000060 80 0d 26 b2 87 29 b2 36 47 48 00 b6 a8 fe f0 b7
       -9.665541e-09 5.309648e-06 -1.9115557e-06 -2.8728813e-05
000070 a3 e8 08 36 6f b0 42 b7 7c 42 03 b4 e3 6c e9 34
       2.0400992e-06 -1.160438e-05 -1.2224513e-07 4.3478857e-07
000080 fb 44 11 35 26 30 5d b3 c5 36 1f b6 8c 96 ff b2
       5.411709e-07 -5.1499363e-08 -2.3724726e-06 -2.9754368e-08
000090 44 32 e9 b6 02 60 9a 34 db cf 07 b5 e2 55 29 36
       -6.949793e-06 2.875459e-07 -5.059389e-07 2.5232953e-06
0000a0 91 b0 b3 35 55 6d 1c b5 e8 8c af b4 cf 0a 55 36
       1.3387927e-06 -5.827363e-07 -3.2698813e-07 3.1745765e-06
0000b0 e1 7c 75 35 bd 68 7e 35 6f 87 a1 35 24 04 89 35
       9.1451335e-07 9.477479e-07 1.2034851e-06 1.02085e-06
0000c0 9a f9 00 b7 31 f2 c4 35 5a 18 1e b5 e3 df 7d b5
       -7.687509e-06 1.4673625e-06 -5.8895023e-07 -9.457564e-07
0000d0 03 9c d3 b5 b2 9e b3 b6 33 e9 29 36 0c 1a 6f b4
       -1.576613e-06 -5.3530903e-06 2.5318702e-06 -2.2268085e-07
0000e0 ee 3a a2 35 6a 43 67 b6 78 bf 49 b7 b1 f8 ab b7
       1.2087091e-06 -3.4460923e-06 -1.2025113e-05 -2.0500594e-05
0000f0 e5 f7 59 b6 82 99 15 b6 c7 4b 1e 35 76 cf dd b4
       -3.2479813e-06 -2.2292083e-06 5.896986e-07 -4.1315405e-07
000100 a3 d7 4f b1 c6 78 1a b5 58 ee b3 34 fc 4e c3 b5
       -3.024504e-09 -5.754522e-07 3.3514766e-07 -1.455162e-06
000110 b3 8c 73 36 47 49 42 b7 e3 25 4c b6 97 75 a8 37
       3.629172e-06 -1.1580362e-05 -3.0420422e-06 2.0081918e-05
000120 bc 44 66 36 df 41 3d 35 6c 3b 15 b5 87 1d aa b4
       3.431268e-06 7.050384e-07 -5.5593296e-07 -3.1686452e-07
000130 22 b0 ec 37 df 25 40 b6 32 17 2a b6 75 ee d0 b6
       2.821541e-05 -2.8632273e-06 -2.5345475e-06 -6.226643e-06
000140 4e c0 16 b7 d9 0b 83 37 67 a2 4b 36 5b ea 42 36
       -8.985471e-06 1.5621934e-05 3.0343888e-06 2.9044666e-06
000150 50 a0 ea b6 c4 41 2a b5 95 94 46 34 a4 0d a1 37
       -6.9924063e-06 -6.3425637e-07 1.8494241e-07 1.9199048e-05
000160 df 00 67 35 ca 69 57 36 20 3c d1 b7 a2 5e 39 34
       8.6055474e-07 3.2099074e-06 -2.494274e-05 1.7263895e-07
000170 54 c3 32 35 e9 49 2c 36 9f 19 05 b6 54 9a 6f 35
       6.6594407e-07 2.5673019e-06 -1.9833458e-06 8.9259015e-07
000180 cb 39 b5 b7 7e 5b 60 34 58 3f 61 b6 fa 93 43 b5
       -2.1603793e-05 2.089491e-07 -3.3564484e-06 -7.2858495e-07
000190 b8 20 04 37 29 56 b2 b4 28 93 eb b6 67 77 b6 b7
       7.875431e-06 -3.3217773e-07 -7.020677e-06 -2.1751692e-05
0001a0 0a fb 93 b7 0c e6 ed 36 02 22 d7 32 04 fb d9 b3
       -1.7640665e-05 7.0899314e-06 2.504476e-08 -1.01505094e-07
0001b0 95 0b 49 34 94 8d 69 36 29 89 1c b6 a6 9c 9d b5
       1.8723797e-07 3.4802115e-06 -2.332565e-06 -1.1743002e-06
0001c0 62 d2 9e b4 c1 68 64 b5 9d b5 0f b4 89 91 a5 b5
       -2.9582867e-07 -8.5089056e-07 -1.3383983e-07 -1.2335814e-06
0001d0 20 6c 84 b6 f3 94 e3 36 eb 91 62 35 9d d9 8d b6
       -3.946494e-06 6.782467e-06 8.44039e-07 -4.227461e-06
0001e0 a0 30 42 36 f5 26 8e 35 e2 db fd b5 47 fc e5 35
       2.8936556e-06 1.0591162e-06 -1.8913963e-06 1.7135252e-06
0001f0 2d 10 97 35 04 8b c7 35 9e 70 be 36 14 bc 15 b4
       1.1255084e-06 1.4867114e-06 5.6755516e-06 -1.3945129e-07
000200 71 aa 99 b5 c9 cc 0e 36 11 4c d2 35 fa 82 44 34
       -1.1448993e-06 2.127885e-06 1.5668357e-06 1.8301571e-07
000210 39 9f 4d b4 fe 15 84 34 a5 b2 2d 36 c0 34 ed b5
       -1.9150038e-07 2.4602917e-07 2.5882994e-06 -1.7673228e-06
000220 17 94 b7 36 37 6b 24 b5 bf 0c 41 35 c1 fa 08 b3
       5.471065e-06 -6.125078e-07 7.191665e-07 -3.1893027e-08
000230 b1 01 8f 34 e6 b1 54 37 16 6c 56 37 a9 cc 74 b5
       2.6637056e-07 1.2677605e-05 1.278056e-05 -9.1194903e-07
000240 2b 50 bf b5 e1 5b fa 32 64 13 f7 34 2e a1 53 2f
       -1.4253941e-06 2.9145612e-08 4.6021444e-07 1.9247601e-10
000250 c1 ab 90 34 d2 11 03 b5 1f 6a 81 b4 b0 f9 8d 36
       2.6947058e-07 -4.8827235e-07 -2.4105336e-07 4.231195e-06
000260 74 cd 8c b5 86 4a 1c b8 b4 23 12 35 bd ca 11 b7
       -1.0490608e-06 -3.7262704e-05 5.4441193e-07 -8.689877e-06
000270 42 14 28 b4 4b 6d 18 35 85 9c 06 36 17 e1 d8 33
       -1.5653589e-07 5.6783455e-07 2.0058662e-06 1.00992274e-07
000280 fc e2 83 b6 63 f2 9b 31 1e f4 df b6 70 ff ac b5
       -3.9305287e-06 4.53865e-09 -6.674337e-06 -1.2889341e-06
000290 18 86 eb b3 fb be 53 36 94 5e ab 35 35 7b f2 b4
       -1.0967432e-07 3.1552615e-06 1.2768019e-06 -4.5165658e-07
0002a0 69 20 49 b4 fe 59 80 36 91 d7 31 35 aa af 8d 35
       -1.8731374e-07 3.8251737e-06 6.625133e-07 1.0556444e-06
0002b0 7c f7 94 35 2d 47 81 35 9c 12 f4 b6 69 2c 72 35
       1.1098887e-06 9.631964e-07 -7.273933e-06 9.021665e-07
0002c0 c9 fd 0f b5 7d 1e e4 b5 9a cb ab b5 71 f6 39 b6
       -5.364096e-07 -1.6996197e-06 -1.2799749e-06 -2.7710596e-06
0002d0 07 37 21 36 17 64 77 b4 c7 f5 97 35 13 c9 a4 b4
       2.40229e-06 -2.304008e-07 1.1321907e-06 -3.069368e-07
0002e0 91 5b 26 b7 3a 9e b3 b7 aa 71 2f b6 66 14 06 b6
       -9.9156905e-06 -2.1412143e-05 -2.6143193e-06 -1.997943e-06
0002f0 93 14 34 35 50 71 a3 b4 df a8 52 34 a7 48 16 b5
       6.7085165e-07 -3.0443562e-07 1.9619209e-07 -5.598508e-07
000300 bb e6 6f 34 04 0a ae b5 61 03 b2 36 ef 93 77 b7
       2.2342549e-07 -1.2966925e-06 5.3052067e-06 -1.4756791e-05
000310 c2 bc 23 b6 40 9d a0 37 c4 3a 36 36 e7 f4 ee 34
       -2.4398764e-06 1.9146712e-05 2.715432e-06 4.4509144e-07
000320 7c 58 2a b5 fd 37 ba b4 0e ae de 37 f7 b2 34 b6
       -6.3458697e-07 -3.4685937e-07 2.6545513e-05 -2.6926261e-06
000330 05 50 9b b6 a7 d9 02 b7 0d ea 1b b7 0c 59 71 37
       -4.6286755e-06 -7.79928e-06 -9.293214e-06 1.4385452e-05
000340 40 1f 81 35 d5 74 25 36 b7 c2 df b6 a7 c0 34 b5
       9.620344e-07 2.4654921e-06 -6.6685857e-06 -6.733557e-07
000350 2b 8f ea 33 0f 89 b9 37 b2 71 20 34 c9 c8 28 36
       1.0922516e-07 2.2117541e-05 1.4942523e-07 2.5150823e-06
000360 63 49 b6 b7 bd 3d 04 34 e2 84 09 35 8f 86 0c 36
       -2.1730264e-05 1.2315918e-07 5.1229847e-07 2.093995e-06
000370 7a 50 ce b5 77 e9 b8 35 c9 48 a9 b7 98 f7 67 34
       -1.5371618e-06 1.3777016e-06 -2.0180263e-05 2.1603626e-07
000380 18 fd 4e b6 7e 55 fb b5 24 8e e2 36 9a 90 a6 b4
       -3.0843712e-06 -1.8725839e-06 6.751872e-06 -3.102512e-07
000390 ec d8 ec b6 a4 9d ab b7 91 cb 8e b7 9e 35 d7 36
       -7.058601e-06 -2.0458196e-05 -1.7022512e-05 6.413741e-06
0003a0 19 2b f9 32 81 9d 1d b4 54 c0 79 b3 50 f4 13 36
       2.9007014e-08 -1.4679064e-07 -5.814975e-08 2.2046916e-06
0003b0 2c 11 7f b6 31 48 6f b5 7b 7b d2 b3 7f e4 61 b5
       -3.8007956e-06 -8.913949e-07 -9.801348e-08 -8.415154e-07
0003c0 9b 38 7a 33 1f 6b 5a b5 9e 97 70 b6 16 23 fa 36
       5.8259143e-08 -8.136721e-07 -3.585104e-06 7.454665e-06
0003d0 35 b6 23 35 c8 44 63 b6 18 fc 12 36 25 dc 01 b5
       6.098738e-07 -3.3865672e-06 2.1902433e-06 -4.83766e-07
0003e0 2b 89 15 b6 a5 ca f3 35 28 5b 90 35 24 dd 90 35
       -2.2282572e-06 1.8163888e-06 1.0755366e-06 1.0793196e-06
0003f0 df e0 e0 b8 8b 50 8d 37 1a 49 bf 38 3c fa 15 b8
       -0.00010723038 1.6846016e-05 9.121206e-05 -3.5757417e-05

exp_avg_sq f4 [504, 1]
000000 6a 34 4f 2d a6 9b bd 29 ba 7a 43 2a 75 c4 40 2b
       1.1778226e-11 8.420287e-14 1.7362059e-13 6.848474e-13
000010 e4 38 e7 2c 55 eb 9a 28 3a a7 aa 2a 18 5b 0b 2a
       6.571731e-12 1.7199494e-14 3.0314103e-13 1.2377285e-13
000020 9b 16 81 2b 83 79 06 2d ec 3f 01 2e aa 6d 27 2c
       9.172276e-13 7.643999e-12 2.9387978e-11 2.3793003e-12
000030 d2 c7 b8 29 72 21 1f 2a 2e 97 3d 2b 5f f6 57 2e
       8.205905e-14 1.413364e-13 6.735609e-13 4.910416e-11
000040 cb 03 57 2e bf dd b7 2a c5 4a 21 2b 37 fd 5e 28
       4.888871e-11 3.2661197e-13 5.7302454e-13 1.2378383e-14
000050 04 f5 d0 28 6e 4b 11 27 26 12 32 29 93 ca 3a 2b
       2.3198898e-14 2.0163683e-15 3.953968e-14 6.63616e-13
000060 4a d5 05 2b b3 c3 ce 2c b4 77 1f 2c c2 87 ce 2f
       4.754709e-13 5.876599e-12 2.2661708e-12 3.7567643e-10
000070 fd 37 fa 2b 94 78 fc 2c ee 49 2d 2b f0 88 88 2a
       1.7779108e-12 7.1756576e-12 6.1564545e-13 2.4253472e-13
000080 87 5a 35 2d 35 48 88 29 28 c6 70 2d d7 e0 48 26
       1.030876e-11 6.052139e-14 1.368642e-11 6.9693654e-16
000090 aa 51 37 2d b2 a3 d1 2d 0c 0d 84 2b ce ee d7 2c
       1.0420479e-11 2.3833244e-11 9.382785e-13 6.13718e-12
0000a0 44 f1 94 2a 42 15 32 2a a4 f1 aa 2a 35 68 a7 2c
       2.6457493e-13 1.5816951e-13 3.0365738e-13 4.7579948e-12
0000b0 27 fe 48 29 21 8d d0 2a 98 70 55 2a e2 da a5 2a
       4.4629363e-14 3.704615e-13 1.8957264e-13 2.9461768e-13
0000c0 f9 1b 40 2d 1b 11 a3 2b 3a 9b a5 29 db a2 c1 2c
       1.0920148e-11 1.1586594e-12 7.3543995e-14 5.5034705e-12
0000d0 8e 83 9f 2a c8 69 3e 2d 16 04 08 2b 18 e3 01 29
       2.8335358e-13 1.0823738e-11 4.8322576e-13 2.8840726e-14
0000e0 d7 5d 7e 2a 49 43 98 2d 42 50 0e 2e d6 57 1c 2f
       2.2592289e-13 1.731028e-11 3.2358345e-11 1.4219323e-10
0000f0 54 d7 a0 2b f9 fa 82 2b 85 ae e4 2a d7 89 cb 28
       1.1428449e-12 9.306714e-13 4.0622033e-13 2.2597306e-14
000100 f8 58 62 28 f4 22 a6 29 5c e7 01 2a 4a ea 0b 2b
       1.2564812e-14 7.377944e-14 1.153777e-13 4.970786e-13
000110 69 3f 2a 2e e1 7a 8a 2e 02 38 cd 2b dd b9 88 2e
       3.8709844e-11 6.297341e-11 1.4581671e-12 6.21758e-11
000120 ba b4 a2 2c 99 d5 b7 2a a8 18 8e 2a b9 c7 74 28
       4.6243816e-12 3.2655543e-13 2.5241376e-13 1.3588029e-14
000130 0b 9d f2 2e 88 bd c0 2b 9a 8b a6 2d 00 86 cd 2d
       1.1032782e-10 1.3695026e-12 1.893401e-11 2.336531e-11
000140 7c 99 58 2e a0 01 b9 2e 2b 0d 1b 2d 96 45 1d 2d
       4.9249035e-11 8.4131146e-11 8.813654e-12 8.939868e-12
000150 e6 ba a4 2c ec 77 69 2a b0 cb 1e 2a d4 58 59 2f
       4.6819102e-12 2.0736163e-13 1.4103887e-13 1.9767593e-10
000160 c1 e8 c8 2b 37 5d 48 2b 58 3e b6 2e 13 60 b0 28
       1.4275457e-12 7.1183635e-13 8.287476e-11 1.958159e-14
000170 0b fe 82 29 52 bb 3b 2b e7 b7 e1 2a 66 07 25 2c
       5.817229e-14 6.6695705e-13 4.0095637e-13 2.3452017e-12
000180 44 8b 3e 2f 00 a5 05 29 52 63 1a 2c f2 3c 4a 2c
       1.7329876e-10 2.9675047e-14 2.193985e-12 2.8739758e-12
000190 b6 a8 58 2d 0c 5b 5b 2a 98 e8 24 2d 3a f7 c8 2e
       1.231564e-11 1.9482696e-13 9.373967e-12 9.138863e-11
0001a0 2b 49 52 2e d4 72 80 2d 9b 24 03 29 c0 28 c4 27
       4.7813458e-11 1.460291e-11 2.9119593e-14 5.444511e-15
0001b0 d8 c7 00 2c 47 e4 65 2c 9a 3d 82 2d 37 96 59 2a
       1.830083e-12 3.2669577e-12 1.4806645e-11 1.9325588e-13
0001c0 97 09 78 2d bf 6b 98 29 13 df ae 28 1d d2 f2 29
       1.4099297e-11 6.768847e-14 1.9414624e-14 1.0783408e-13
0001d0 58 da 3f 2d 54 8f e0 2d e8 4b af 2a 88 c8 92 2b
       1.0905575e-11 2.5529502e-11 3.1138915e-13 1.0429583e-12
0001e0 1e 2c 3f 2c ed f0 29 2d 24 5e 0d 2b a6 7f ed 2a
       2.7167222e-12 9.660034e-12 5.022391e-13 4.218823e-13
0001f0 38 5e 33 2b d8 b1 4f 2c 4a 22 93 2d dc 21 d0 29
       6.372433e-13 2.9515192e-12 1.6727193e-11 9.242929e-14
000200 fd 27 2c 2a 87 9a 1d 2b 5a f5 e3 2c 04 f1 50 28
       1.5290543e-13 5.5992055e-13 6.4789675e-12 1.1598581e-14
000210 a8 f2 bf 2a 29 04 e2 29 ec e5 66 2b c1 50 15 2d
       3.4096792e-13 1.0037138e-13 8.2031495e-13 8.4876e-12
000220 be 16 04 2e 3c f7 1a 2c d8 03 98 29 a8 b7 24 2a
       3.0033524e-11 2.2021959e-12 6.750823e-14 1.4629845e-13
000230 10 30 39 2b 30 7e 39 2e 11 8b 5e 2e 4b e3 96 2a
       6.5791903e-13 4.2176207e-11 5.060047e-11 2.680307e-13
000240 11 43 00 2b 08 95 a3 28 3b 2d c5 28 2b cd db 26
       4.556781e-13 1.8161267e-14 2.189101e-14 1.5251789e-15
000250 76 66 17 29 5a f0 17 2b 3a dc 06 2b ba d3 aa 2c
       3.3617606e-14 5.397953e-13 4.791199e-13 4.855197e-12
000260 d6 4a 35 2c 58 e7 fd 2f 8e df 17 2c 54 73 bb 2c
       2.576319e-12 4.6184812e-10 2.1582488e-12 5.3276637e-12
000270 b1 5d 3d 2b 79 c8 7d 2a 89 3d 22 2d 9c 51 a5 29
       6.727631e-13 2.2540467e-13 9.222297e-12 7.341629e-14
000280 c8 6f a8 2d ac dd 35 26 c7 4e 21 2d d5 4a c7 2d
       1.914903e-11 6.309741e-16 9.1692825e-12 2.2656913e-11
000290 2c e1 6c 2b 8a a7 f5 2c 44 91 89 2a 8f ca 20 2a
       8.415653e-13 6.9819194e-12 2.4436887e-13 1.4281131e-13
0002a0 a3 9d b0 2a 7c b2 ad 2c f7 6a 06 29 9e dc e6 2a
       3.1373263e-13 4.9367715e-12 2.9846754e-14 4.100929e-13
0002b0 83 31 4a 2a 1e 7d a3 2a f0 04 2c 2d 23 70 63 2b
       1.7958382e-13 2.9041434e-13 9.778164e-12 8.080222e-13
0002c0 a8 36 9c 29 09 1a be 2c c1 7a ac 2a 0f bf 56 2d
       6.937273e-14 5.4030153e-12 3.0638515e-13 1.2206915e-11
0002d0 7f 77 eb 2a b6 c7 e1 28 16 81 90 2a d9 d0 a9 2d
       4.1827303e-13 2.5066629e-14 2.566911e-13 1.9305823e-11
0002e0 a2 b0 f3 2d e8 39 19 2f bd 20 71 2b 84 f1 82 2b
       2.7704342e-11 1.3935841e-10 8.5665833e-13 9.30409e-13
0002f0 5e c2 fe 2a 25 52 df 28 e8 56 9a 28 51 0f a7 29
       4.5254333e-13 2.4793598e-14 1.7135124e-14 7.418947e-14
000300 b8 d5 e3 29 22 a1 ec 2a c9 5f 3b 2e 0e c1 a0 2e
       1.01178994e-13 4.203383e-13 4.260395e-11 7.310251e-11
000310 75 7a ab 2b a9 a3 7f 2e b9 29 81 2c 2a 02 73 2a
       1.2184269e-12 5.8125647e-11 3.6710327e-12 2.1583486e-13
000320 af a1 85 2a db eb 75 28 a8 a8 eb 2e ed c4 c8 2b
       2.3737736e-13 1.3651375e-14 1.0716522e-10 1.4265513e-12
000330 7e da d4 2d e0 f1 05 2e 38 4d 4e 2e bf a7 a7 2e
       2.419864e-11 3.0455527e-11 4.690756e-11 7.6240785e-11
000340 96 3a 11 2d 31 31 09 2d a3 ef b5 2c af cb 5a 2a
       8.255304e-12 7.798471e-12 5.1709344e-12 1.9432956e-13
000350 91 25 3e 2a bc 68 7b 2f 56 31 e9 2b 88 f4 04 2b
       1.6888423e-13 2.2865526e-10 1.6569339e-12 4.7235176e-13
000360 66 87 9c 2e b1 fc 61 28 cc 16 5d 29 18 74 2d 2b
       7.11811e-11 1.2544803e-14 4.909163e-14 6.162306e-13
000370 c9 f6 ff 2a cd bc 22 2c e0 63 35 2f 0b ee 10 29
       4.546834e-13 2.312639e-12 1.6497337e-10 3.2180892e-14
000380 92 13 20 2c 73 14 88 2c ee ab 41 2d 34 35 3e 2a
       2.2748231e-12 3.867623e-12 1.1008956e-11 1.6893849e-13
000390 07 6a 34 2d 50 b6 b0 2e 84 d1 4b 2e f8 a0 6d 2d
       1.0255358e-11 8.0359386e-11 4.6342943e-11 1.35076325e-11
0003a0 ee 73 ee 28 d8 84 ce 27 ed 5d 12 2c 54 ac 42 2c
       2.6473584e-14 5.7320515e-15 2.0799987e-12 2.766472e-12
0003b0 90 ec 93 2d 87 09 4e 2a ae 38 74 2d 3a 7b 9c 29
       1.681702e-11 1.8299781e-13 1.388238e-11 6.949168e-14
0003c0 c2 fc 11 28 26 02 96 29 fd f0 1a 2d 64 45 ee 2d
       8.103925e-15 6.661711e-14 8.807397e-12 2.7088283e-11
0003d0 2c d8 a6 2a d7 fa 59 2b 89 bd 28 2c 49 45 2b 2d
       2.9637523e-13 7.7441997e-13 2.397945e-12 9.735609e-12
0003e0 45 b8 30 2b 90 6c 08 2b 5a 90 23 2b bc 37 4b 2c
       6.2783486e-13 4.8467567e-13 5.810956e-13 2.8878974e-12
0003f0 e9 ba 8a 31 57 b9 cd 2f 4c 8c f0 30 f3 3a 8b 2f
       4.037578e-09 3.7420975e-10 1.7502173e-09 2.532584e-10

exp_avg f4 [504, 126]
000000 b6 60 34 b7 ef 93 2e b6 45 8e 96 b5 fc fd ce b6
       -1.0751353e-05 -2.601413e-06 -1.1217277e-06 -6.168846e-06
000010 8f 81 12 b7 a2 89 b9 b4 f6 e7 bb b6 41 42 b2 b5
       -8.732443e-06 -3.4559076e-07 -5.600038e-06 -1.3281316e-06
000020 cb 66 90 35 c4 8e 6b 36 a5 e8 83 36 0d f5 c0 b6
       1.0758753e-06 3.510083e-06 3.9311876e-06 -5.7505736e-06
000030 d5 d1 ac b5 d3 fa a8 35 a5 b1 d2 b6 14 07 3b 37
       -1.2876068e-06 1.2589975e-06 -6.2791682e-06 1.1147717e-05
000040 8a 7d fc 36 d1 e2 1c 35 0c 66 86 b6 02 7e 6e b5
       7.5248e-06 5.844459e-07 -4.005391e-06 -8.8845275e-07
000050 19 5d 95 b5 98 41 93 b4 01 22 2e b6 ed 9c 1a b5
       -1.112846e-06 -2.742861e-07 -2.5947813e-06 -5.759783e-07
000060 f6 9e bd b6 07 b3 9b 36 25 d3 24 36 88 34 25 37
       -5.6511444e-06 4.6402015e-06 2.4560807e-06 9.846997e-06
000070 21 d3 41 35 af 7c d5 35 77 7a 7d 36 d1 5f 3f b6
       7.2205336e-07 1.5906024e-06 3.7771222e-06 -2.851699e-06
000080 e9 5d b5 b6 7f 28 6c b6 62 8a ae 36 f5 27 33 b5
       -5.405153e-06 -3.5190312e-06 5.201714e-06 -6.674084e-07
000090 fc 2d 4d 36 6f cd 11 b7 10 45 84 36 3b 6b 18 37
       3.0574147e-06 -8.690505e-06 3.9419465e-06 9.0848725e-06
0000a0 b9 b5 d4 36 4f d6 3b b5 75 20 e4 b6 c1 3b eb b6
       6.3392476e-06 -6.997479e-07 -6.798708e-06 -7.010502e-06
0000b0 73 d3 03 35 da 50 25 35 ec 9b 86 b6 d7 50 95 b6
       4.9109e-07 6.1584944e-07 -4.011663e-06 -4.449957e-06
0000c0 e9 81 13 36 14 02 b4 b5 e7 11 1b b6 29 b5 81 36
       2.1980325e-06 -1.341165e-06 -2.310722e-06 3.8655894e-06
0000d0 f1 cb 20 b6 89 73 01 36 40 c8 e1 b6 41 2e 18 b6
       -2.3960567e-06 1.9289748e-06 -6.7288347e-06 -2.2676688e-06
0000e0 94 00 a4 34 85 d4 36 36 a2 d3 af 36 30 ac 3c 37
       3.05478e-07 2.7243816e-06 5.2400437e-06 1.1245764e-05
0000f0 e4 06 b8 35 83 fd 01 b7 c8 77 04 b7 7a 31 09 b6
       1.3711074e-06 -7.7480245e-06 -7.895702e-06 -2.044339e-06
000100 6b 98 d8 b5 cb ee d1 b6 c6 75 fa b5 d6 60 b2 36
       -1.6137614e-06 -6.2564845e-06 -1.8660728e-06 5.3160866e-06
000110 0c 74 83 36 42 fe b1 36 03 24 af b6 2b aa 01 37
       3.917614e-06 5.3046106e-06 -5.2195987e-06 7.7286195e-06
000120 c3 0a af 36 4c 44 21 36 ce 9d 59 b6 de ba 06 b6
       5.2166592e-06 2.4030624e-06 -3.2427374e-06 -2.0076327e-06
000130 22 8b c5 36 74 58 b9 b6 2e 4c 91 36 ca 4b 14 37
       5.8872547e-06 -5.523727e-06 4.3302052e-06 8.839133e-06
000140 55 76 f1 36 94 d9 b5 36 62 48 e4 35 f3 56 59 b7
       7.1961354e-06 5.41955e-06 1.700839e-06 -1.2954452e-05
000150 60 d6 a4 36 b2 8e f4 35 45 a2 4e b6 6a 91 ea 36
       4.9125374e-06 1.8220946e-06 -3.0790845e-06 6.990672e-06
000160 e2 e3 d9 35 2a 8c cb 34 0b 8c 02 37 56 e0 26 b5
       1.6234083e-06 3.791368e-07 7.78121e-06 -6.216627e-07
000170 21 2f 96 b5 ad e7 f1 35 8e 60 f4 b5 50 3d fd b6
       -1.1189587e-06 1.8023326e-06 -1.8207518e-06 -7.5471253e-06
000180 ce a9 41 37 6d 23 76 b6 cd 32 bc b6 a1 bb 39 36
       1.1543232e-05 -3.6677477e-06 -5.6087506e-06 2.7676363e-06
000190 60 53 0d b7 2a b0 9a b6 37 97 e6 36 4d 89 cc 36
       -8.423667e-06 -4.610066e-06 6.872138e-06 6.0956577e-06
0001a0 40 22 fb 36 6d ec ad 36 b3 a6 38 36 5e 00 4f b4
       7.48437e-06 5.1833254e-06 2.7515168e-06 -1.9278511e-07
0001b0 fa 79 4c 37 ec 05 96 b5 f5 b5 b7 36 07 9c 31 b6
       1.2187747e-05 -1.1177594e-06 5.4750076e-06 -2.6465875e-06
0001c0 d5 c5 7c b7 ba 93 a7 b6 89 95 b4 34 c5 53 00 35
       -1.5066432e-05 -4.9941855e-06 3.3636414e-07 4.7805617e-07
0001d0 f1 65 4e 36 9e 16 db 36 46 20 16 b6 47 4a e7 35
       3.075573e-06 6.5293416e-06 -2.2370527e-06 1.7232459e-06
0001e0 33 cc 06 37 dd ba 52 36 25 0d b7 36 a8 c8 10 b7
       8.034566e-06 3.1401207e-06 5.455355e-06 -8.629788e-06
0001f0 cf d7 0b b7 bd eb 0e b5 7a 8b 7f 35 bf 56 78 34
       -8.3352925e-06 -5.3242167e-07 9.519787e-07 2.3128358e-07
000200 cb 9f cb 33 ef 3b 10 35 ac 53 50 35 5f c1 10 33
       9.48199e-08 5.3731395e-07 7.7607797e-07 3.3703483e-08
000210 ee f0 05 35 60 54 01 34 40 8c c7 b3 9d 5a aa b4
       4.989696e-07 1.2044757e-07 -9.292171e-08 -3.1730897e-07
000220 a4 d3 bc b4 f0 34 09 35 e2 50 ee 33 54 ce f5 b3
       -3.5171718e-07 5.111351e-07 1.1097451e-07 -1.14462324e-07
000230 84 f3 14 35 69 27 83 b5 16 bd 30 b5 cc 1e 7b b3
       5.548866e-07 -9.77173e-07 -6.5840266e-07 -5.84685e-08
000240 fa 84 ba 34 6b e4 9c 33 1e 05 cd 33 7a 7d d6 32
       3.4741953e-07 7.305865e-08 9.546987e-08 2.4969939e-08
000250 15 10 75 34 9b 1f 3c 33 18 79 07 35 24 51 d9 b4
       2.2823254e-07 4.3800906e-08 5.0467634e-07 -4.0478437e-07
000260 0c 81 6e b4 a5 e0 6a b5 eb c4 8f b3 36 05 0f b4
       -2.2212424e-07 -8.7498694e-07 -6.6947756e-08 -1.3319809e-07
000270 56 60 b3 b4 ea 13 88 34 d6 c7 01 35 54 de a3 34
       -3.3411442e-07 2.5346463e-07 4.8347044e-07 3.052288e-07
000280 a4 e6 f9 b4 52 5d 74 33 d8 2c 91 b4 22 c0 4f 35
       -4.6547677e-07 5.689555e-08 -2.7040983e-07 7.73931e-07
000290 fb 32 bd b4 b7 27 58 b5 ea cd 14 b5 53 2e 7c 33
       -3.5241086e-07 -8.0524063e-07 -5.543394e-07 5.8715454e-08
0002a0 96 79 22 35 b2 e8 26 35 8f fc 2c b3 ed c3 68 b3
       6.0526634e-07 6.2178435e-07 -4.027657e-08 -5.4194903e-08
0002b0 dc 5f bc 34 59 31 d2 34 6a 22 50 b4 9b 42 07 34
       3.5087476e-07 3.9151453e-07 -1.938403e-07 1.2597086e-07
0002c0 e3 33 5a 34 6f c6 b9 b4 55 96 5e 34 36 22 3d b4
       2.0321708e-07 -3.4603315e-07 2.0730052e-07 -1.7614443e-07
0002d0 55 af 1f 35 02 47 58 34 4a 2b fc b2 fd 72 84 b4
       5.948726e-07 2.01424e-07 -2.9356347e-08 -2.467058e-07
0002e0 01 ca f5 b4 98 84 85 b5 17 5d fd b3 bd cf 35 35
       -4.5781783e-07 -9.947862e-07 -1.17981635e-07 6.7730053e-07
0002f0 89 5e 3b 35 38 5c 3d 34 53 45 1d 34 60 fb 13 35
       6.9800495e-07 1.7635546e-07 1.4646984e-07 5.5127566e-07
000300 35 fd 2e 34 e2 a1 f9 b4 9a 81 bb b4 50 d0 fd b4
       1.6297129e-07 -4.649765e-07 -3.4925762e-07 -4.727649e-07
000310 21 d4 f4 34 a5 8d 36 b5 a6 e5 f4 b4 9f b7 68 b4
       4.5602886e-07 -6.8006403e-07 -4.5615633e-07 -2.1673485e-07
000320 8a 71 9a 34 6d 0a 39 34 78 b6 0a b5 e8 f9 01 35
       2.8767346e-07 1.723326e-07 -5.1674533e-07 4.8419906e-07
000330 95 38 d0 b4 27 e0 52 b5 ff f2 2a b5 6b fc ff b4
       -3.8784188e-07 -7.855728e-07 -6.368354e-07 -4.768111e-07
000340 c9 5b 27 b4 e4 11 99 35 fa 84 e5 b4 e2 2a 2d b4
       -1.5586478e-07 1.1404595e-06 -4.2751327e-07 -1.6127481e-07
000350 12 c3 90 34 68 1b 26 b5 0c f2 1e b4 ad 0e fe b2
       2.6964022e-07 -6.18797e-07 -1.4802953e-07 -2.9576166e-08
000360 54 1b 37 b5 ad e6 75 33 4a 28 cb 33 90 89 26 b4
       -6.821258e-07 5.7253306e-08 9.460253e-08 -1.551e-07
000370 28 7c 28 34 c7 93 34 35 d9 aa 88 b5 3e 2e ae 34
       1.5691387e-07 6.727027e-07 -1.0182513e-06 3.244367e-07
000380 63 f6 03 35 f8 0a 86 b4 f9 b8 45 35 9d 89 dd 34
       4.915984e-07 -2.4967426e-07 7.365739e-07 4.1264585e-07
000390 b0 79 21 b5 31 2f 10 b5 cd 33 30 b5 57 6e f4 b4
       -6.015425e-07 -5.371285e-07 -6.564049e-07 -4.5528824e-07
0003a0 16 0b 7f b4 b6 aa 9a 32 2a 3f 91 b5 d4 1e c2 33
       -2.3752759e-07 1.800559e-08 -1.0821725e-06 9.0394366e-08
0003b0 79 87 03 b5 b6 77 76 34 16 76 b2 35 7f a8 e9 34
       -4.899844e-07 2.2954086e-07 1.3296401e-06 4.352223e-07
0003c0 53 e5 14 b3 74 79 2e b3 b6 3c 92 b4 1f 2c 1b b5
       -3.4667504e-08 -4.0622993e-08 -2.7238792e-07 -5.7806204e-07
0003d0 d7 2a 59 34 d8 d1 1b b4 49 ee 3c b5 e4 bc 98 b4
       2.0225285e-07 -1.451184e-07 -7.038221e-07 -2.8449642e-07
0003e0 f6 c7 02 b5 53 e0 4a 35 dd 7c 45 35 d3 6d 2a 33
       -4.8719755e-07 7.55773e-07 7.356992e-07 3.9681094e-08
0003f0 1f dd 69 35 f6 ad 5e 34 0b f8 f6 33 08 4a 12 35
       8.712104e-07 2.0738648e-07 1.15003864e-07 5.449697e-07

exp_avg_sq f4 [504, 126]
000000 42 3d 82 2c 6c 6b 74 2a 60 15 3c 29 52 c5 a7 2b
       3.701623e-12 2.1708823e-13 4.1762926e-14 1.1920831e-12
000010 1b 79 2e 2c 9c 8f 00 28 06 39 8e 2b 65 41 87 29
       2.4794114e-12 7.136568e-15 1.0105534e-12 6.0065485e-14
000020 2e da 2b 29 15 d1 ee 2a e5 5c 11 2b 39 5d 94 2b
       3.8158868e-14 4.2422373e-13 5.1643265e-13 1.0541907e-12
000030 01 30 6f 29 92 5b 86 29 8a c3 b0 2b 93 6e 88 2c
       5.3110297e-14 5.96668e-14 1.2559825e-12 3.8776287e-12
000040 6b 19 f9 2b dc 5f 19 29 b9 11 0b 2b f5 33 07 29
       1.7699569e-12 3.405597e-14 4.9407315e-13 3.0021087e-14
000050 47 24 37 29 9f 28 6e 27 94 fe 6f 2a c0 0a ee 28
       4.0665628e-14 3.3051156e-15 2.1315789e-13 2.642797e-14
000060 3b 0b 92 2b c4 66 3f 2b c1 9d 73 2a b3 1d 59 2c
       1.0377041e-12 6.7999447e-13 2.1637467e-13 3.0854041e-12
000070 fb 67 ab 28 ff 35 c8 29 f3 f8 fa 2a a6 b3 97 2a
       1.9029908e-14 8.891151e-14 4.4581664e-13 2.6947644e-13
000080 b7 41 8a 2b fa 3c d7 2a 40 ba 79 2b 0b 24 81 28
       9.823729e-13 3.8233983e-13 8.8721044e-13 1.4337508e-14
000090 d3 a1 a3 2a d6 40 2b 2c 87 48 12 2b 96 16 3b 2c
       2.9066905e-13 2.4336553e-12 5.197027e-13 2.6586836e-12
0000a0 f8 82 b0 2b fa c9 96 28 ce fb d3 2b fe 52 df 2b
       1.2541903e-12 1.6740939e-14 1.5062342e-12 1.5868138e-12
0000b0 f5 16 38 28 dc 2b 72 28 49 e9 0d 2b d3 36 2e 2b
       1.021903e-14 1.3443209e-14 5.041701e-13 6.18933e-13
0000c0 5b 23 27 2a 25 4c c4 29 8d 5d 3a 2a c6 64 08 2b
       1.4844846e-13 8.7173575e-14 1.6552576e-13 4.8456757e-13
0000d0 85 8f 44 2a 91 05 23 2a cb 90 ca 2b e3 a8 36 2a
       1.745809e-13 1.447924e-13 1.4393151e-12 1.6223442e-13
0000e0 23 b5 94 27 01 53 9a 2a 5a 74 6e 2b 72 63 8c 2c
       4.127464e-15 2.741349e-13 8.4716056e-13 3.99008e-12
0000f0 10 51 82 29 4f 86 02 2c 5a c1 0b 2c d1 5d 10 2a
       5.787222e-14 1.8548667e-12 1.986042e-12 1.2822318e-13
000100 be 4c df 29 b5 dc ab 2b 16 c8 f8 29 1c 09 76 2b
       9.916502e-14 1.2211539e-12 1.1048122e-13 8.74094e-13
000110 4a 5f 0f 2b 9b bb 7e 2b b8 d2 6c 2b 09 60 04 2c
       5.0936046e-13 9.049928e-13 8.4136474e-13 1.8811638e-12
000120 a5 37 70 2b 31 d2 5a 2a 7a 64 bb 2a 57 95 0c 2a
       8.534235e-13 1.9435214e-13 3.3287593e-13 1.248631e-13
000130 24 b0 99 2b c1 5c 84 2b 31 14 2d 2b d1 82 2f 2c
       1.0920193e-12 9.404908e-13 6.148997e-13 2.4941613e-12
000140 96 58 e5 2b 7f 1c 83 2b cb 09 f2 29 65 da b9 2c
       1.6296016e-12 9.316019e-13 1.0748658e-13 5.282263e-12
000150 8b ac 51 2b c2 f0 e9 29 24 ff a8 2a 27 d6 dd 2b
       7.449117e-13 1.03890434e-13 3.0019834e-13 1.5762434e-12
000160 02 44 d5 29 e2 ef 11 28 dc 96 03 2c 4d 77 85 28
       9.4708976e-14 8.101133e-15 1.8699963e-12 1.4817705e-14
000170 1c 04 40 29 b8 37 e7 29 c8 13 e0 29 78 95 03 2c
       4.263613e-14 1.02681264e-13 9.95103e-14 1.8699192e-12
000180 af b5 92 2c f8 33 f1 2a b1 df 88 2b d1 76 92 2a
       4.1697405e-12 4.284626e-13 9.725468e-13 2.6017255e-13
000190 1e 66 1c 2c 3b 8a 45 2b b7 58 cd 2b 3f 20 a3 2b
       2.222562e-12 7.0180293e-13 1.4590749e-12 1.1590797e-12
0001a0 b2 ba f4 2b 34 c9 6d 2b b8 88 86 2a 10 40 0c 27
       1.7389061e-12 8.447854e-13 2.389805e-13 1.9463631e-15
0001b0 83 0a a7 2c 65 d6 81 29 d2 bf 8a 2b 95 1d 70 2a
       4.7475925e-12 5.765942e-14 9.858731e-13 2.1326545e-13
0001c0 71 d9 fc 2c 4c f1 59 2b fe b2 85 28 a2 21 00 28
       7.1864116e-12 7.7428754e-13 1.4843592e-14 7.11272e-15
0001d0 70 a6 a6 2a 8d ec c0 2b a4 2a 40 2a e6 cd e0 29
       2.9603013e-13 1.3708077e-12 1.706782e-13 9.983316e-14
0001e0 6c 89 0d 2c a6 1d c1 2a 10 81 88 2b 27 94 23 2c
       2.011359e-12 3.430426e-13 9.699203e-13 2.3245934e-12
0001f0 56 81 19 2c d1 01 f0 28 74 b1 f8 28 69 2c eb 26
       2.1814404e-12 2.664614e-14 2.7610489e-14 1.6318438e-15
000200 f7 f0 a5 25 67 a4 1b 28 a0 9c a7 28 5a bf 87 24
       2.8786221e-16 8.6398775e-15 1.860865e-14 5.887108e-17
000210 33 79 09 28 7f 27 07 26 a6 06 9d 25 19 72 6c 27
       7.631309e-15 4.689106e-16 2.7239664e-16 3.2813432e-15
000220 9c 44 8d 27 68 c1 0e 28 89 cf d9 25 52 2a 05 26
       3.920975e-15 7.924522e-15 3.778413e-16 4.6201e-16
000230 2c 2f 28 28 12 cd ff 28 fa c1 68 28 08 ec 9d 25
       9.336102e-15 2.8399622e-14 1.2920649e-14 2.73951e-16
000240 33 dc 7f 27 06 b3 65 25 87 29 a6 25 1c e5 e9 23
       3.550773e-15 1.9923239e-16 2.882455e-16 2.5358942e-17
000250 eb 7f e2 26 07 11 4e 25 f4 b1 0d 28 c9 08 b2 27
       1.5716572e-15 1.7873421e-16 7.86566e-15 4.941445e-15
000260 a0 3a f0 26 23 d5 d0 28 c9 2b 31 25 77 f2 2e 26
       1.6669236e-15 2.3185072e-14 1.5367138e-16 6.069698e-16
000270 67 63 6f 27 e7 f5 11 27 ab 24 06 28 86 09 46 27
       3.32218e-15 2.0256096e-15 7.446445e-15 2.7483183e-15
000280 5d f9 f2 27 e5 fd e6 24 e5 2c 1c 27 41 47 a5 28
       6.7438853e-15 1.00176714e-16 2.1673686e-15 1.8349581e-14
000290 e6 d8 8d 27 00 f5 b2 28 9c ac 24 28 ae 68 03 25
       3.9370523e-15 1.9868222e-14 9.1412575e-15 1.1397906e-16
0002a0 27 57 4c 28 05 c7 55 28 1c a7 a0 24 c5 4b e4 24
       1.1343173e-14 1.1867031e-14 6.9672033e-17 9.90076e-17
0002b0 ee 92 84 27 99 76 a4 27 bc 70 9e 26 e6 ce 49 26
       3.679666e-15 4.5647728e-15 1.0994009e-15 7.0016283e-16
0002c0 d9 45 b0 26 30 fe 84 27 90 d0 b3 26 b6 76 a2 26
       1.2231386e-15 3.691295e-15 1.2477151e-15 1.1273185e-15
0002d0 66 ff 40 28 1b a1 af 26 13 80 1f 24 92 0a 18 27
       1.0713522e-14 1.2186732e-15 3.4586112e-17 2.1099968e-15
0002e0 da 5e de 27 a0 e8 05 29 60 eb eb 25 45 84 73 28
       6.1720216e-15 2.9733702e-14 4.0925498e-16 1.3517891e-14
0002f0 da 0a 85 28 54 20 83 26 d9 52 5c 26 c2 a4 22 28
       1.4770672e-14 9.098714e-16 7.644011e-16 9.028533e-15
000300 97 ce 67 26 90 db e5 27 57 6a 8a 27 0d 50 f6 27
       8.0424206e-16 6.379832e-15 3.841799e-15 6.8365507e-15
000310 22 ea dc 27 59 12 7a 28 b2 29 e0 27 2d 08 d8 26
       6.1316114e-15 1.3881766e-14 6.2217696e-15 1.4990227e-15
000320 fc 72 33 27 ac 1c 7d 26 c9 7a 10 28 53 5d f8 27
       2.4903573e-15 8.7815866e-16 8.0202306e-15 6.893501e-15
000330 7d b1 a8 27 79 e2 a8 28 77 d4 5a 28 d8 97 f7 27
       4.68218e-15 1.8749964e-14 1.2147502e-14 6.87209e-15
000340 7e 7f 74 26 29 9e 2f 29 53 7f c2 27 0a 3a 5f 26
       8.482729e-16 3.8994988e-14 5.398386e-15 7.7447325e-16
000350 1d 24 1e 27 64 86 53 28 1c bd 55 26 16 b7 76 24
       2.1946482e-15 1.1741994e-14 7.415551e-16 5.3497827e-17
000360 a3 02 77 28 76 b0 07 25 75 bc aa 25 84 89 51 26
       1.3711826e-14 1.1769171e-16 2.9618003e-16 7.269781e-16
000370 c6 22 4b 26 16 18 7e 28 f5 43 0b 29 28 b7 65 27
       7.04769e-16 1.4105055e-14 3.0923143e-14 3.1879423e-15
000380 8c 6a 00 28 0a 64 10 27 47 f9 91 28 ca 57 c0 27
       7.128531e-15 2.0038246e-15 1.620634e-14 5.3385886e-15
000390 96 33 40 28 78 80 1a 28 9a ec 65 28 80 b8 df 27
       1.0669327e-14 8.5765745e-15 1.2763358e-14 6.209497e-15
0003a0 58 31 f6 26 ef ea 8d 23 67 60 20 29 77 fe df 25
       1.7083054e-15 1.5386749e-17 3.5610752e-14 3.8856766e-16
0003b0 1f 0d 07 28 ed 8a dc 26 ba 16 70 29 a7 39 ca 27
       7.496851e-15 1.5303222e-15 5.3310417e-14 5.612877e-15
0003c0 e3 09 06 25 2c 7b 61 24 0c 68 1f 27 87 12 38 28
       1.1625997e-16 4.889343e-17 2.2122087e-15 1.0218069e-14
0003d0 2c 75 be 26 ce 0b 45 26 39 79 84 28 2b e4 3f 27
       1.3215658e-15 6.8364103e-16 1.4707516e-14 2.6630265e-15
0003e0 b5 63 04 28 4c 2b 99 28 86 c9 91 28 73 bf 51 25
       7.3490925e-15 1.700519e-14 1.618563e-14 1.8192726e-16
0003f0 a7 b4 f3 28 5d e1 da 26 22 c4 29 26 27 62 4c 28
       2.7056765e-14 1.5187874e-15 5.8899463e-16 1.1345558e-14

exp_avg f4 [504]
000000 b0 ad 21 39 a7 31 64 b7 2b 8c 56 b7 1e a9 06 38
       0.0001541886 -1.360142e-05 -1.2788029e-05 3.2105592e-05
000010 9f 0b bc 38 45 c1 23 b6 1d 6d fb b7 36 b0 62 b7
       8.966703e-05 -2.440139e-06 -2.9972342e-05 -1.3511677e-05
000020 5a 88 12 38 b3 8c e6 b8 af 9a 72 39 37 ba 29 b8
       3.49361e-05 -0.00010993462 0.00023136543 -4.0466166e-05
000030 eb 95 3d 37 8f 04 0f 36 d4 bb fa 37 b3 88 87 39
       1.1300183e-05 2.1311314e-06 2.9889787e-05 0.00025851055
000040 e5 23 91 39 41 a8 f3 36 62 75 13 b8 da d7 a1 35
       0.000276833 7.2615517e-06 -3.5156852e-05 1.2058256e-06
000050 bd 77 87 36 b6 eb fc 35 9c 21 2b 37 cd 11 df 36
       4.037253e-06 1.8844064e-06 1.020022e-05 6.64799e-06
000060 68 1f b6 b7 d8 dd c8 38 f5 2f 82 38 02 e6 45 ba
       -2.1710715e-05 9.578065e-05 6.207816e-05 -0.00075492274
000070 6d d7 45 b8 6d 4b a0 b8 ec 0d 05 b8 94 8a cb 37
       -4.716909e-05 -7.643444e-05 -3.1722637e-05 2.4264016e-05
000080 25 31 0d 39 be c3 e0 b6 66 96 0c b9 64 d9 8d b5
       0.00013465116 -6.6985076e-06 -0.00013407468 -1.0568588e-06
000090 c3 20 fe b8 77 f6 5e b9 f8 c1 1d 38 3e eb ef 38
       -0.00012117766 -0.00021263385 3.7612364e-05 0.00011440225
0000a0 b0 1f a0 37 1b 0a 91 b6 a1 a2 73 37 82 c3 c5 38
       1.9088242e-05 -4.322513e-06 1.4521794e-05 9.430108e-05
0000b0 95 77 b7 36 1f 2c e3 37 9a cb 6c 37 d8 fb 8b 37
       5.467746e-06 2.7081054e-05 1.4114101e-05 1.6687365e-05
0000c0 c5 af 03 b9 07 4c 8c b7 af dc 4e b7 49 45 ca b8
       -0.00012558613 -1.6724704e-05 -1.2329939e-05 -9.645016e-05
0000d0 3c 5e c2 b7 ec 80 ea 38 69 18 fe 36 e4 f6 03 b7
       -2.3170483e-05 0.00011182003 7.5726316e-06 -7.865692e-06
0000e0 c4 42 58 b7 36 ee 1d 39 14 4b 65 b9 0f cf dc b9
       -1.2890148e-05 0.00015061427 -0.0002186711 -0.0004211594
0000f0 90 a5 0b b8 ed 9f 26 b8 92 5a c5 37 bc f8 fc b6
       -3.3294375e-05 -3.9726427e-05 2.3526405e-05 -7.5391417e-06
000100 72 e6 e1 36 20 2e 46 b7 5f 51 64 37 f3 02 ad b7
       6.73235e-06 -1.1812459e-05 1.3608805e-05 -2.062458e-05
000110 4c 1f 2e 39 0e b3 ba b9 2c 1d 6f b8 c8 c7 8d 39
       0.00016605592 -0.0003561009 -5.700921e-05 0.00027042464
000120 30 97 a9 38 73 51 61 b7 2a 18 87 b7 2b 0b 36 b4
       8.086709e-05 -1.3430009e-05 -1.6104506e-05 -1.6954134e-07
000130 bd c9 d7 39 92 90 5a b8 ed 50 29 b9 08 48 17 b9
       0.00041158302 -5.2109892e-05 -0.00016147243 -0.00014427316
000140 48 8a 90 b9 ba a8 ab 39 46 15 a5 b8 b0 56 f3 38
       -0.00027568848 0.00032741373 -7.8717756e-05 0.0001160329
000150 cd c3 a3 b8 87 01 94 b7 c5 69 2d 37 62 b8 09 3a
       -7.8089164e-05 -1.7643686e-05 1.033623e-05 0.00052536104
000160 f5 8d 1c b8 f6 49 9c 37 a6 f4 c2 b9 06 ff 98 b5
       -3.7325506e-05 1.863109e-05 -0.0003718484 -1.1399104e-06
000170 74 80 c5 36 59 b8 08 38 6b 68 d9 b7 f6 e5 6f 38
       5.8860114e-06 3.2596614e-05 -2.591704e-05 5.719621e-05
000180 df 11 00 ba 68 32 30 b5 e5 93 8d b8 66 69 82 b8
       -0.00048854755 -6.563846e-07 -6.7509514e-05 -6.218515e-05
000190 4c 78 1c 39 d0 86 d9 35 1d 69 df b8 20 5a cb b9
       0.00014922133 1.6206995e-06 -0.000106530475 -0.00038786326
0001a0 c4 03 40 b9 bb bd 16 39 fa 50 ba 35 ea d8 13 36
       -0.0001831195 0.00014375795 1.3881647e-06 2.2030968e-06
0001b0 2b 9d 46 b8 90 51 96 36 8a 91 0e b9 d3 f5 a3 b7
       -4.7353253e-05 4.4798435e-06 -0.00013596393 -1.9545585e-05
0001c0 b2 7a 1d 39 62 53 f5 36 8a ce aa b5 93 83 36 b7
       0.00015018394 7.311276e-06 -1.2726098e-06 -1.087868e-05
0001d0 19 91 00 b9 1c 84 73 39 e4 e6 4b b7 9a a7 ea b7
       -0.00012261084 0.000232235 -1.2153501e-05 -2.797302e-05
0001e0 bb 13 99 38 c6 94 c4 b8 45 50 09 b8 08 5d f5 34
       7.2992836e-05 -9.3737195e-05 -3.2738102e-05 4.5702495e-07
0001f0 c9 93 1a b7 47 14 b4 b7 3d 41 41 39 e9 16 6f b7
       -9.213524e-06 -2.1467114e-05 0.00018430217 -1.4250844e-05
000200 ad 44 58 b7 36 8e fc 37 8f 51 c1 38 e9 e5 04 b6
       -1.2890593e-05 3.0106963e-05 9.2181486e-05 -1.9803358e-06
000210 05 4c 05 b8 a7 a8 4d b7 60 f6 10 38 f0 a6 e6 b8
       -3.178047e-05 -1.225822e-05 3.456173e-05 -0.00010998349
000220 99 8d 6e 39 cd b7 29 b8 6c df 34 37 9f 03 26 36
       0.00022750198 -4.0463918e-05 1.07808555e-05 2.4738035e-06
000230 33 5c f8 37 1f a4 7e 39 dc de 95 39 77 cf e7 36
       2.9606837e-05 0.00024284468 0.00028585538 6.9084886e-06
000240 c0 d4 07 b8 c9 0d a0 35 51 19 89 36 de 02 ed 35
       -3.2384647e-05 1.1924941e-06 4.0858654e-06 1.765871e-06
000250 07 30 19 37 49 c6 a7 36 1e 9b bb b7 b5 1d b9 38
       9.130693e-06 5.0000713e-06 -2.236437e-05 8.827021e-05
000260 55 72 89 38 a4 65 59 ba 57 7c 52 b8 ee 01 95 b8
       6.553965e-05 -0.00082930387 -5.0183702e-05 -7.105233e-05
000270 05 2d 0c b8 a3 6d c2 37 62 13 0a 39 f9 be f8 b6
       -3.342053e-05 2.3177656e-05 0.00013167926 -7.413208e-06
000280 60 10 21 b9 53 c4 8a b5 15 1c ed b8 0d b8 60 b9
       -0.00015360257 -1.0338939e-06 -0.00011306271 -0.00021430869
000290 6a 2c 1e 38 10 f8 00 39 1c 27 9f 37 35 ed 87 b6
       3.77115e-05 0.00012299442 1.8972489e-05 -4.050928e-06
0002a0 e9 a3 77 37 30 ac ca 38 b0 dc a1 36 ff c6 e6 37
       1.4760511e-05 9.664183e-05 4.8238653e-06 2.7510801e-05
0002b0 47 0a 68 37 81 e8 8a 37 d0 7a fc b8 95 e8 89 b7
       1.38306705e-05 1.655915e-05 -0.00012039172 -1.6439977e-05
0002c0 3d c1 45 b7 b0 d9 c6 b8 1f 24 cf b7 01 4f 01 39
       -1.1787107e-05 -9.481923e-05 -2.4693143e-05 0.0001233183
0002d0 0c b4 f9 36 99 d7 f1 b6 b7 b0 4d b7 8b fd 20 39
       7.4417385e-06 -7.2074586e-06 -1.2260097e-05 0.00015353241
0002e0 06 7c 5b b9 c1 e8 d9 b9 ed f0 01 b8 63 80 2a b8
       -0.0002093167 -0.0004156288 -3.0980376e-05 -4.0650728e-05
0002f0 f1 c0 d3 37 ae 75 02 b7 a7 c8 ef 36 1f c2 45 b7
       2.5243005e-05 -7.776003e-06 7.146114e-06 -1.1787312e-05
000300 44 85 4f 37 36 e9 a2 b7 bf 92 33 39 f5 a0 c5 b9
       1.236919e-05 -1.9420502e-05 0.00017125437 -0.0003769469
000310 bd e5 5c b8 d8 ea 89 39 8c 49 97 38 71 65 44 b7
       -5.2666048e-05 0.00026305648 7.21394e-05 -1.1706129e-05
000320 98 ad 87 b7 d2 3a 6c 34 48 88 d7 39 ac 7e 63 b8
       -1.617409e-05 2.2000611e-07 0.00041109533 -5.423899e-05
000330 eb 06 3f b9 fa 21 29 b9 99 ae 8c b9 82 1c a3 39
       -0.00018217757 -0.00016129753 -0.00026832966 0.00031111023
000340 76 e8 a6 b8 fe f1 e1 38 76 e3 b0 b8 df 3e 90 b7
       -7.958796e-05 0.000107739106 -8.434702e-05 -1.7195414e-05
000350 f8 2b 37 37 6d eb 13 3a 69 14 23 b8 f6 2a 8a 37
       1.0917887e-05 0.0005642686 -3.8881237e-05 1.6470887e-05
000360 32 64 b9 b9 1e c1 8f b5 2f 84 ce 36 2c dd 08 38
       -0.000353606 -1.0710535e-06 6.1546666e-06 3.263091e-05
000370 7b 54 f3 b7 45 e8 72 38 eb 34 f9 b9 ec ef 3e b5
       -2.9007197e-05 5.7913614e-05 -0.00047532408 -7.112965e-07
000380 9a 03 90 b8 d7 7c 8f b8 c1 5a 15 39 d0 d1 bc 35
       -6.867126e-05 -6.8420246e-05 0.00014243556 1.4068155e-06
000390 3c 12 ee b8 76 73 be b9 07 25 3f b9 48 20 12 39
       -0.00011352121 -0.0003632565 -0.00018228973 0.0001393567
0003a0 9b 3a b0 35 62 3f e1 35 d8 e5 54 b8 ea b8 b5 36
       1.3130078e-06 1.6782253e-06 -5.0758797e-05 5.415747e-06
0003b0 fd a2 14 b9 d8 31 a8 b7 08 33 1d 39 91 4d f2 36
       -0.00014175098 -2.0050371e-05 0.00014991697 7.221192e-06
0003c0 30 70 71 b5 c8 56 1e b7 86 3b e5 b8 98 d6 77 39
       -8.994275e-07 -9.437739e-06 -0.00010930658 0.00023635698
0003d0 f4 6c 4f b7 c6 a1 d5 b7 c5 5d 92 38 44 9d bc b8
       -1.2363529e-05 -2.546691e-05 6.9792884e-05 -8.9938316e-05
0003e0 68 76 12 b8 90 35 93 34 5c 2a 15 b7 15 52 a3 b7
       -3.4919387e-05 2.7419856e-07 -8.890955e-06 -1.9469337e-05
0003f0 20 a1 3c bb 41 86 6d 3a 5c 6d e2 3a b5 f2 2d ba
       -0.0028782561 0.0009060838 0.0017275023 -0.00066355924

exp_avg_sq f4 [504]
000000 c3 cc 4d 30 5f 41 c3 2c f6 88 cf 2c 25 be 39 2e
       7.486955e-10 5.549491e-12 5.8984996e-12 4.2233012e-11
000010 63 1d 90 2f 3d ce a7 2a 75 32 f3 2d e8 4a ba 2c
       2.6214328e-10 2.9808266e-13 2.7648309e-11 5.2947542e-12
000020 5c a4 3b 2e fc 7e de 2f bb e9 d2 30 5f c0 8f 2e
       4.2664858e-11 4.0471793e-10 1.5345941e-09 6.537059e-11
000030 7f 7f a2 2c cc eb 44 2c bc 9a 0b 2e fb 19 1a 31
       4.618472e-12 2.7984169e-12 3.1742373e-11 2.2424718e-09
000040 09 7a 3a 31 84 3d bc 2c 88 2d 2b 2e 52 d8 ac 2a
       2.7135931e-09 5.350111e-12 3.892134e-11 3.070344e-13
000050 58 e1 75 2b b5 4d 0d 2a 1c 51 6b 2c 21 a3 fb 2c
       8.735421e-13 1.2550276e-13 3.3440533e-12 7.15196e-12
000060 31 61 8a 2d 22 67 a8 2f 57 cc 07 2f c5 98 99 32
       1.5731945e-11 3.0632302e-10 1.2350775e-10 1.7881016e-08
000070 bc 86 a3 2e 41 6c 80 2f 83 80 04 2e ef 2f 92 2d
       7.4363155e-11 2.3359983e-10 3.0127466e-11 1.6619565e-11
000080 8e eb 22 30 45 92 2b 2c ac eb 20 30 94 12 85 29
       5.927e-10 2.4381757e-12 5.854257e-10 5.909609e-14
000090 86 61 09 30 59 f4 b5 30 93 a7 54 2e e9 d3 e4 2f
       4.99789e-10 1.3238931e-09 4.8352055e-11 4.162353e-10
0000a0 75 e0 80 2d 33 4a f5 2b a8 7f 25 2d e2 ec a2 2f
       1.4651594e-11 1.7428891e-12 9.4075095e-12 2.9635944e-10
0000b0 af d6 cd 2b c9 b9 d8 2d 7e b2 41 2d 46 a3 95 2d
       1.4625713e-12 2.4638862e-11 1.1010413e-11 1.7011847e-11
0000c0 97 27 0b 30 fe f5 92 2d 31 5b ce 2c fa 10 9f 2f
       5.0624166e-10 1.670752e-11 5.8649964e-12 2.8933994e-10
0000d0 6c b9 8e 2d c3 00 03 30 95 9f b1 2d e8 38 1c 2c
       1.6225875e-11 4.7658605e-10 2.0193439e-11 2.2200523e-12
0000e0 eb ea 01 2d 62 1e 53 30 48 6e e7 30 85 34 c7 31
       7.384963e-12 7.680453e-10 1.6838806e-09 5.797633e-09
0000f0 84 c7 47 2e 34 64 89 2e af af f0 2d 8f eb 13 2c
       4.5424567e-11 6.2478384e-11 2.736286e-11 2.1020718e-12
000100 2b 63 fb 2b b4 dd 09 2d d6 a0 e5 2c b6 a0 ab 2d
       1.7862147e-12 7.836776e-12 6.526428e-12 1.951182e-11
000110 49 18 a8 30 66 e9 85 31 ee e5 dc 2e b4 8c 63 31
       1.2230511e-09 3.897344e-09 1.00452854e-10 3.3112828e-09
000120 bb 28 57 2f ea 3a fd 2c 28 de 32 2d f7 db 43 2b
       1.9568606e-10 7.1972333e-12 1.0167457e-11 6.958318e-13
000130 de 8c bc 31 22 3f b2 2e c2 15 6c 30 74 ab 57 30
       5.487535e-09 8.1057175e-11 8.588722e-10 7.8460194e-10
000140 17 42 23 31 32 f0 81 31 c8 9b 87 2f c0 b8 de 2f
       2.375719e-09 3.781701e-09 2.4667046e-10 4.0512838e-10
000150 d9 bb 61 2f a4 e8 1f 2d 0c 3c ae 2c 36 bf 18 32
       2.0530368e-10 9.08976e-12 4.952044e-12 8.891041e-09
000160 24 49 60 2e d9 d5 a4 2d 14 43 a2 31 2a fe 80 2a
       5.0996665e-11 1.8739609e-11 4.7224464e-09 2.291373e-13
000170 c7 b5 01 2c 28 39 05 2e 33 33 b6 2d e8 ee 00 2f
       1.843291e-12 3.0291464e-11 2.0713741e-11 1.1726409e-10
000180 e7 cb ec 31 49 50 f4 2b b1 a4 14 2f d7 b2 1b 2f
       6.891685e-09 1.7359526e-12 1.3519032e-10 1.4160705e-10
000190 f3 b8 3c 30 42 15 8f 2c 69 0e ba 2f 01 37 a9 31
       6.865683e-10 4.0666645e-12 3.3843442e-10 4.9248006e-09
0001a0 82 15 ce 30 61 b2 42 30 67 7a 99 2b 9c 26 3e 2a
       1.4994586e-09 7.083028e-10 1.0905277e-12 1.6888785e-13
0001b0 4a a0 c3 2e 72 a8 1d 2e 18 23 28 30 46 08 44 2d
       8.8960464e-11 3.5847277e-11 6.1167915e-10 1.1143147e-11
0001c0 36 8d 31 30 d0 88 96 2c 95 98 80 2a 0d 59 89 2c
       6.45929e-10 4.2784457e-12 2.2843243e-13 3.903661e-12
0001d0 d0 e7 13 30 d2 f3 d0 30 41 52 f0 2c 9a 72 18 2e
       5.3807714e-10 1.520329e-09 6.8303423e-12 3.4662585e-11
0001e0 37 48 39 2f 1e 6b a4 2f 71 8d 30 2e b1 6f 9f 2d
       1.6851308e-10 2.9907538e-10 4.0143392e-11 1.8125808e-11
0001f0 a7 4e 41 2d 54 f2 26 2e d3 9b 93 30 21 3e d7 2c
       1.0988244e-11 3.795926e-11 1.0739946e-09 6.1175652e-12
000200 d5 32 c5 2c 40 37 21 2e 29 45 97 2f 35 04 72 2a
       5.6047202e-12 3.6656234e-11 2.751588e-10 2.1495377e-13
000210 79 31 09 2e 34 9d 9d 2c 40 fb 32 2e da 1c ec 2f
       3.1194134e-11 4.4796614e-12 4.069567e-11 4.294865e-10
000220 1f 33 d0 30 06 05 8d 2e e4 8d 91 2c ee bc 40 2c
       1.5148521e-09 6.41283e-11 4.136901e-12 2.7389718e-12
000230 39 b6 09 2e 08 8a 06 31 01 4e 43 31 be 72 a6 2c
       3.131204e-11 1.9578028e-09 2.8420575e-09 4.7307427e-12
000240 01 b2 0e 2e 93 28 ba 2a 8c a8 7a 2b 86 6d 05 2a
       3.244516e-11 3.306839e-13 8.905175e-13 1.1850772e-13
000250 80 c4 3f 2c d7 25 de 2c 3e f4 96 2d 86 66 8c 2f
       2.7251812e-12 6.3138206e-12 1.7161491e-11 2.55387e-10
000260 66 b8 1e 2f 2e 27 bb 32 ad 95 bf 2e 1c 9e 51 2f
       1.4435528e-10 2.1787482e-08 8.712262e-11 1.9064611e-10
000270 8f 07 13 2e 2e ab 89 2d b5 3f 1c 30 2b 48 54 2c
       3.3430644e-11 1.5651116e-11 5.6843e-10 3.0167073e-12
000280 9b 96 59 30 f6 1c 78 29 ac b1 ef 2f dc 5c b7 30
       7.9158163e-10 5.509218e-14 4.360009e-10 1.3341395e-09
000290 db 6a 54 2e 1d 68 04 30 5b be 81 2d 9f d7 07 2c
       4.8298126e-11 4.8169274e-10 1.4750137e-11 1.9304348e-12
0002a0 66 39 29 2d 84 9b ab 2f c7 07 99 2b f1 86 e2 2d
       9.619283e-12 3.121522e-10 1.0873463e-12 2.5753151e-11
0002b0 20 69 3b 2d 41 83 92 2d 18 49 ff 2f cc 66 7c 2d
       1.0653062e-11 1.6656567e-11 4.6436166e-10 1.4347367e-11
0002c0 0b 44 bf 2c 8a 69 9b 2f d0 1c a0 2d 41 29 22 30
       5.436101e-12 2.8269326e-10 1.820269e-11 5.899388e-10
0002d0 6d 6b 9e 2d 57 f7 03 2c 3d b5 0d 2d 84 62 60 30
       1.8010227e-11 1.875352e-12 8.055165e-12 8.1630724e-10
0002e0 5f 7b ce 30 8c 10 c2 31 65 b7 27 2e 7e e9 8f 2e
       1.5023537e-09 5.6480243e-09 3.813429e-11 6.544364e-11
0002f0 7b 5f 09 2e f9 f3 18 2c 7c 91 0d 2c e7 e8 09 2d
       3.1234997e-11 2.1735931e-12 2.0118065e-12 7.839263e-12
000300 3c d6 bb 2c 36 c2 96 2d 4a 12 b6 30 9c 04 98 31
       5.3386445e-12 1.7139273e-11 1.3247441e-09 4.4243063e-09
000310 08 50 bb 2e 0a c4 56 31 21 ff 28 2f 80 8b b8 2c
       8.517992e-11 3.1252534e-09 1.5370151e-10 5.245082e-12
000320 f1 2d 30 2d 76 9a 53 2b 14 9d bb 31 ff dc be 2e
       1.0014643e-11 7.5176616e-13 5.460274e-09 8.6794565e-11
000330 9b 81 97 30 57 4e 8a 30 df 78 1b 31 9a 81 6a 31
       1.1023532e-09 1.0063087e-09 2.2624176e-09 3.4125152e-09
000340 89 17 8e 2f 94 05 c0 2f 46 bf 80 2f 8b be 17 2d
       2.5846372e-10 3.492856e-10 2.3418972e-10 8.625665e-12
000350 a1 b3 c2 2c eb 23 31 32 63 aa 83 2e 6d 35 72 2d
       5.5337544e-12 1.0310923e-08 5.987457e-11 1.376797e-11
000360 d2 a0 90 31 d3 e4 45 2a 80 20 0d 2c dc 96 02 2e
       4.2092347e-09 1.7576504e-13 2.0055346e-12 2.9692568e-11
000370 cd 70 d3 2d 84 d9 04 2f ee 7d e0 31 51 72 04 2c
       2.4038016e-11 1.2082607e-10 6.5335746e-09 1.8821787e-12
000380 d0 6d 19 2f fd 7a 41 2f 83 10 2a 30 0b 25 84 2c
       1.3954282e-10 1.7596942e-10 6.1869104e-10 3.7557782e-12
000390 b5 f0 cf 2f 78 70 94 31 5f 7c c7 30 a9 77 35 30
       3.7824113e-10 4.320153e-09 1.4514504e-09 6.6017464e-10
0003a0 46 59 ab 2b 2d f2 47 2a a8 1e e1 2e f4 31 18 2e
       1.2175059e-12 1.7758772e-13 1.0237261e-10 3.4605166e-11
0003b0 33 e9 3b 30 e5 07 48 2d 46 ca 30 30 e6 80 8d 2c
       6.83616e-10 1.1370437e-11 6.4315875e-10 4.0217716e-12
0003c0 0d 5a 85 2a 9b 7d 41 2c 65 7f eb 2f bf 98 db 30
       2.368803e-13 2.7496675e-12 4.283677e-10 1.597776e-09
0003d0 3a 7d ee 2c 17 63 ed 2d 8f 1f 26 2f 1a b8 9b 2f
       6.77827e-12 2.6987785e-11 1.5108824e-10 2.8325148e-10
0003e0 f1 7d 4a 2e 44 f3 b1 2d ff 65 33 2d 09 11 30 2e
       4.604134e-11 2.0230602e-11 1.019762e-11 4.0032897e-11
0003f0 c0 a6 8a 34 ba 17 d2 32 5e 13 d8 33 03 0c 98 32
       2.582583e-07 2.4458007e-08 1.0061807e-07 1.7700591e-08
