models/optweezer/349zvf9u/checkpoints/epoch=188-step=188.ckpt (torch, 789231 bytes, 18 tensors)

exp_avg f4 [504, 1]
0	0x39acc5c2	0.00032953738
1	0x3811914b	3.470601e-05
2	0x3897c8d8	7.237651e-05
3	0x37f42143	2.9102555e-05
4	0xb779fdfb	-1.4900691e-05
5	0xb9bed024	-0.000363947
6	0x36d5be09	6.3700177e-06
7	0xb70f30a9	-8.534794e-06
8	0xb8446cec	-4.6831483e-05
9	0x36121104	2.17656e-06
10	0x37923522	1.7429298e-05
11	0x37c29839	2.3197486e-05
12	0xb8345ad2	-4.2999927e-05
13	0x37cf1a1b	2.468848e-05
14	0xb7d1f430	-2.502845e-05
15	0xb4552edc	-1.9854218e-07
16	0xb89b9527	-7.418758e-05
17	0x38adcbd9	8.2872524e-05
18	0xb783418b	-1.5646938e-05
19	0x36c4cbad	5.864966e-06
20	0xb7395063	-1.1045576e-05
21	0x37744b9f	1.456114e-05
22	0x37e68400	2.7479604e-05
23	0x35c8293d	1.4913163e-06
24	0xb9bc7e1c	-0.00035952113
25	0xb88080b3	-6.127488e-05
26	0xb7744811	-1.4560313e-05
27	0xb5cfe712	-1.5489952e-06
28	0xb7ad4dbe	-2.0659409e-05
29	0xb7a8cd62	-2.01228e-05
30	0xb8ca2880	-9.639654e-05
31	0x36d1240c	6.232882e-06
32	0x39aed8a5	0.0003334928
33	0x39426e70	0.00018542423
34	0x383681c4	4.3513035e-05
35	0xb508e014	-5.0990025e-07
36	0xb926e662	-0.00015916818
37	0x39a4f102	0.00031460082
38	0xb508d9a3	-5.098065e-07
39	0x382367f7	3.8959053e-05
40	0xb8b8e7a0	-8.816947e-05
41	0xb8554b4c	-5.0853283e-05
42	0x37e388d2	2.712422e-05
43	0xb76a68e8	-1.3971912e-05
44	0xb90bc8f1	-0.0001333093
45	0xb59809a0	-1.1327684e-06
46	0xb8cd02e7	-9.775702e-05
47	0x3926adf3	0.00015895795
48	0x3604d98c	1.9796162e-06
49	0xb7884f01	-1.6249252e-05
50	0xb9226d30	-0.000154902
51	0x37c12df5	2.3028793e-05
52	0xb9135af1	-0.00014052891
53	0xb8d49b52	-0.000101378784
54	0xb85a106b	-5.199054e-05
55	0xb86d7716	-5.661611e-05
56	0xb74380ac	-1.16528645e-05
57	0x38d7fac0	0.00010298705
58	0xb8580ee5	-5.1512285e-05
59	0xb6a50f93	-4.9191963e-06
60	0x39597fa2	0.0002074228
61	0xb7b2972b	-2.1289647e-05
62	0x37afc4a4	2.0953194e-05
63	0x379625c4	1.789898e-05
64	0x37a4d7c2	1.9650794e-05
65	0x36ddf32e	6.614623e-06
66	0x36edff30	7.092858e-06
67	0x35ddcfd3	1.6526268e-06
68	0xb830e631	-4.2176052e-05
69	0x369db5bf	4.7001226e-06
70	0xb6e174a5	-6.7191017e-06
71	0x39172d9f	0.00014417477
72	0x35933dbb	1.0970319e-06
73	0xb92dfb93	-0.00016592284
74	0x379a2366	1.8374714e-05
75	0x363fa640	2.8557988e-06
76	0x36f1a99e	7.2021057e-06
77	0x3800cd83	3.0708976e-05
78	0xb68f2953	-4.266543e-06
79	0xb90206a2	-0.00012400237
80	0xb777a09b	-1.4759741e-05
81	0xb88d73fa	-6.745006e-05
82	0xb91ffe72	-0.0001525821
83	0x38622763	5.391928e-05
84	0x39aa5db9	0.00032494756
85	0xb86188b6	-5.3771502e-05
86	0xb5e5a18f	-1.7108849e-06
87	0x36e8e7fe	6.9411462e-06
88	0xb909a39b	-0.00013126286
89	0x3793f831	1.7639339e-05
90	0x390dfff0	0.00013542152
91	0x372bb25a	1.023392e-05
92	0x37ee8954	2.843576e-05
93	0x3702161b	7.753751e-06
94	0xb65602ae	-3.1890045e-06
95	0x39036462	0.00012530529
96	0x39655885	0.00021872118
97	0x388bc0ee	6.6639725e-05
98	0xb48377e3	-2.448788e-07
99	0xb8add9e3	-8.2898674e-05
100	0xb6ec7e61	-7.0480605e-06
101	0x37abfc22	2.0502197e-05
102	0x3726a658	9.933101e-06
103	0xb7c3024c	-2.3246881e-05
104	0x36024f8d	1.9417814e-06
105	0x36ad24f5	5.160104e-06
106	0xb918d4b4	-0.00014575088
107	0xb72501e6	-9.835208e-06
108	0xb6b166a3	-5.2869595e-06
109	0xb9116512	-0.00013865929
110	0x39122e57	0.00013940908
111	0xb8a76a3d	-7.982969e-05
112	0x37982e6d	1.814143e-05
113	0xb9565b33	-0.00020442605
114	0x3801c666	3.094077e-05
115	0xb6a1de68	-4.8240654e-06
116	0xb929c1fe	-0.00016189364
117	0xb8076048	-3.2276177e-05
118	0x384b168d	4.8419974e-05
119	0xb742c496	-1.1609072e-05
120	0x36ee69d5	7.105273e-06
121	0x375c2b67	1.3123127e-05
122	0xb88d4e17	-6.737949e-05
123	0xb71dad2c	-9.398249e-06
124	0xb7903087	-1.7188735e-05
125	0x378a5a24	1.6492857e-05
126	0xb87e7af5	-6.067283e-05
127	0xb72e5746	-1.0391528e-05
128	0xb74bc2fe	-1.2145143e-05
129	0xb70f0603	-8.524864e-06
130	0x360e2fda	2.1187502e-06
131	0xb85c3d8b	-5.2509404e-05
132	0xb6f701b8	-7.3613737e-06
133	0xb7d38a96	-2.5217694e-05
134	0x38bc8a85	8.99034e-05
135	0xb6a753bb	-4.9867353e-06
136	0x36c65bca	5.9115455e-06
137	0xb82de6dc	-4.146142e-05
138	0xb8022cfb	-3.1036307e-05
139	0x36647327	3.4041675e-06
140	0xb7471cee	-1.186806e-05
141	0x36b9a91c	5.5331166e-06
142	0xb8374688	-4.3696287e-05
143	0xb912ccbe	-0.00013999917
144	0xb75f4548	-1.3307967e-05
145	0xb892c1bb	-6.9979076e-05
146	0xb737b1a6	-1.0949012e-05
147	0xb6f4fd69	-7.3012675e-06
148	0x36a0543c	4.7781778e-06
149	0x35840126	9.835101e-07
150	0x39ba2f35	0.00035511857
151	0xb7bfc6ed	-2.2861606e-05
152	0xb7e6ea02	-2.7527105e-05
153	0x362efa03	2.6073546e-06
154	0xb7cb4b34	-2.4234505e-05
155	0xb6503ae6	-3.1028699e-06
156	0xb898835c	-7.2723924e-05
157	0x34dc680f	4.1053906e-07
158	0xb8ee7889	-0.00011371176
159	0xb8b4a142	-8.6131055e-05
160	0xb71e845f	-9.448354e-06
161	0xb693bd20	-4.4029584e-06
162	0x39c94ca8	0.0003839482
163	0xb8381507	-4.38886e-05
164	0xb540ae8d	-7.177958e-07
165	0x387fcf8b	6.0990027e-05
166	0xb7a9f958	-2.026248e-05
167	0xb7a8d6aa	-2.0127121e-05
168	0xb9bc66a1	-0.0003593462
169	0xb7dd65e4	-2.63927e-05
170	0xb88b5391	-6.643602e-05
171	0xb7177214	-9.026862e-06
172	0xb888ab3c	-6.51688e-05
173	0x38c3580b	9.314724e-05
174	0xb70e1374	-8.468389e-06
175	0xb69f01a9	-4.7387625e-06
176	0xb85961b8	-5.182784e-05
177	0xb8fe90f4	-0.000121386634
178	0xb8beec41	-9.103912e-05
179	0xb9033b88	-0.0001251531
180	0xb7e55fa6	-2.7343467e-05
181	0xb7aa4325	-2.0296846e-05
182	0xb73aa547	-1.1124946e-05
183	0xb7beaf46	-2.2731383e-05
184	0xb8960b26	-7.154634e-05
185	0x35e281b1	1.6876057e-06
186	0xb8e8cc0b	-0.00011100628
187	0xb80c1275	-3.339579e-05
188	0x3792a6ef	1.748229e-05
189	0x36644e7f	3.4020338e-06
190	0xb72bbb83	-1.0236053e-05
191	0x363ca166	2.810813e-06
192	0xb63387ee	-2.67522e-06
193	0x34075465	1.2603557e-07
194	0xb81011b7	-3.4348774e-05
195	0xb5be890a	-1.4195987e-06
196	0xb8867f42	-6.4133215e-05
197	0xb80c25af	-3.3413697e-05
198	0xb884c8de	-6.331665e-05
199	0xb8dc70ac	-0.00010511404
200	0x36c73582	5.9368913e-06
201	0xb7f2ab41	-2.8928394e-05
202	0xb7976d95	-1.805163e-05
203	0xb79beed3	-1.8588651e-05
204	0xb72f694a	-1.0455327e-05
205	0xb97a350b	-0.00023861618
206	0x36256d59	2.4650565e-06
207	0xb923ccb9	-0.00015621156
208	0xb717cc69	-9.047894e-06
209	0xb78b6ec9	-1.662168e-05
210	0xb900fcf1	-0.00012301259
211	0xb84d26cf	-4.8911952e-05
212	0xb6a0a1ce	-4.787208e-06
213	0x3638e2ee	2.7550227e-06
214	0xb8a2fcaa	-7.771824e-05
215	0x35764f70	9.175774e-07
216	0xb90de10d	-0.00013530646
217	0x361c949e	2.3332318e-06
218	0xb81cd595	-3.7392212e-05
219	0xb66251d0	-3.3724245e-06
220	0x35337944	6.685916e-07
221	0xb92a4f0d	-0.00016241912
222	0x386135b1	5.3694184e-05
223	0xb713a523	-8.800332e-06
224	0x3868727d	5.5419736e-05
225	0xb91b4d01	-0.00014810638
226	0xb5053a0f	-4.963085e-07
227	0xb8015247	-3.0832623e-05
228	0x361c8d6a	2.3328125e-06
229	0xb82dba6f	-4.1420044e-05
230	0xb588ba66	-1.0187039e-06
231	0xb737af34	-1.0948443e-05
232	0xb88fe913	-6.862185e-05
233	0xb9136714	-0.00014057412
234	0xb5574f7d	-8.020941e-07
235	0xb89be2dc	-7.433232e-05
236	0xb8976faf	-7.221044e-05
237	0xb96ce9d0	-0.00022593816
238	0xb8504af5	-4.9660874e-05
239	0xb9b05f63	-0.00033640405
240	0xb7a5c84f	-1.9762809e-05
241	0xb8a7fcf3	-8.010296e-05
242	0xb90e7348	-0.00013585121
243	0xb894318d	-7.0664195e-05
244	0x3864f239	5.4585023e-05
245	0xb7a3045b	-1.9433142e-05
246	0xb6d091ff	-6.2158792e-06
247	0xb8379e29	-4.3777898e-05
248	0xb8810129	-6.1514154e-05
249	0xb5aed6fc	-1.3026579e-06
250	0xb802f8d2	-3.1226147e-05
251	0xb8548ab8	-5.067393e-05
252	0x3896c392	7.188985e-05
253	0xb9119557	-0.00013883911
254	0xb96e9837	-0.00022754153
255	0x37f5dd7c	2.9309413e-05

exp_avg_sq f4 [504, 1]
0	0x32e16745	2.6240409e-08
1	0x300bb5f5	5.082648e-10
2	0x314a309f	2.9422507e-09
3	0x2fb90cec	3.3660486e-10
4	0x3017c38d	5.5211374e-10
5	0x330ba3a0	3.2512276e-08
6	0x2fed76b4	4.3194393e-10
7	0x2fcc1845	3.7124628e-10
8	0x30c97a85	1.4659497e-09
9	0x2d032b79	7.456141e-12
10	0x2e8a3013	6.284053e-11
11	0x30a2ab22	1.183569e-09
12	0x3047b277	7.264939e-10
13	0x2fc567a7	3.590774e-10
14	0x2fabd5e8	3.1256708e-10
15	0x2d81a137	1.4737196e-11
16	0x310d0866	2.0522974e-09
17	0x30e0a445	1.6344833e-09
18	0x2f136dbb	1.3408556e-10
19	0x2fc7f714	3.637345e-10
20	0x2f4c8b5f	1.8603206e-10
21	0x3006fd06	4.9108484e-10
22	0x2f8f1ac5	2.603057e-10
23	0x2e158e96	3.400532e-11
24	0x32dc64ee	2.5657268e-08
25	0x30af9f57	1.2778213e-09
26	0x310962f8	1.999238e-09
27	0x2ebd60e1	8.611934e-11
28	0x2ff17510	4.3920823e-10
29	0x2f832d79	2.3861071e-10
30	0x316e9895	3.472029e-09
31	0x2e08306d	3.096583e-11
32	0x32f631c8	2.8660807e-08
33	0x321a9352	8.9974765e-09
34	0x30275209	6.0870825e-10
35	0x2de7df24	2.6360754e-11
36	0x31f43e2f	7.108404e-09
37	0x32c5a928	2.3010742e-08
38	0x301f0bb3	5.786049e-10
39	0x3189604f	3.998174e-09
40	0x312a6d9a	2.4800557e-09
41	0x308b856c	1.0151502e-09
42	0x30ad708c	1.2619394e-09
43	0x2eaeae5a	7.943575e-11
44	0x321f4672	9.2710355e-09
45	0x2f3fae66	1.7433308e-10
46	0x31498923	2.9327303e-09
47	0x3197667e	4.4063304e-09
48	0x2e0f7b1c	3.262378e-11
49	0x2ea7c84e	7.629862e-11
50	0x31e6eed5	6.721033e-09
51	0x313da5c7	2.7597353e-09
52	0x322b853c	9.983804e-09
53	0x31a0af3d	4.676535e-09
54	0x3043a1cc	7.1170514e-10
55	0x30fc6a3a	1.8365605e-09
56	0x2eee1e1f	1.08283375e-10
57	0x3130bb58	2.5717863e-09
58	0x303a5ec1	6.780106e-10
59	0x2ea1f0ff	7.364242e-11
60	0x3216d32e	8.779166e-09
61	0x2fd8324c	3.932591e-10
62	0x2f85f673	2.4367672e-10
63	0x2faf200b	3.1855082e-10
64	0x2fcd7213	3.7370337e-10
65	0x2e80fd7b	5.865793e-11
66	0x2df9ce1a	2.839955e-11
67	0x2d957b3c	1.6994066e-11
68	0x306135f6	8.1931206e-10
69	0x2d0b6709	7.924114e-12
70	0x2feb346d	4.2783502e-10
71	0x31992675	4.457258e-09
72	0x30c994bd	1.4666949e-09
73	0x32118685	8.470697e-09
74	0x2edcf468	1.0047857e-10
75	0x2fc4049b	3.5655465e-10
76	0x2e93b804	6.717474e-11
77	0x300e8ad2	5.1856575e-10
78	0x2d9dd452	1.7943123e-11
79	0x32699e04	1.3598314e-08
80	0x2f1543c7	1.357555e-10
81	0x3142a884	2.8326506e-09
82	0x31f2a4f0	7.061878e-09
83	0x303e151b	6.915159e-10
84	0x330bbd38	3.2535553e-08
85	0x30a701a3	1.2151314e-09
86	0x2d949706	1.689272e-11
87	0x2e028b6a	2.9682402e-11
88	0x318eb858	4.1537014e-09
89	0x2f4a88d5	1.8420405e-10
90	0x3183a87e	3.831757e-09
91	0x2eaf5ff3	7.9751226e-11
92	0x30ba7e4b	1.3569176e-09
93	0x2ea5cceb	7.539732e-11
94	0x2e856732	6.066471e-11
95	0x322548f6	9.6208534e-09
96	0x32690e46	1.356563e-08
97	0x305dc41d	8.0678025e-10
98	0x2fdd286f	4.0228396e-10
99	0x3189539c	3.99673e-09
100	0x2e237837	3.716868e-11
101	0x300ecb9f	5.194866e-10
102	0x2e495e35	4.578578e-11
103	0x2fb9194c	3.3669278e-10
104	0x2e810884	5.8677535e-11
105	0x30521db5	7.643977e-10
106	0x31f3d9af	7.0969786e-09
107	0x30815922	9.411318e-10
108	0x2e89fbce	6.274768e-11
109	0x31f66a15	7.1716024e-09
110	0x31b79530	5.3429616e-09
111	0x30f2a5e0	1.7654962e-09
112	0x3087b44b	9.873785e-10
113	0x3289eeab	1.6057433e-08
114	0x302c4806	6.2675587e-10
115	0x2fb01b3a	3.203356e-10
116	0x32232800	9.496944e-09
117	0x30763039	8.9562807e-10
118	0x301d83a7	5.7303357e-10
119	0x3034b045	6.573411e-10
120	0x2e92afb5	6.670523e-11
121	0x2fdb9e94	3.9948544e-10
122	0x30e20709	1.6445664e-09
123	0x2e0a21e1	3.1407658e-11
124	0x3045aabb	7.1910805e-10
125	0x2fc9d6f3	3.6714418e-10
126	0x31b0f562	5.150171e-09
127	0x30227d28	5.9113114e-10
128	0x30f944a4	1.8136643e-09
129	0x2eaa3e1a	7.7417364e-11
130	0x30fd0fe0	1.8412685e-09
131	0x32be1d1b	2.2132147e-08
132	0x2f24de1d	1.4994624e-10
133	0x31839f27	3.8306953e-09
134	0x316f0b50	3.4785508e-09
135	0x2cebd29e	6.702485e-12
136	0x2d6d3eeb	1.3485861e-11
137	0x313e0614	2.7652094e-09
138	0x30173e07	5.5021626e-10
139	0x2e39f732	4.2283683e-11
140	0x2f7c7eeb	2.2964357e-10
141	0x2d3cd9b5	1.0734903e-11
142	0x3194ef74	4.3345896e-09
143	0x32385403	1.0729312e-08
144	0x2e896011	6.2471035e-11
145	0x3149a964	2.9345637e-09
146	0x308e11f7	1.0336966e-09
147	0x30d13bc1	1.5223734e-09
148	0x2f20b451	1.4615976e-10
149	0x2c87e050	3.8618345e-12
150	0x33d13f63	9.743851e-08
151	0x30b46649	1.3125795e-09
152	0x3168e841	3.3892464e-09
153	0x2d5a5bd4	1.2412255e-11
154	0x2f4a3d17	1.8393496e-10
155	0x2e124d8e	3.326544e-11
156	0x3126dc42	2.4281381e-09
157	0x2c3e36db	2.7031075e-12
158	0x320730c3	7.869121e-09
159	0x31160141	2.1828586e-09
160	0x2f43ee43	1.7819794e-10
161	0x2db3e181	2.0450088e-11
162	0x33547ae6	4.9471872e-08
163	0x32ac71a6	2.0075117e-08
164	0x3034b8f1	6.5746436e-10
165	0x33856456	6.211546e-08
166	0x2f8d062f	2.5652144e-10
167	0x301bea2b	5.6721444e-10
168	0x338fee47	6.702299e-08
169	0x2fe8fd1c	4.23804e-10
170	0x318d4877	4.1118784e-09
171	0x2ebbc463	8.538661e-11
172	0x3105d793	1.9476587e-09
173	0x3291b69e	1.6963266e-08
174	0x2e7abf96	5.701358e-11
175	0x2d1fef7b	9.091279e-12
176	0x31dd8c8a	6.447924e-09
177	0x31f3a671	7.091153e-09
178	0x31e91270	6.7832886e-09
179	0x32024360	7.582315e-09
180	0x30257981	6.019932e-10
181	0x2f8256b0	2.3708457e-10
182	0x2e36d62b	4.157223e-11
183	0x302ea130	6.352989e-10
184	0x313e92a4	2.7731994e-09
185	0x2e87926a	6.1650976e-11
186	0x318c94de	4.0914605e-09
187	0x2fbe0f95	3.457187e-10
188	0x3081e730	9.451693e-10
189	0x2ec7c528	9.084494e-11
190	0x300cd976	5.1240734e-10
191	0x2f41e2d7	1.7633837e-10
192	0x2ccffe90	5.911556e-12
193	0x2c2eb4cf	2.4827256e-12
194	0x304c00a5	7.4215684e-10
195	0x2ca71cb4	4.749612e-12
196	0x310fe9ff	2.094225e-09
197	0x30e7a42c	1.6854123e-09
198	0x3214ef44	8.6691365e-09
199	0x31ea46c7	6.818343e-09
200	0x2d7ed0b8	1.4484573e-11
201	0x30e464c3	1.6617822e-09
202	0x2eea369d	1.0650789e-10
203	0x2f97416c	2.7513225e-10
204	0x2e659bc0	5.2206905e-11
205	0x33001a02	2.9825976e-08
206	0x2da20ee0	1.8423874e-11
207	0x32348af6	1.0508975e-08
208	0x30dd4748	1.6100126e-09
209	0x2fa6b620	3.0324632e-10
210	0x32516a53	1.21895765e-08
211	0x305948be	7.9047513e-10
212	0x2d275fb7	9.514104e-12
213	0x2d0ae5ae	7.895391e-12
214	0x30ba2d8b	1.3546225e-09
215	0x2e51bf6f	4.7691125e-11
216	0x324d1760	1.1937885e-08
217	0x2dd5bc7a	2.4298997e-11
218	0x314b34af	2.9570335e-09
219	0x2e08c88d	3.1100945e-11
220	0x2cf02e93	6.826381e-12
221	0x3285aeb1	1.5562678e-08
222	0x3276a0b3	1.4355623e-08
223	0x2f7d2d67	2.3026346e-10
224	0x30b61441	1.3247999e-09
225	0x3288fd21	1.5947593e-08
226	0x2cd23954	5.9749237e-12
227	0x313ac76f	2.7179927e-09
228	0x2ce66081	6.5477073e-12
229	0x3021526c	5.868859e-10
230	0x2cb89d09	5.247029e-12
231	0x2f056940	1.2133672e-10
232	0x313131b3	2.578514e-09
233	0x3211b71b	8.481744e-09
234	0x2d993787	1.7418745e-11
235	0x3191c45d	4.2423793e-09
236	0x321929dd	8.915291e-09
237	0x32bba427	2.1844313e-08
238	0x3112bdc3	2.1353663e-09
239	0x3392b25f	6.8311e-08
240	0x3046dcc2	7.2345696e-10
241	0x3186588d	3.9099803e-09
242	0x32a74e06	1.947684e-08
243	0x31243772	2.3896658e-09
244	0x30827613	9.492304e-10
245	0x319a67fd	4.493812e-09
246	0x2eda15d7	9.917372e-11
247	0x3087fdaa	9.894638e-10
248	0x30e8798b	1.6914766e-09
249	0x2c7ff806	3.637536e-12
250	0x30c43c89	1.4278082e-09
251	0x30162434	5.462113e-10
252	0x3213389d	8.5693985e-09
253	0x31d75721	6.267229e-09
254	0x326dab65	1.3834186e-08
255	0x30ee89b2	1.7355914e-09

exp_avg f4 [504, 126]
0	0x399d9ca3	0.00030062077
1	0xb6ece9f7	-7.060585e-06
2	0x38dfaada	0.00010665292
3	0x3874cab9	5.8362933e-05
4	0x38e5a680	0.00010950584
5	0x3a04867e	0.0005055441
6	0xb88bdb76	-6.668914e-05
7	0x39362b6e	0.00017373051
8	0x38c4c139	9.381999e-05
9	0xb869c68b	-5.5736436e-05
10	0x38810f32	6.15403e-05
11	0x388c0d46	6.6781926e-05
12	0x38109124	3.4467448e-05
13	0x389c37ca	7.449051e-05
14	0xb8547f6d	-5.0663413e-05
15	0xb75318bf	-1.2582342e-05
16	0x3933237b	0.00017083988
17	0x38ad6655	8.268344e-05
18	0x38b81a46	8.7786975e-05
19	0x37c8f4bf	2.3955827e-05
20	0xb8bd5a8a	-9.0290865e-05
21	0x3711754e	8.669986e-06
22	0x378fda26	1.7148512e-05
23	0xb5d8d0ac	-1.6153986e-06
24	0xb97d5925	-0.00024161169
25	0xb7ce4a56	-2.4591729e-05
26	0x390b8c52	0.00013308346
27	0x3790be86	1.7254857e-05
28	0x3905db90	0.00012765662
29	0xb78648d6	-1.6007962e-05
30	0xb7697cbd	-1.3916925e-05
31	0x37a05151	1.9111352e-05
32	0x398d1ae2	0.00026913645
33	0x391380ed	0.00014067041
34	0xb829c84f	-4.047929e-05
35	0xb7c8d705	-2.3941984e-05
36	0xba08f61f	-0.0005224663
37	0x38f5eb90	0.00011726387
38	0x3736020a	1.084852e-05
39	0x3a0128e1	0.0004927051
40	0xb8bcf7e2	-9.01071e-05
41	0x38cd909f	9.8020995e-05
42	0x3a353e62	0.0006913898
43	0x38fadea3	0.00011962398
44	0xb8979743	-7.228416e-05
45	0xb7cc1006	-2.4326157e-05
46	0xb6d7fb0a	-6.436724e-06
47	0x39af181f	0.00033396573
48	0x36af2aae	5.220375e-06
49	0xb8018df3	-3.0888197e-05
50	0x3914fcb9	0.00014208526
51	0x399ccc6a	0.0002990694
52	0xb7f1e60f	-2.8836568e-05
53	0x39053875	0.000127049
54	0x392cbee4	0.0001647431
55	0xb84e5266	-4.9190967e-05
56	0xb86d8b4d	-5.6634937e-05
57	0xb7033a35	-7.821761e-06
58	0x393fa5f6	0.00018277005
59	0xb7931da0	-1.753756e-05
60	0x3995edf0	0.00028596772
61	0x3937442e	0.00017477639
62	0x3911b217	0.00013894621
63	0xb700f86e	-7.687237e-06
64	0xb9040b9d	-0.00012592827
65	0xb80f6a07	-3.4192602e-05
66	0xb867baa7	-5.5248525e-05
67	0xb7a447d7	-1.9583777e-05
68	0x38576b70	5.1360053e-05
69	0xb83f7dc9	-4.5655095e-05
70	0xb760f9a8	-1.3409568e-05
71	0xb8fb8eaf	-0.000119951896
72	0xb8004d5c	-3.0589625e-05
73	0x384ad4b6	4.8358655e-05
74	0xb83a3c61	-4.4402088e-05
75	0x39438d1d	0.00018649218
76	0x389db734	7.5204676e-05
77	0xb8220b28	-3.86342e-05
78	0xb823f9d6	-3.9094906e-05
79	0x39fb272e	0.00047903642
80	0xb7a693c4	-1.985755e-05
81	0xb94bd23a	-0.00019437904
82	0x390f0265	0.00013638435
83	0xb7cb085c	-2.4203378e-05
84	0x39129825	0.00013980323
85	0x38ee5309	0.00011364191
86	0x37322fcf	1.0620758e-05
87	0x3753942a	1.2611077e-05
88	0xb986ff2f	-0.00025748598
89	0xb8a417bd	-7.824551e-05
90	0xb8f5e31d	-0.000117248135
91	0x387f3242	6.0843544e-05
92	0x38d27174	0.000100347126
93	0x38aa7063	8.127165e-05
94	0x3747b6b6	1.1903865e-05
95	0xb83ca293	-4.4974102e-05
96	0x3673362f	3.624136e-06
97	0xb7a854f1	-2.0066715e-05
98	0xb88d8e0d	-6.749863e-05
99	0xb9c124d2	-0.00036839262
100	0x3701046f	7.690031e-06
101	0xb8b49802	-8.6113825e-05
102	0xb85562a2	-5.0875016e-05
103	0xb806c523	-3.2131687e-05
104	0xb7c68029	-2.3663119e-05
105	0x3851696e	4.9927672e-05
106	0xb8fc570d	-0.00012032511
107	0xb97828bf	-0.00023666302
108	0x36bb233b	5.5771357e-06
109	0x38f7f34e	0.00011823197
110	0xb88ddab4	-6.7641406e-05
111	0xb93ca834	-0.00017991738
112	0x38512880	4.98672e-05
113	0x3a723ea9	0.00092409045
114	0x39016091	0.00012338372
115	0x3952d029	0.00020104706
116	0xba1247e2	-0.00055801694
117	0x376c171f	1.40720795e-05
118	0xb909ad71	-0.0001312995
119	0x3904a977	0.00012651632
120	0x387a2326	5.963738e-05
121	0xb765b0f5	-1.3690665e-05
122	0xb88108d4	-6.152844e-05
123	0x37b73e25	2.1844238e-05
124	0x38c33823	9.308781e-05
125	0xb9604ed4	-0.0002139167
126	0x3957446d	0.00020529488
127	0xb847408e	-4.750542e-05
128	0xb81e2318	-3.770282e-05
129	0x38306a76	4.206082e-05
130	0xb78b97ba	-1.6640744e-05
131	0x38115024	3.464533e-05
132	0xb8571c47	-5.128633e-05
133	0x38cd52e9	9.790605e-05
134	0x3801fe1c	3.0992655e-05
135	0xb7e4f7ba	-2.7295075e-05
136	0xb6c75dce	-5.9415825e-06
137	0x3858fb95	5.1732717e-05
138	0xb8052eea	-3.1753363e-05
139	0x38611c3f	5.3670487e-05
140	0xb8255eed	-3.9427472e-05
141	0xb4337eae	-1.671676e-07
142	0x390f09b6	0.0001364116
143	0x3894cf32	7.095783e-05
144	0x37ed69bc	2.8301838e-05
145	0x380779b3	3.229985e-05
146	0xb8277984	-3.9929073e-05
147	0xb798e120	-1.8224644e-05
148	0x37b37249	2.1391681e-05
149	0xb5c0e5f3	-1.4372039e-06
150	0xb99e1d0a	-0.00030157744
151	0xb7a3a8da	-1.9509742e-05
152	0x38a890dd	8.037847e-05
153	0x37de0beb	2.6470012e-05
154	0x38100c35	3.4343644e-05
155	0xb7e9c2e7	-2.7866523e-05
156	0x342ab0b2	1.5896765e-07
157	0x36ffd361	7.6242e-06
158	0x394a07be	0.00019267105
159	0x391a5588	0.00014718447
160	0xb830d2e8	-4.215809e-05
161	0xb6ba652a	-5.555009e-06
162	0x38078f79	3.2320128e-05
163	0x3958b867	0.0002066806
164	0xb8165abe	-3.5847297e-05
165	0xb79b42d7	-1.8508565e-05
166	0xb8576f05	-5.136339e-05
167	0x38e88825	0.00011087981
168	0x38cc94c3	9.755187e-05
169	0x37b79203	2.1883292e-05
170	0xb8a614f1	-7.9193975e-05
171	0xb7c3be8b	-2.333454e-05
172	0xb78b199f	-1.6582022e-05
173	0x3980198d	0.000244331
174	0xb6f02fdb	-7.1581285e-06
175	0xb5b6b9c2	-1.3614119e-06
176	0xb782f2e7	-1.5610318e-05
177	0xb85e1215	-5.2945765e-05
178	0xb8ee7be7	-0.00011371803
179	0x38213b85	3.8440823e-05
180	0x37ee3cd2	2.8400133e-05
181	0x37d1bc2e	2.500237e-05
182	0xb7d2ccc1	-2.5129297e-05
183	0xb82e7932	-4.1597705e-05
184	0x3750e23b	1.24504395e-05
185	0xb7cd8309	-2.4498922e-05
186	0x39458e6d	0.00018840442
187	0x3849391b	4.7975318e-05
188	0x38ff9343	0.00012186777
189	0xb6586f20	-3.2251191e-06
190	0xb8b09f46	-8.422001e-05
191	0xb765ce1f	-1.3697455e-05
192	0xb7a9f9d3	-2.0262703e-05
193	0x36403387	2.8640222e-06
194	0x388b368c	6.638197e-05
195	0xb6bc98ae	-5.620611e-06
196	0x3740dc4b	1.1495383e-05
197	0xb8e69796	-0.0001099549
198	0x3845e111	4.717807e-05
199	0xb7dea7b1	-2.654255e-05
200	0xb6fab7fa	-7.4719983e-06
201	0x390aaee4	0.00013225857
202	0x385210b8	5.0083472e-05
203	0xb8231d69	-3.888962e-05
204	0xb7100ca7	-8.586015e-06
205	0x38500614	4.9596725e-05
206	0x36d3332c	6.294247e-06
207	0xb82ee80d	-4.1700947e-05
208	0xb5480b56	-7.45223e-07
209	0xb808495a	-3.249324e-05
210	0x395d23e2	0.0002108957
211	0x3853019f	5.030783e-05
212	0x379ac71c	1.8450948e-05
213	0xb61069f2	-2.151934e-06
214	0x350176ca	4.8229106e-07
215	0xb84add9f	-4.8366954e-05
216	0x386ec002	5.6922443e-05
217	0x38195839	3.6560206e-05
218	0x389e8a2f	7.559766e-05
219	0x3850d37d	4.978803e-05
220	0x3695ae58	4.4608423e-06
221	0x38b506ac	8.631995e-05
222	0xb92d7057	-0.00016540416
223	0xb8503424	-4.9639624e-05
224	0x3697492b	4.5086686e-06
225	0xb89686ad	-7.177643e-05
226	0xb71a9664	-9.214131e-06
227	0xb889231f	-6.539211e-05
228	0xb70ccc3c	-8.392202e-06
229	0x36c0c177	5.744568e-06
230	0xb6a3f85a	-4.8866905e-06
231	0xb73a26b4	-1.1095475e-05
232	0xb8a36c4b	-7.792617e-05
233	0xb79ae2ba	-1.8463808e-05
234	0xb7522be3	-1.2527194e-05
235	0x388d604d	6.741341e-05
236	0xb8c86a2b	-9.5565185e-05
237	0x3706c9cd	8.034008e-06
238	0x388a2cc6	6.5886925e-05
239	0x392fd8f7	0.00016770126
240	0x38c3804c	9.322222e-05
241	0xb6596628	-3.2394983e-06
242	0xb8fa7cf3	-0.000119442026
243	0xb6baa36c	-5.562257e-06
244	0x37b2f12e	2.1331562e-05
245	0x39052477	0.00012697453
246	0x38116f3a	3.467428e-05
247	0xb82d4f93	-4.1320523e-05
248	0xb834d4ae	-4.3113418e-05
249	0x37a59025	1.9736655e-05
250	0x37f14da4	2.8765593e-05
251	0xb903bf58	-0.00012564415
252	0x39347ef9	0.00017213439
253	0xb88168db	-6.17073e-05
254	0xb83b342f	-4.4632874e-05
255	0x3862d073	5.4076732e-05

exp_avg_sq f4 [504, 126]
0	0x34335afd	1.6703775e-07
1	0x33147558	3.456566e-08
2	0x335abef4	5.093075e-08
3	0x3346cd64	4.628727e-08
4	0x333b9e33	4.368321e-08
5	0x344eff52	1.927813e-07
6	0x332123f9	3.751845e-08
7	0x33de53cc	1.0352923e-07
8	0x34094b54	1.2786523e-07
9	0x328dafcf	1.6494509e-08
10	0x31c5eda8	5.760473e-09
11	0x33019c22	3.0177155e-08
12	0x31e1af6d	6.5683055e-09
13	0x32901457	1.6773056e-08
14	0x32dabc88	2.5464274e-08
15	0x30c41ff4	1.4269959e-09
16	0x33a2a390	7.573465e-08
17	0x326354cd	1.32324205e-08
18	0x31a375a1	4.7572972e-09
19	0x3229e53e	9.889218e-09
20	0x32e848ed	2.7041517e-08
21	0x32aaf88a	1.9903627e-08
22	0x32f90be2	2.8992819e-08
23	0x32262b86	9.672368e-09
24	0x35915de1	1.0830664e-06
25	0x331308ad	3.4233995e-08
26	0x33d41c62	9.877182e-08
27	0x31da5417	6.354195e-09
28	0x31aaec46	4.9745124e-09
29	0x31f2d98a	7.0678583e-09
30	0x338a1b6b	6.431113e-08
31	0x311dc744	2.2959776e-09
32	0x342b3bc9	1.5947366e-07
33	0x339f0e74	7.4066435e-08
34	0x331e7be5	3.6899923e-08
35	0x30bef954	1.3895183e-09
36	0x345eb76b	2.0742088e-07
37	0x3406c24e	1.255041e-07
38	0x335fc1d3	5.2097516e-08
39	0x349bb5c5	2.9003255e-07
40	0x3340956a	4.4839375e-08
41	0x33676216	5.3873087e-08
42	0x34cff768	3.8736766e-07
43	0x3288e9b8	1.5938767e-08
44	0x340e8733	1.3273966e-07
45	0x313ed158	2.7767637e-09
46	0x3371dd42	5.6313418e-08
47	0x349572ee	2.7837035e-07
48	0x3230a58b	1.0282188e-08
49	0x3293d92a	1.7211807e-08
50	0x33cde651	9.587951e-08
51	0x338f07b2	6.660356e-08
52	0x3418524e	1.4186045e-07
53	0x349d1c54	2.926414e-07
54	0x3224ba00	9.588348e-09
55	0x3305eebd	3.1183607e-08
56	0x30e5a76e	1.6709529e-09
57	0x3302bab4	3.043779e-08
58	0x3224eca7	9.599865e-09
59	0x31eb588a	6.849466e-09
60	0x33fa5e2d	1.1658663e-07
61	0x3270c09f	1.4013636e-08
62	0x33f2a20e	1.1298481e-07
63	0x33d98e02	1.0130681e-07
64	0x333d4183	4.4064574e-08
65	0x32a814d7	1.9567251e-08
66	0x31010dff	1.8779927e-09
67	0x30513546	7.6109463e-10
68	0x336f5d45	5.5731352e-08
69	0x31426300	2.828699e-09
70	0x3387fe6e	6.332708e-08
71	0x33e8c055	1.0838327e-07
72	0x337c678c	5.8767498e-08
73	0x3392337f	6.808022e-08
74	0x31ca7be4	5.8930585e-09
75	0x33cac461	9.442079e-08
76	0x318b992a	4.062845e-09
77	0x32906155	1.6808068e-08
78	0x31174964	2.201511e-09
79	0x3514a749	5.537773e-07
80	0x32757a8c	1.4288741e-08
81	0x3459c93e	2.0282911e-07
82	0x33d0f031	9.729445e-08
83	0x315ae7b2	3.1854879e-09
84	0x3454cd4f	1.981873e-07
85	0x31f4452a	7.1091977e-09
86	0x31e4b9ac	6.656782e-09
87	0x329d7847	1.8331901e-08
88	0x333cef3c	4.3989743e-08
89	0x32f86d5d	2.8920732e-08
90	0x3380e7ec	6.002651e-08
91	0x327e22fb	1.47926995e-08
92	0x3332a1af	4.1590905e-08
93	0x32cd5d9d	2.3907711e-08
94	0x30e6160c	1.6740969e-09
95	0x336d4f34	5.5252897e-08
96	0x3473221e	2.264355e-07
97	0x330f1742	3.3315935e-08
98	0x33364980	4.2442025e-08
99	0x34bdf0bd	3.5379153e-07
100	0x32199714	8.940123e-09
101	0x3343f250	4.5622357e-08
102	0x321af0d8	9.018741e-09
103	0x3193e1e4	4.303944e-09
104	0x31ac264c	5.0102127e-09
105	0x31d2fbc8	6.1404286e-09
106	0x33b53e25	8.439773e-08
107	0x332ead16	4.0669953e-08
108	0x322b9945	9.9883595e-09
109	0x3410cd39	1.3485705e-07
110	0x3392235e	6.805088e-08
111	0x33ab7ca6	7.9854814e-08
112	0x33030164	3.050208e-08
113	0x3536ef1a	6.814822e-07
114	0x33821393	6.057157e-08
115	0x3304234a	3.076574e-08
116	0x34f99e17	4.649489e-07
117	0x33083b66	3.171899e-08
118	0x3365a791	5.3470618e-08
119	0x33fff530	1.1918962e-07
120	0x3319afa8	3.5782847e-08
121	0x32a3905b	1.9041343e-08
122	0x32360361	1.0594563e-08
123	0x30a9e567	1.2361568e-09
124	0x3380271b	5.967578e-08
125	0x33a177ab	7.518914e-08
126	0x334b9306	4.7398338e-08
127	0x318a37f5	4.02269e-09
128	0x31a9d55f	4.942805e-09
129	0x317421b2	3.5525827e-09
130	0x31363e2e	2.651983e-09
131	0x3247eb22	1.16367875e-08
132	0x3174b2bd	3.5608274e-09
133	0x31be519c	5.5390057e-09
134	0x324bc9b1	1.18620145e-08
135	0x311e7aaa	2.3061753e-09
136	0x30cc181e	1.4849808e-09
137	0x31a88869	4.9049516e-09
138	0x31a2d91e	4.739504e-09
139	0x31521d33	3.057562e-09
140	0x30f4a2a1	1.7799558e-09
141	0x2f0dfb8e	1.2913245e-10
142	0x3218fd03	8.905093e-09
143	0x32398970	1.0799667e-08
144	0x30d731d1	1.5657468e-09
145	0x315b8e89	3.1949716e-09
146	0x3136bfc5	2.6593494e-09
147	0x3117728a	2.20385e-09
148	0x30e2fc54	1.651538e-09
149	0x2fb4184e	3.275908e-10
150	0x340e65c7	1.3261807e-07
151	0x3097409a	1.1005057e-09
152	0x31975672	4.404506e-09
153	0x31171222	2.19837e-09
154	0x30c831df	1.456609e-09
155	0x30fa7d74	1.822555e-09
156	0x30fbe7df	1.8328555e-09
157	0x2fe66da7	4.191467e-10
158	0x332f3cf4	4.08008e-08
159	0x330b24a6	3.239679e-08
160	0x316bc5ba	3.4309395e-09
161	0x311f86a4	2.321408e-09
162	0x3231d57c	1.0351297e-08
163	0x323a1504	1.0831403e-08
164	0x310d12ef	2.0528963e-09
165	0x3277c0fe	1.4421174e-08
166	0x31b08043	5.136856e-09
167	0x31d0eb62	6.0803567e-09
168	0x339d22df	7.317225e-08
169	0x31fee1e8	7.4180555e-09
170	0x3204f705	7.739577e-09
171	0x312b12ea	2.4894526e-09
172	0x31cd811e	5.980964e-09
173	0x333ed64c	4.4432724e-08
174	0x3029fabc	6.1838157e-10
175	0x30d3a2af	1.5398508e-09
176	0x3186fd01	3.9286765e-09
177	0x31d2afc9	6.131789e-09
178	0x329784ca	1.7639099e-08
179	0x32e51c8c	2.667209e-08
180	0x3132c01f	2.6011617e-09
181	0x31ba987f	5.4306493e-09
182	0x3033b5d8	6.5378236e-10
183	0x31082f24	1.98174e-09
184	0x31715792	3.5119894e-09
185	0x30603897	8.1571144e-10
186	0x33301bcf	4.1003485e-08
187	0x30fe6700	1.8510207e-09
188	0x3215185f	8.678483e-09
189	0x32801ec7	1.4915157e-08
190	0x31a7b3de	4.880788e-09
191	0x311099ef	2.104226e-09
192	0x310839b0	1.9823396e-09
193	0x3052cf5e	7.669224e-10
194	0x315d0ff8	3.216881e-09
195	0x307765be	9.000266e-10
196	0x31b94d4f	5.3929976e-09
197	0x3230c836	1.0290071e-08
198	0x30b02c1f	1.2818225e-09
199	0x30a4bd7e	1.1986427e-09
200	0x30ba9693	1.3576077e-09
201	0x3230d22f	1.02923385e-08
202	0x30d31629	1.5358569e-09
203	0x31810ca7	3.7558325e-09
204	0x306e07fc	8.659524e-10
205	0x3295032a	1.7347322e-08
206	0x3159398c	3.1610368e-09
207	0x3299e3be	1.791511e-08
208	0x32004440	7.466099e-09
209	0x3155a3d2	3.10887e-09
210	0x33678fac	5.3914547e-08
211	0x31003561	1.8656794e-09
212	0x30c68d19	1.4446498e-09
213	0x30743ff3	8.885756e-10
214	0x30cb1e1c	1.4778752e-09
215	0x317e3bca	3.699585e-09
216	0x31083341	1.981974e-09
217	0x30ffe7e8	1.8619604e-09
218	0x31b5b3e0	5.2882427e-09
219	0x3135c930	2.6453328e-09
220	0x30a75afc	1.2176709e-09
221	0x31dc7576	6.4161965e-09
222	0x32b0c49d	2.0578506e-08
223	0x319539bf	4.3430357e-09
224	0x320078d3	7.478053e-09
225	0x32d63dd3	2.4940993e-08
226	0x2fffd159	4.653298e-10
227	0x31737be5	3.543158e-09
228	0x30958be5	1.0880937e-09
229	0x30bf5c39	1.392329e-09
230	0x3126765c	2.4223459e-09
231	0x3100b89f	1.8731396e-09
232	0x31ee56c0	6.936574e-09
233	0x3239bd70	1.081149e-08
234	0x3118d922	2.2242337e-09
235	0x31e5a89a	6.683945e-09
236	0x318e43f3	4.140469e-09
237	0x3245275c	1.14758585e-08
238	0x31a9e43d	4.944495e-09
239	0x33d9529b	1.0119876e-07
240	0x31c9a821	5.868984e-09
241	0x31dfd15c	6.5139556e-09
242	0x32ec69a7	2.7522061e-08
243	0x32678b1b	1.3477599e-08
244	0x31f5deb7	7.155758e-09
245	0x321984ea	8.935993e-09
246	0x31718a35	3.5148677e-09
247	0x31512776	3.0435934e-09
248	0x3193f641	4.306259e-09
249	0x2fa676f3	3.0279743e-10
250	0x3053b03c	7.7011797e-10
251	0x32c140c9	2.2497618e-08
252	0x331a5bda	3.5939458e-08
253	0x3144dc8d	2.8647122e-09
254	0x31983f8f	4.431008e-09
255	0x311e86bd	2.3068616e-09

exp_avg f4 [504]
0	0x3aa2fad2	0.001243437
1	0x39aaafc9	0.00032555897
2	0x3a0709c4	0.00051512965
3	0x39a9281f	0.00032264084
4	0x39ff050b	0.00048641147
5	0xb97ed088	-0.00024301012
6	0xb88dfad2	-6.770123e-05
7	0x3a67dfa1	0.0008845274
8	0xb998219b	-0.00029016737
9	0x3792b370	1.7488113e-05
10	0xb9447d4a	-0.0001873869
11	0x388fc737	6.855878e-05
12	0x393c571b	0.00017961526
13	0xb996e96b	-0.0002878414
14	0x397ced8e	0.00024121089
15	0xb85f661e	-5.3262447e-05
16	0x3a672cad	0.0008818608
17	0x3afbfa41	0.0019224362
18	0xb9886119	-0.00026012285
19	0x3a5538fa	0.00081337953
20	0x39a25bfb	0.0003096758
21	0x39b85b9f	0.00035163478
22	0x39bd01a3	0.0003605011
23	0xb8efc83e	-0.00011433706
24	0xbb30c484	-0.0026972601
25	0x3a1e87ac	0.00060474384
26	0x3a97ba04	0.0011575823
27	0xb97e3af3	-0.00024245288
28	0xb7a5e204	-1.977478e-05
29	0x393a1af2	0.0001774838
30	0x3a02fa34	0.00049963896
31	0xb90a897c	-0.00013211922
32	0x3a5ecc20	0.0008499045
33	0x3a7b463b	0.00095853553
34	0x39d4f965	0.00040621604
35	0xb8b275b2	-8.509624e-05
36	0x3a15a9c2	0.0005709195
37	0x3b29d209	0.0025912544
38	0x3a418c98	0.0007383316
39	0x3a895ac6	0.0010479323
40	0x3a7ff34f	0.0009763734
41	0x39f3646a	0.00046423386
42	0x3aec27da	0.0018017248
43	0x38535fb9	5.039547e-05
44	0x3b339d51	0.0027407
45	0x398ea134	0.00027204456
46	0x3950a20e	0.00019896796
47	0x39eaa86b	0.0004475744
48	0xb8cdc728	-9.8122575e-05
49	0xb93de209	-0.00018108649
50	0x3a8f8512	0.0010949692
51	0x3b18b2b0	0.0023299865
52	0x3b5cf35e	0.0033714394
53	0x3a270727	0.000637161
54	0x382179a1	3.8498667e-05
55	0x3a91ca9c	0.0011123004
56	0xb93d677a	-0.00018062993
57	0x3a671243	0.0008814672
58	0xba1e434a	-0.00060372485
59	0xb9133dc2	-0.00014042019
60	0x3a71826b	0.0009212854
61	0x394d9da9	0.00019609056
62	0x3a30e15a	0.0006747447
63	0xb95efa30	-0.00021264772
64	0x38d6ff84	0.00010251909
65	0x382f0709	4.1729803e-05
66	0x39292279	0.00016129938
67	0xb83514e7	-4.317323e-05
68	0x39a6582c	0.0003172768
69	0xb5b4bbef	-1.3465741e-06
70	0x3a0b5b87	0.0005316068
71	0x3a55a2f3	0.00081495865
72	0x3a17d0b3	0.00057912915
73	0x3a6294db	0.0008643397
74	0xb95137d6	-0.00019952594
75	0x3996d05a	0.00028765464
76	0xb8ec1511	-0.00011257281
77	0x3a149782	0.00056683284
78	0xb938b803	-0.00017616157
79	0x3b5fab03	0.003412903
80	0xba133119	-0.0005614921
81	0x3933bac2	0.00017140343
82	0x3a71190e	0.0009197154
83	0x39e1fa25	0.00043101716
84	0x3ad37bda	0.0016134933
85	0x39e51e2e	0.0004370077
86	0xb9e086da	-0.00042825082
87	0x38ea7037	0.00011178891
88	0x3a57d721	0.0008233656
89	0xb7d53055	-2.5414085e-05
90	0xb97d8b68	-0.00024179893
91	0xb9967aa0	-0.00028701592
92	0xb929e7ad	-0.00016203402
93	0xb9296497	-0.00016154569
94	0x38ee3011	0.000113576774
95	0x39f4077d	0.00046544886
96	0x3af5c0b4	0.0018749447
97	0x38e691be	0.00010994401
98	0x390416c9	0.00012596989
99	0x3a044dc3	0.0005046988
100	0xb90b8b12	-0.0001330788
101	0x39d28059	0.00040149948
102	0xb849a4e5	-4.8075704e-05
103	0xb88a8bd4	-6.606398e-05
104	0x3890cf42	6.90506e-05
105	0xb955cdd5	-0.00020389941
106	0x3a83f75f	0.0010068229
107	0xb936bc06	-0.00017426917
108	0x384fc545	4.9536367e-05
109	0x3ad989c0	0.0016596839
110	0x3abeab8b	0.0014546973
111	0x39b54244	0.00034572382
112	0xb9afc4da	-0.00033525267
113	0x3a42278b	0.0007406405
114	0x38b130e5	8.449125e-05
115	0x39bf2303	0.00036456445
116	0x39d670d9	0.0004090134
117	0x3a933ba0	0.001123298
118	0x397f70fd	0.00024360786
119	0x3a9961d8	0.0011702133
120	0x3900ef21	0.00012296114
121	0xb8554b1d	-5.0853112e-05
122	0x3a0cdd6d	0.0005373571
123	0xb9916b06	-0.00027736294
124	0x3a65864d	0.0008755669
125	0x3a48f8f7	0.0007666493
126	0xbbd0b2f2	-0.006368988
127	0xba76d324	-0.00094156177
128	0xbafc8de3	-0.001926836
129	0xb9a108c8	-0.00030714856
130	0xbab311ff	-0.001366198
131	0xbc2cfd77	-0.010558478
132	0xba361346	-0.0006945621
133	0xbaa4880f	-0.0012552756
134	0xbb421269	-0.0029613024
135	0xb90afef1	-0.00013255679
136	0xb95b3d6e	-0.00020908352
137	0xbab3166c	-0.0013663298
138	0xbaaa9e6f	-0.0013017188
139	0xba2f208a	-0.0006680569
140	0xba0bd397	-0.00053339585
141	0xb9325423	-0.00017006746
142	0xbb42b12b	-0.002970765
143	0xbb1fec7a	-0.0024402426
144	0xb98f724b	-0.0002736024
145	0xba8c26bb	-0.0010692695
146	0xba1ccbab	-0.00059812766
147	0xb9ed94fc	-0.00045315165
148	0xb91e3dc1	-0.0001509106
149	0xb83b91b2	-4.4719964e-05
150	0xbcb40526	-0.021975111
151	0xba7645f0	-0.0009394577
152	0xbb19019d	-0.002334691
153	0xb92ee649	-0.00016679721
154	0xb98a467f	-0.00026373935
155	0xb9d6d6f2	-0.00040977407
156	0xbae80333	-0.0017701149
157	0xb8bdc7f3	-9.049466e-05
158	0xbbdcc971	-0.006737881
159	0xbb565acf	-0.0032707935
160	0xba015f1b	-0.00049351313
161	0xb8fb1f5d	-0.000119744545
162	0xbc24ea22	-0.010065587
163	0xbbf3cf69	-0.0074404967
164	0xba4a367f	-0.0007713809
165	0xbc21d3f7	-0.0098771965
166	0xbaeda041	-0.0018129424
167	0xbabe3b6a	-0.0014513556
168	0xbbd096fc	-0.006365655
169	0xb9fd459a	-0.00048307778
170	0xbb65d6bf	-0.0035070626
171	0xb966cb95	-0.0002201035
172	0xbb051717	-0.0020307952
173	0xbbf68c72	-0.0075240666
174	0xb94d0eb9	-0.00019555808
175	0xb838ec65	-4.4089178e-05
176	0xbb70499d	-0.003666497
177	0xbb34e567	-0.0027602555
178	0xbb8eb59e	-0.0043551465
179	0xbb6a61cd	-0.003576386
180	0xba336fbb	-0.0006844957
181	0xba5ae7e0	-0.0008350592
182	0xb9275690	-0.00015958608
183	0xba481280	-0.0007632151
184	0xbb3b631a	-0.0028593005
185	0xb9fb635f	-0.00047948488
186	0xbb5f144a	-0.0034039193
187	0xb99aa2f1	-0.0002949457
188	0xbadfe5d2	-0.0017082042
189	0xb9b95c95	-0.0003535493
190	0xba817f91	-0.0009879937
191	0xb89fa2f5	-7.612064e-05
192	0xb8670520	-5.5079465e-05
193	0xb67cf591	-3.7693865e-06
194	0xba866038	-0.0010252064
195	0xb8c3c620	-9.335228e-05
196	0xbab139e3	-0.001352128
197	0xbaf67ebc	-0.001880608
198	0xbb5a03d3	-0.003326644
199	0xbb405e67	-0.0029353143
200	0xb8f0e655	-0.000114869945
201	0xbaf6a67d	-0.0018817928
202	0xb9cb7049	-0.00038802836
203	0xb9ffa617	-0.00048761137
204	0xb983be89	-0.00025128227
205	0xbc29c808	-0.010362633
206	0xb91f1768	-0.00015172141
207	0xbb7b3d75	-0.0038336192
208	0xbb0fcc1a	-0.0021941722
209	0xba4fc29e	-0.00079254236
210	0xbc15eb72	-0.009150373
211	0xba5c5f93	-0.00084065757
212	0xb95c8015	-0.00021028549
213	0xb7549f8b	-1.2673331e-05
214	0xbacfdf05	-0.0015859312
215	0xb9d457c7	-0.0004050119
216	0xbbba3d15	-0.005683551
217	0xb9a9ce6d	-0.0003238799
218	0xbb039f33	-0.0020083904
219	0xb9d3d076	-0.00040400372
220	0xb8b0e421	-8.434826e-05
221	0xbbd629b9	-0.0065357354
222	0xbbb68c5b	-0.005570931
223	0xba4c832a	-0.00078015274
224	0xbaa0209a	-0.0012216747
225	0xbb74c02f	-0.0037345996
226	0xb8d8090c	-0.00010301368
227	0xba9b009a	-0.0011825741
228	0xb8c86477	-9.555456e-05
229	0xba31fb55	-0.00067894656
230	0x360d42c6	2.1049505e-06
231	0xba54e3ff	-0.0008121132
232	0xbb53cb83	-0.0032317347
233	0xbb810f29	-0.003938575
234	0xb9301f4d	-0.00016796328
235	0xbb172ada	-0.0023066313
236	0xbb3f1b16	-0.0029160432
237	0xbb855ca2	-0.0040698806
238	0xbb190115	-0.0023346592
239	0xbbef62ec	-0.0073054936
240	0xbacec1c1	-0.0015774296
241	0xbb29694d	-0.0025850118
242	0xbb8e1614	-0.004336128
243	0xba84189d	-0.0010078136
244	0xba99b51a	-0.0011726946
245	0xbb254624	-0.002521881
246	0xb98c37ca	-0.00026744447
247	0xbaaf5349	-0.0013376261
248	0xbab11d50	-0.0013512764
249	0xb94d6565	-0.00019588096
250	0xba8119aa	-0.0009849567
251	0xba98b81a	-0.0011651546
252	0xbb99f5c7	-0.0046984884
253	0xbaa15f3f	-0.0012311711
254	0xbacdad80	-0.0015691966
255	0x3a56004d	0.0008163497

exp_avg_sq f4 [504]
0	0x35a89c50	1.2562468e-06
1	0x350cc614	5.2442306e-07
2	0x355937af	8.091983e-07
3	0x34905e33	2.689063e-07
4	0x3547f47d	7.4489054e-07
5	0x345d30b7	2.0599951e-07
6	0x348d17b6	2.628055e-07
7	0x3529267a	6.3013397e-07
8	0x34d2dcfa	3.927633e-07
9	0x3385d5ac	6.232162e-08
10	0x32de8af9	2.5907399e-08
11	0x34b81292	3.4286182e-07
12	0x3476d444	2.2987757e-07
13	0x34500c29	1.9375933e-07
14	0x34bfc81a	3.5722115e-07
15	0x32f5aecf	2.8601248e-08
16	0x34f96df0	4.6459854e-07
17	0x35ea67fe	1.7464624e-06
18	0x338060e7	5.978091e-08
19	0x352bf4d2	6.4058725e-07
20	0x34db9ce9	4.0906096e-07
21	0x34cfb7f0	3.8690587e-07
22	0x34e0ef07	4.1897167e-07
23	0x340aa419	1.291195e-07
24	0x3649ba3d	3.005974e-06
25	0x34cc0309	3.800017e-07
26	0x35a5d243	1.2354652e-06
27	0x340a5ca0	1.2885948e-07
28	0x330d9127	3.2961136e-08
29	0x34063d21	1.2501961e-07
30	0x34eeef9a	4.4505288e-07
31	0x330e5c18	3.314571e-08
32	0x35831b32	9.768175e-07
33	0x358787a0	1.0097756e-06
34	0x34940f38	2.757822e-07
35	0x34201806	1.4909901e-07
36	0x36067007	2.0032764e-06
37	0x365a80e3	3.2559553e-06
38	0x35429546	7.2487853e-07
39	0x35883fc5	1.0151349e-06
40	0x34f6b20c	4.5950617e-07
41	0x34e3b192	4.2411244e-07
42	0x35c5ab87	1.4727565e-06
43	0x340c8262	1.3085949e-07
44	0x364fa3c3	3.0940726e-06
45	0x34155298	1.3906754e-07
46	0x3503525a	4.892114e-07
47	0x349b0872	2.8877145e-07
48	0x342a88b5	1.5882217e-07
49	0x34932e8d	2.7414754e-07
50	0x3581e657	9.678287e-07
51	0x3622b940	2.424771e-06
52	0x368fc415	4.284559e-06
53	0x34eb4203	4.382019e-07
54	0x341fafa6	1.487193e-07
55	0x3583565e	9.785397e-07
56	0x330fd045	3.3484202e-08
57	0x351ec12e	5.91407e-07
58	0x348065c7	2.391591e-07
59	0x3410d8b7	1.3489885e-07
60	0x352056d4	5.9730996e-07
61	0x3307cd24	3.161871e-08
62	0x3504f1fe	4.9525977e-07
63	0x3570e0db	8.9734175e-07
64	0x346a0d60	2.1797814e-07
65	0x33e5aed2	1.0695443e-07
66	0x33ca74a0	9.427572e-08
67	0x335ae36a	5.0963912e-08
68	0x349d4883	2.9296288e-07
69	0x32bcfbf4	2.2000656e-08
70	0x34b44bad	3.3582674e-07
71	0x352bf3f0	6.405744e-07
72	0x3543d090	7.294666e-07
73	0x35875085	1.0081718e-06
74	0x3397de14	7.071881e-08
75	0x34aa42d4	3.171359e-07
76	0x33c63f37	9.231592e-08
77	0x34da1b5f	4.062558e-07
78	0x3351ed57	4.8877464e-08
79	0x366b5331	3.5066153e-06
80	0x3497a2a1	2.824427e-07
81	0x34f4f5a7	4.5627277e-07
82	0x35275300	6.233313e-07
83	0x34928a06	2.7295044e-07
84	0x3589d661	1.0269688e-06
85	0x346095bc	2.0916099e-07
86	0x33ab4b11	7.9764625e-08
87	0x33b28517	8.31298e-08
88	0x35174836	5.6356964e-07
89	0x3428a20a	1.5705169e-07
90	0x3573283f	9.058312e-07
91	0x339105b4	6.753126e-08
92	0x347320ad	2.2643026e-07
93	0x338de924	6.608232e-08
94	0x33210c71	3.749705e-08
95	0x350c7b85	5.233381e-07
96	0x3604a917	1.9767956e-06
97	0x34aa08b0	3.1671289e-07
98	0x34d28704	3.9213785e-07
99	0x34b8d594	3.442807e-07
100	0x331084a0	3.3648234e-08
101	0x3513981f	5.498313e-07
102	0x33870648	6.28757e-08
103	0x342b301a	1.5943115e-07
104	0x33aede30	8.142922e-08
105	0x348cd84a	2.6234403e-07
106	0x352b64d7	6.3849205e-07
107	0x34674553	2.1538771e-07
108	0x34052ad2	1.2402168e-07
109	0x35dc9b58	1.6436488e-06
110	0x35842805	9.846414e-07
111	0x34e9bc3d	4.3536593e-07
112	0x347aa717	2.3343851e-07
113	0x34937808	2.7468218e-07
114	0x350e224e	5.294904e-07
115	0x3486e695	2.5127216e-07
116	0x35219a04	6.0201296e-07
117	0x3515af3c	5.5761825e-07
118	0x34897bb0	2.5608233e-07
119	0x35863bf2	1.0001224e-06
120	0x3445b874	1.8414158e-07
121	0x34124c9f	1.3625184e-07
122	0x346e1b9e	2.2175524e-07
123	0x332e489b	4.0578566e-08
124	0x35408461	7.171821e-07
125	0x34ffe336	4.766277e-07
126	0x379868b5	1.816857e-05
127	0x35797f0d	9.294461e-07
128	0x36600588	3.338182e-06
129	0x3483e8d8	2.4570068e-07
130	0x35fc7a7b	1.881111e-06
131	0x3815a273	3.567566e-05
132	0x34b1c75a	3.3113866e-07
133	0x3613a100	2.1998421e-06
134	0x368fdbf5	4.2873385e-06
135	0x3307dbea	3.1632148e-08
136	0x32a910e8	1.9681877e-08
137	0x35c3cb76	1.4587847e-06
138	0x35cfc33a	1.547952e-06
139	0x33ebdff9	1.09837806e-07
140	0x34aa9a6f	3.1777333e-07
141	0x32688910	1.3535342e-08
142	0x36bf6327	5.7037864e-06
143	0x369b85d9	4.634942e-06
144	0x32d2be03	2.4533625e-08
145	0x3559762b	8.1010757e-07
146	0x3536f66b	6.815887e-07
147	0x353b3c16	6.9750365e-07
148	0x34b13655	3.300835e-07
149	0x31bcb139	5.491668e-09
150	0x39280ac4	0.00016025739
151	0x360344f6	1.9560662e-06
152	0x36944ecb	4.4199164e-06
153	0x332e67ec	4.060705e-08
154	0x33409a7a	4.484398e-08
155	0x34a0ed72	2.9975087e-07
156	0x3696436b	4.478197e-06
157	0x32415c1f	1.12550245e-08
158	0x379ef479	1.894891e-05
159	0x36e9c6cf	6.9670855e-06
160	0x34f82acf	4.6224747e-07
161	0x3356ae94	4.9984536e-08
162	0x380851f3	3.2501248e-05
163	0x384766cd	4.7541038e-05
164	0x356cec55	8.826076e-07
165	0x389832f6	7.257417e-05
166	0x359d20d4	1.1706966e-06
167	0x3595b7f8	1.1154907e-06
168	0x37a7fde2	2.0026175e-05
169	0x34a5fbd6	3.091688e-07
170	0x372446e9	9.791672e-06
171	0x34b7a534	3.4206607e-07
172	0x363d55e2	2.8213185e-06
173	0x37f15bed	2.8772245e-05
174	0x338d0089	6.5659215e-08
175	0x33555eef	4.967927e-08
176	0x3734deb5	1.0780689e-05
177	0x36d5e7ee	6.374895e-06
178	0x378285a1	1.5559433e-05
179	0x371af4e2	9.2361315e-06
180	0x34c8fe32	3.7437854e-07
181	0x35859e36	9.955318e-07
182	0x32ac69a3	2.0071473e-08
183	0x358da596	1.055351e-06
184	0x364096d7	2.869803e-06
185	0x342a3ed9	1.5855348e-07
186	0x36e93feb	6.951382e-06
187	0x331058be	3.3608323e-08
188	0x361b8c0c	2.3178318e-06
189	0x34a8625d	3.1364007e-07
190	0x354a2e20	7.5317985e-07
191	0x3408ae1f	1.2729332e-07
192	0x332c9f5c	4.0191807e-08
193	0x32531bc2	1.2288128e-08
194	0x356c8977	8.811689e-07
195	0x32d59c10	2.4867433e-08
196	0x365421cf	3.161014e-06
197	0x36513d4d	3.1179109e-06
198	0x36d671a8	6.3909283e-06
199	0x36b85f2c	5.494707e-06
200	0x328797d7	1.5785117e-08
201	0x361077de	2.1527444e-06
202	0x338727ba	6.2936536e-08
203	0x352da268	6.4683854e-07
204	0x33be6c63	8.86728e-08
205	0x3831a1e5	4.2350865e-05
206	0x33edac8b	1.1067558e-07
207	0x3725cf38	9.883013e-06
208	0x36a60114	4.947311e-06
209	0x357bb42f	9.376699e-07
210	0x3810347d	3.438116e-05
211	0x3580967d	9.580541e-07
212	0x32ae06ec	2.0259414e-08
213	0x332e5f13	4.0599e-08
214	0x3587cc59	1.0117757e-06
215	0x33b75325	8.5367255e-08
216	0x37297392	1.0100093e-05
217	0x33830eea	6.102876e-08
218	0x3615482b	2.2244737e-06
219	0x339fc69a	7.44014e-08
220	0x33646721	5.3179182e-08
221	0x3779067e	1.4843068e-05
222	0x37d001ad	2.4796313e-05
223	0x352d32bc	6.452135e-07
224	0x35b42b5a	1.3423662e-06
225	0x376bd8b9	1.4057551e-05
226	0x323180b8	1.0332023e-08
227	0x35d7e7e4	1.6086237e-06
228	0x32c74be8	2.3201167e-08
229	0x35240840	6.1106766e-07
230	0x339b0cd6	7.220085e-08
231	0x34fd78f4	4.7212927e-07
232	0x37136c04	8.787032e-06
233	0x36eacdc3	6.9976973e-06
234	0x33f215a1	1.12729374e-07
235	0x36b7bcd0	5.4758057e-06
236	0x36e94aae	6.952635e-06
237	0x374105d6	1.1505055e-05
238	0x360de520	2.1144006e-06
239	0x37c3128d	2.325445e-05
240	0x359e39b3	1.178871e-06
241	0x36c82be6	5.965575e-06
242	0x376a70b8	1.3973731e-05
243	0x35a936cd	1.260743e-06
244	0x35bfc0aa	1.4286682e-06
245	0x369aa1c2	4.6083887e-06
246	0x34481779	1.8634991e-07
247	0x3573ccf1	9.0822783e-07
248	0x361fab8a	2.3792695e-06
249	0x322ba83c	9.991762e-09
250	0x35a280c0	1.2107412e-06
251	0x3524aa95	6.134299e-07
252	0x36a44f2c	4.8967977e-06
253	0x358bcbf7	1.0415669e-06
254	0x35d538e4	1.5886294e-06
255	0x363a3372	2.7746105e-06
