models/optweezer/2c5sp2rf/checkpoints/epoch=0-step=0.ckpt (torch, 267055 bytes, 10 tensors)

exp_avg f4 [2, 126]
00000000: 0000 0000 0000 0000 df5e 2d37 0000 0000
00000010: 0000 0000 0000 0000 0000 0000 0000 0000
00000020: 05d7 2839 137f b23a 6095 9a3a 0000 0000
00000030: 0000 0000 b397 dd39 0000 0000 bcbf 023b
00000040: 8751 b83a e3c0 193a 0000 0000 56a8 b938
00000050: 0000 0000 0000 0000 0000 0000 6fd4 a639
00000060: 0000 0000 ab05 593a ef43 683a 8f25 2f3b
00000070: b0de 6639 0000 0000 5dc5 523a 0000 0000
00000080: 0000 0000 0000 0000 96d7 893a 0000 0000
00000090: db77 093a 0000 0000 a206 703a 078b 163b
000000a0: ef74 a53a 196a 4437 0000 0000 0000 0000
000000b0: 0000 0000 9bf0 4339 0000 0000 0000 0000
000000c0: 1daa de39 0000 0000 0000 0000 0f59 a53a
000000d0: 0000 0000 ed81 743a 0000 0000 0000 0000
000000e0: 7bce 2939 8344 9e3a 2348 853a fd51 463b
000000f0: 0d4d f738 0000 0000 0000 0000 0000 0000
00000100: 0000 0000 0000 0000 0000 0000 7b9e 3d3a
00000110: d1b9 883a e33d c83a 0000 0000 a39b f83a
00000120: 5ad2 893a 1d3a 683a 0000 0000 0000 0000
00000130: 8361 9c3a 0000 0000 a77c a83a e2bf f83a
00000140: 7a74 bc3a 22d4 993a 006d f639 0000 0000
00000150: d799 403a 20a1 013a 0000 0000 8dff e53a
00000160: 8f33 433a 0000 0000 ff0f d73a 0000 0000
00000170: 0000 0000 580b 4539 0000 0000 0000 0000
00000180: 9c1d 313b 0000 0000 0000 0000 0b97 393a
00000190: 0000 0000 0000 0000 f050 b73a 99f2 aa3a
000001a0: 13f7 b83a b8bb 6d3a ca1c ae39 0000 0000
000001b0: cc39 3b3b efa6 5239 1075 c13a 0000 0000
000001c0: 0000 0000 0000 0000 22e8 db39 0000 0000
000001d0: 9b9a 3a3a 2cc9 b53a 0000 0000 0000 0000
000001e0: ac0f ba3a 0d93 713a 03df e83a 0000 0000
000001f0: 0000 0000 748d a839 0000 0000 0000 0000
00000200: de5e 2db7 0000 0000 0000 0000 0000 0000
00000210: 0000 0000 0000 0000 05d7 28b9 137f b2ba
00000220: 6095 9aba 0000 0000 0000 0000 b397 ddb9
00000230: 0000 0000 bcbf 02bb 8751 b8ba e1c0 19ba
00000240: 0000 0000 57a8 b9b8 0000 0000 0000 0000
00000250: 0000 0000 6fd4 a6b9 0000 0000 ab05 59ba
00000260: f043 68ba 8f25 2fbb b0de 66b9 0000 0000
00000270: 5dc5 52ba 0000 0000 0000 0000 0000 0000
00000280: 95d7 89ba 0000 0000 db77 09ba 0000 0000
00000290: a006 70ba 078b 16bb ef74 a5ba 196a 44b7
000002a0: 0000 0000 0000 0000 0000 0000 9bf0 43b9
000002b0: 0000 0000 0000 0000 1daa deb9 0000 0000
000002c0: 0000 0000 0f59 a5ba 0000 0000 eb81 74ba
000002d0: 0000 0000 0000 0000 7bce 29b9 8344 9eba
000002e0: 2348 85ba fe51 46bb 0d4d f7b8 0000 0000
000002f0: 0000 0000 0000 0000 0000 0000 0000 0000
00000300: 0000 0000 7e9e 3dba d1b9 88ba e33d c8ba
00000310: 0000 0000 a39b f8ba 5ad2 89ba 1d3a 68ba
00000320: 0000 0000 0000 0000 8361 9cba 0000 0000
00000330: a77c a8ba e0bf f8ba 7b74 bcba 22d4 99ba
00000340: 006d f6b9 0000 0000 d799 40ba 1fa1 01ba
00000350: 0000 0000 8dff e5ba 8f33 43ba 0000 0000
00000360: ff0f d7ba 0000 0000 0000 0000 570b 45b9
00000370: 0000 0000 0000 0000 9b1d 31bb 0000 0000
00000380: 0000 0000 0b97 39ba 0000 0000 0000 0000
00000390: f050 b7ba 99f2 aaba 12f7 b8ba babb 6dba
000003a0: ca1c aeb9 0000 0000 cc39 3bbb efa6 52b9
000003b0: 1075 c1ba 0000 0000 0000 0000 0000 0000
000003c0: 22e8 dbb9 0000 0000 989a 3aba 2dc9 b5ba
000003d0: 0000 0000 0000 0000 ac0f baba 0d93 71ba
000003e0: 02df e8ba 0000 0000 0000 0000 748d a8b9
0.0 0.0 1.0333692e-05 0.0 0.0 0.0 0.0 0.0
0.0001610183 0.0013618193 0.0011793785 0.0 0.0 0.0004226543 0.0 0.0019950708
0.0014062383 0.0005865229 0.0 8.8528424e-05 0.0 0.0 0.0 0.00031820263
0.0 0.00082787377 0.00088602206 0.0026725268 0.00022017467 0.0 0.00080402737 0.0
0.0 0.0 0.001051652 0.0 0.0005243995 0.0 0.0009156262 0.002297105
0.001262335 1.1707213e-05 0.0 0.0 0.0 0.00018686282 0.0 0.0
0.00042469884 0.0 0.0 0.0012615043 0.0 0.0009327222 0.0 0.0
0.00016194016 0.0012074861 0.0010168593 0.0030261271 0.000117922296 0.0 0.0 0.0
0.0 0.0 0.0 0.0007233393 0.0010431354 0.0015277233 0.0 0.0018967282
0.001051496 0.0008858757 0.0 0.0 0.0011930916 0.0 0.0012854532 0.0018978084
0.0014377974 0.0011736194 0.00047001988 0.0 0.00073471427 0.0004944969 0.0 0.0017547474
0.00074463425 0.0 0.0016407965 0.0 0.0 0.0001879161 0.0 0.0
0.0027025705 0.0 0.0 0.0007079697 0.0 0.0 0.0013985913 0.001304227
0.001411172 0.0009068805 0.00033209316 0.0 0.0028568385 0.00020089348 0.0014759619 0.0
0.0 0.0 0.00041943887 0.0 0.0007118375 0.0013869158 0.0 0.0
0.0014195344 0.00092153327 0.0017766658 0.0 0.0 0.00032148848 0.0 0.0
-1.03336915e-05 0.0 0.0 0.0 0.0 0.0 -0.0001610183 -0.0013618193
-0.0011793785 0.0 0.0 -0.0004226543 0.0 -0.0019950708 -0.0014062383 -0.0005865228
0.0 -8.852843e-05 0.0 0.0 0.0 -0.00031820263 0.0 -0.00082787377
-0.0008860221 -0.0026725268 -0.00022017467 0.0 -0.00080402737 0.0 0.0 0.0
-0.0010516519 0.0 -0.0005243995 0.0 -0.00091562606 -0.002297105 -0.001262335 -1.1707213e-05
0.0 0.0 0.0 -0.00018686282 0.0 0.0 -0.00042469884 0.0
0.0 -0.0012615043 0.0 -0.00093272206 0.0 0.0 -0.00016194016 -0.0012074861
-0.0010168593 -0.0030261273 -0.000117922296 0.0 0.0 0.0 0.0 0.0
0.0 -0.0007233395 -0.0010431354 -0.0015277233 0.0 -0.0018967282 -0.001051496 -0.0008858757
0.0 0.0 -0.0011930916 0.0 -0.0012854532 -0.0018978082 -0.0014377976 -0.0011736194
-0.00047001988 0.0 -0.00073471427 -0.00049449684 0.0 -0.0017547474 -0.00074463425 0.0
-0.0016407965 0.0 0.0 -0.00018791608 0.0 0.0 -0.0027025703 0.0
0.0 -0.0007079697 0.0 0.0 -0.0013985913 -0.001304227 -0.0014111719 -0.0009068806
-0.00033209316 0.0 -0.0028568385 -0.00020089348 -0.0014759619 0.0 0.0 0.0
-0.00041943887 0.0 -0.0007118373 -0.0013869159 0.0 0.0 -0.0014195344 -0.00092153327
-0.0017766657 0.0 0.0 -0.00032148848

exp_avg_sq f4 [2, 126]
00000000: 0000 0000 0000 0000 c8db 3b2d 0000 0000
00000010: 0000 0000 0000 0000 0000 0000 0000 0000
00000020: 122b 3231 8821 4734 b159 1534 0000 0000
00000030: 0000 0000 9f72 9932 0000 0000 efb0 d534
00000040: 4855 5434 33c0 1333 0000 0000 f76d 5730
00000050: 0000 0000 0000 0000 0000 0000 81f3 2d32
00000060: 0000 0000 e42e 9333 c395 a833 31ba 3f35
00000070: b990 a631 0000 0000 84d3 8a33 0000 0000
00000080: 0000 0000 0000 0000 7381 ed33 0000 0000
00000090: 0338 ec32 0000 0000 f409 b433 26a5 0d35
000000a0: 8319 2b34 d01d 712d 0000 0000 0000 0000
000000b0: 0000 0000 e3f3 6f31 0000 0000 0000 0000
000000c0: 97ef 9a32 0000 0000 0000 0000 e0df 2a34
000000d0: 0000 0000 25d3 ba33 0000 0000 0000 0000
000000e0: d636 3431 d48d 1c34 ea0c de33 7cd1 7535
000000f0: 381e bf30 0000 0000 0000 0000 0000 0000
00000100: 0000 0000 0000 0000 0000 0000 a1b8 6033
00000110: a9ac e933 d19a 7a34 0000 0000 bc24 c134
00000120: 6a6f ed33 8287 a833 0000 0000 0000 0000
00000130: fcd7 1834 0000 0000 8c6c 3134 115d c134
00000140: 73f8 5d34 34e5 1334 89c4 bd32 0000 0000
00000150: 31d8 6733 190c d232 0000 0000 5b4f a534
00000160: bc25 6e33 0000 0000 7f89 9034 0000 0000
00000170: 0000 0000 57aa 7231 0000 0000 0000 0000
00000180: ef0f 4435 0000 0000 0000 0000 d845 5733
00000190: 0000 0000 0000 0000 b507 5234 f5a4 3634
000001a0: 5ed3 5534 b19d b033 3d78 3d32 0000 0000
000001b0: 9615 5b35 71ab 8a31 26e9 6934 0000 0000
000001c0: 0000 0000 0000 0000 311f 9732 0000 0000
000001d0: a3a1 5933 be89 4e34 0000 0000 0000 0000
000001e0: 0c5e 5834 905e b633 2d77 a934 0000 0000
000001f0: 0000 0000 f18f 3132 0000 0000 0000 0000
00000200: c5db 3b2d 0000 0000 0000 0000 0000 0000
00000210: 0000 0000 0000 0000 122b 3231 8821 4734
00000220: b159 1534 0000 0000 0000 0000 9f72 9932
00000230: 0000 0000 efb0 d534 4855 5434 30c0 1333
00000240: 0000 0000 fb6d 5730 0000 0000 0000 0000
00000250: 0000 0000 7ff3 2d32 0000 0000 e42e 9333
00000260: c595 a833 31ba 3f35 b990 a631 0000 0000
00000270: 84d3 8a33 0000 0000 0000 0000 0000 0000
00000280: 7081 ed33 0000 0000 0338 ec32 0000 0000
00000290: f109 b433 26a5 0d35 8319 2b34 d01d 712d
000002a0: 0000 0000 0000 0000 0000 0000 e3f3 6f31
000002b0: 0000 0000 0000 0000 97ef 9a32 0000 0000
000002c0: 0000 0000 e0df 2a34 0000 0000 22d3 ba33
000002d0: 0000 0000 0000 0000 d636 3431 d28d 1c34
000002e0: ea0c de33 7ed1 7535 381e bf30 0000 0000
000002f0: 0000 0000 0000 0000 0000 0000 0000 0000
00000300: 0000 0000 a6b8 6033 a9ac e933 d19a 7a34
00000310: 0000 0000 bc24 c134 6a6f ed33 8287 a833
00000320: 0000 0000 0000 0000 fcd7 1834 0000 0000
00000330: 8c6c 3134 0f5d c134 77f8 5d34 34e5 1334
00000340: 89c4 bd32 0000 0000 31d8 6733 160c d232
00000350: 0000 0000 5b4f a534 bc25 6e33 0000 0000
00000360: 7f89 9034 0000 0000 0000 0000 53aa 7231
00000370: 0000 0000 0000 0000 ec0f 4435 0000 0000
00000380: 0000 0000 d845 5733 0000 0000 0000 0000
00000390: b507 5234 f5a4 3634 5ad3 5534 b39d b033
000003a0: 3d78 3d32 0000 0000 9615 5b35 71ab 8a31
000003b0: 26e9 6934 0000 0000 0000 0000 0000 0000
000003c0: 311f 9732 0000 0000 9ea1 5933 c089 4e34
000003d0: 0000 0000 0000 0000 0c5e 5834 905e b633
000003e0: 2b77 a934 0000 0000 0000 0000 f18f 3132
0.0 0.0 1.0678521e-11 0.0 0.0 0.0 0.0 0.0
2.5926892e-09 1.8545518e-07 1.3909336e-07 0.0 0.0 1.7863668e-08 0.0 3.9803078e-07
1.9775064e-07 3.440091e-08 0.0 7.8372814e-10 0.0 0.0 0.0 1.0125292e-08
0.0 6.85375e-08 7.850351e-08 7.142399e-07 4.847689e-09 0.0 6.4646e-08 0.0
0.0 0.0 1.1059719e-07 0.0 2.7499487e-08 0.0 8.3837136e-08 5.2766916e-07
1.5934897e-07 1.3705884e-11 0.0 0.0 0.0 3.491771e-09 0.0 0.0
1.8036912e-08 0.0 0.0 1.5913929e-07 0.0 8.699707e-08 0.0 0.0
2.6224618e-09 1.4580229e-07 1.03400296e-07 9.157445e-07 1.3905668e-09 0.0 0.0 0.0
0.0 0.0 0.0 5.2321983e-08 1.0881315e-07 2.3339386e-07 0.0 3.597578e-07
1.10564386e-07 7.847758e-08 0.0 0.0 1.4234678e-07 0.0 1.6523899e-07 3.6016766e-07
2.0672614e-07 1.3773825e-07 2.209187e-08 0.0 5.3980504e-08 2.4452719e-08 0.0 3.0791384e-07
5.5448012e-08 0.0 2.6922132e-07 0.0 0.0 3.5312462e-09 0.0 0.0
7.3038876e-07 0.0 0.0 5.012211e-08 0.0 0.0 1.9560578e-07 1.7010082e-07
1.9914066e-07 8.2243226e-08 1.1028587e-08 0.0 8.161527e-07 4.0358192e-09 2.1784635e-07 0.0
0.0 0.0 1.7592898e-08 0.0 5.0671257e-08 1.9235355e-07 0.0 0.0
2.0150782e-07 8.492236e-08 3.1565415e-07 0.0 0.0 1.03354845e-08 0.0 0.0
1.0678518e-11 0.0 0.0 0.0 0.0 0.0 2.5926892e-09 1.8545518e-07
1.3909336e-07 0.0 0.0 1.7863668e-08 0.0 3.9803078e-07 1.9775064e-07 3.4400898e-08
0.0 7.8372836e-10 0.0 0.0 0.0 1.012529e-08 0.0 6.85375e-08
7.8503525e-08 7.142399e-07 4.847689e-09 0.0 6.4646e-08 0.0 0.0 0.0
1.1059717e-07 0.0 2.7499487e-08 0.0 8.3837115e-08 5.2766916e-07 1.5934897e-07 1.3705884e-11
0.0 0.0 0.0 3.491771e-09 0.0 0.0 1.8036912e-08 0.0
0.0 1.5913929e-07 0.0 8.699705e-08 0.0 0.0 2.6224618e-09 1.4580226e-07
1.03400296e-07 9.1574464e-07 1.3905668e-09 0.0 0.0 0.0 0.0 0.0
0.0 5.2322e-08 1.0881315e-07 2.3339386e-07 0.0 3.597578e-07 1.10564386e-07 7.847758e-08
0.0 0.0 1.4234678e-07 0.0 1.6523899e-07 3.601676e-07 2.067262e-07 1.3773825e-07
2.209187e-08 0.0 5.3980504e-08 2.4452714e-08 0.0 3.0791384e-07 5.5448012e-08 0.0
2.6922132e-07 0.0 0.0 3.5312453e-09 0.0 0.0 7.303886e-07 0.0
0.0 5.012211e-08 0.0 0.0 1.9560578e-07 1.7010082e-07 1.991406e-07 8.224324e-08
1.1028587e-08 0.0 8.161527e-07 4.0358192e-09 2.1784635e-07 0.0 0.0 0.0
1.7592898e-08 0.0 5.067124e-08 1.9235358e-07 0.0 0.0 2.0150782e-07 8.492236e-08
3.156541e-07 0.0 0.0 1.03354845e-08

exp_avg f4 [2]
00000000: ceb7 0a3d ceb7 0abd
0.033866696 -0.033866696

exp_avg_sq f4 [2]
00000000: 9288 f038 9288 f038
0.0001146953 0.0001146953

lstm.weight_ih_l0 f4 [504, 1]
00000000: d424 053d 8155 2fbd 4e30 0b3d 2482 82bd
00000010: 60fa b7bb 983b adbc 8416 5e3d 743d b63d
00000020: c0d4 0abb f850 03bc 6833 5d3c 34f0 9e3c
00000030: 1020 b8bc a090 393c a6f1 053d 3091 613c
00000040: 6a0f b23d a39a b5bd c15c 24bd 5d39 b3bd
00000050: 680d fbbc 5dda 2fbd 2028 953c 64f5 7a3d
00000060: c695 16bd 1c99 113d 39ff acbd f4f5 a03d
00000070: c31f 75bd acb1 ce3c 0beb 9ebd 206c edbb
00000080: beb6 8cbd 9c49 7e3d f729 34bd 4087 453d
00000090: 70eb 7c3d b87f 883d 7ad9 983d 7aa1 a9bd
000000a0: 0025 833d 20f7 ffbb 2419 f6bc a8bd 433c
000000b0: c413 9e3d 0056 1cb9 ac43 86bd 44f6 a4bc
000000c0: 9cba 8a3d b0c0 83bd 9828 203d 28bf 06bc
000000d0: 6862 653d 1ea5 b03d d241 a53d fab9 a7bd
000000e0: 38e8 343d 5dde 43bd 589b 2bbc 48ba aa3c
000000f0: 9210 b6bd 0790 64bd d040 1b3c b876 733d
00000100: de2d af3d 9c6d a8bc 8676 83bd 305f 743d
00000110: 86ca 92bd b40b ac3d 80b7 bf3c 24a4 17bd
00000120: 88af b43d e80b 133d e896 633d 905a cdbb
00000130: 51e4 0ebd ec87 73bd bcf5 a53d 1f82 03bd
00000140: f4a5 b6bc 4a06 833d cc18 d6bc 0020 e3ba
00000150: 30b3 433d 10ae 073d 26fc 93bd 501f 77bd
00000160: 88ba 0ebc c3f2 0bbd dc4b 79bd 302b 1b3d
00000170: 4015 2d3c 30d1 92bc b4c8 703d 2778 81bd
00000180: fd63 69bd dca2 703d a89f 70bd f815 373c
00000190: 0418 813c bc66 2dbd d296 843d f496 84bc
000001a0: f858 63bd 404f 27bc ccf2 9d3d e83f e1bc
000001b0: b873 533d a265 19bd e007 a5bb 4389 80bd
000001c0: 80fc 133c 726b a3bd 8006 683a 1a7b 85bd
000001d0: cfff adbd 5cba 153d 60fe 763d 8414 883d
000001e0: 6018 81bd 4644 b13d e407 a7bd f0c4 91bc
000001f0: 00fc fbb9 00dc d73c 783b 09bd b0ed 1b3d
00000200: 9052 6c3c e4e3 2b3d a49d 2e3d c098 9dba
00000210: 9c7c aabc 50e7 9fbc b0a2 463d 4413 103d
00000220: d82c 463d d463 913c 1c19 80bd 6d60 13bd
00000230: 43ee 8dbd d8a6 a83d c63f a1bd 3c96 4f3d
00000240: 808a 793a ccf8 dd3c e856 86bc d084 69bc
00000250: 62a6 14bd 5dce 93bd 683e 1c3d 50ca a4bd
00000260: e403 9dbc 064a 8c3d 5866 6ebc cca7 8a3c
00000270: 9493 cfbc 68cf 31bc d022 c93b 0074 9ebd
00000280: 03da a2bd 60f3 7fbb f837 f23c f151 53bd
00000290: 0333 17bd 3aa9 a03d 20d4 413b 706a 9e3d
000002a0: 40fc 113b 445b 913d d615 99bd 98ee 1f3c
000002b0: 745f 453d fc77 b2bd 8f1e 27bd 2a3a e6bc
000002c0: 8038 513a 629c a6bd 4015 bc3c dd7d 4fbd
000002d0: 10f6 d73c 3019 f7bb 4aa3 b13d da31 853d
000002e0: e29e a5bd d440 493d 4c3d 0ebd c001 47bd
000002f0: e6fb 0d3d 10c8 65bc eca8 c33c d003 4c3d
00000300: 342c 933d 00d3 1e3b 140b 493d f14e 1bbd
00000310: 31ea 3fbd fee0 023d 6886 88bd aa48 aa3d
00000320: dcba dabc f207 a53d 579e 2ebd 7090 c73c
00000330: 5825 b6bd 12f5 023d f0eb 73bc b915 29bd
00000340: 0df6 0dbd 28e9 a1bd a29d a7bd a473 2a3d
00000350: 6572 2dbd 507d 923c 1ec8 82bd 64f4 693d
00000360: c9eb acbd 2248 6fbd 2cbb 6b3d 70b2 203d
00000370: 40d0 8dbd 801e 863d d584 52bd 8f49 9bbd
00000380: 4465 5d3d 0c73 8abd 329a 823d 9067 c43c
00000390: 9221 a43d 9ee3 923d 78ce 823d 4b45 38bd
000003a0: bed1 a33d 7062 92bc 4003 9b3a 6f1b a7bd
000003b0: 8813 8ebd 087a ff3c f09f af3d d87e 353d
000003c0: b467 d43c 687b 98bc 2ce6 ad3c 1310 aabd
000003d0: a8d6 773d e261 f3bc c296 74bd 1ebd 063d
000003e0: 88ed 3e3d c20e 933d eab9 983d 097e 91bd
000003f0: dc33 4b3d 109d d43c 3af5 43bd 410d a9bd
0.032505825 -0.042806152 0.033981614 -0.063724786 -0.005614564 -0.02114658 0.05422069 0.0889844
-0.0021183938 -0.00801491 0.013501026 0.019401647 -0.022476226 0.011325985 0.032701157 0.013767526
0.08694346 -0.08867385 -0.04012752 -0.087511756 -0.030646041 -0.042932857 0.01820761 0.06126918
-0.03676393 0.035546407 -0.08447117 0.07859412 -0.059844743 0.025231205 -0.07759675 -0.0072455555
-0.06870793 0.062081918 -0.043985333 0.048224688 0.06174797 0.066649854 0.07463355 -0.08282752
0.064035416 -0.007811442 -0.030041285 0.011947073 0.07718614 -0.00014909357 -0.06555876 -0.02013696
0.06773874 -0.064332366 0.039101213 -0.008224286 0.05600205 0.086252436 0.08069195 -0.08189769
0.044166774 -0.047819484 -0.010474049 0.020840779 -0.08889879 -0.055801418 0.009475902 0.05943939
0.0855367 -0.020560078 -0.06419091 0.05966109 -0.071675345 0.0840067 0.02340293 -0.03702177
0.088225424 0.035900027 0.055563837 -0.0062668994 -0.03488571 -0.059455797 0.08103511 -0.032106515
-0.02229593 0.06397684 -0.026134871 -0.0017328262 0.04777831 0.033124983 -0.07225828 -0.060332596
-0.008711465 -0.034167062 -0.06086336 0.037882984 0.010564148 -0.017922014 0.058785155 -0.06321745
-0.056980122 0.058749065 -0.05874601 0.011174671 0.015758522 -0.042334303 0.06474079 -0.016185261
-0.05550477 -0.010211766 0.077123255 -0.027496293 0.05162403 -0.03745044 -0.005036339 -0.062761806
0.009032369 -0.07979478 0.0008851066 -0.065176204 -0.08496057 0.03655468 0.060301185 0.06644538
-0.06303477 0.086556 -0.08155802 -0.017794102 -0.00048062205 0.026350021 -0.03350398 0.038068473
0.014423981 0.04196538 0.042630807 -0.0012023672 -0.020811372 -0.019519478 0.048494995 0.035174623
0.04838261 0.017747797 -0.06254789 -0.03598063 -0.069302104 0.08234948 -0.07873492 0.050680384
0.00095192343 0.027096175 -0.016398862 -0.014252856 -0.036291488 -0.07217095 0.038145453 -0.080464005
-0.019166894 0.06850056 -0.014550768 0.016925715 -0.025338925 -0.010852672 0.006138183 -0.07736969
-0.07951739 -0.0039054975 0.029567704 -0.051591817 -0.036913883 0.078447774 0.00295759 0.07735145
0.0022275597 0.07097486 -0.07474868 0.009761475 0.048186734 -0.087142915 -0.040800627 -0.028103907
0.00079811364 -0.081352964 0.022959352 -0.050657142 0.026362449 -0.0075408444 0.08673723 0.06503649
-0.08086945 0.04913409 -0.034726426 -0.048585653 0.034664057 -0.014024749 0.02388426 0.049808323
0.071861655 0.0024234653 0.04908283 -0.03791708 -0.0468542 0.03195285 -0.06666261 0.08314641
-0.02670043 0.08058156 -0.042631473 0.024360865 -0.088938415 0.031972 -0.014887795 -0.041280482
-0.03465848 -0.07905799 -0.08184363 0.04161419 -0.042345423 0.01788202 -0.063858256 0.057117835
-0.0844341 -0.0584184 0.057551548 0.03923267 -0.06924486 0.06548786 -0.05139621 -0.075823896
0.054051653 -0.06760225 0.06377067 0.023975164 0.080142155 0.07172321 0.06387037 -0.044987958
0.079989895 -0.017869204 0.001182653 -0.081595294 -0.06937319 0.031186119 0.085754275 0.04431042
0.025928356 -0.018613532 0.021227919 -0.08303847 0.060507447 -0.02970976 -0.059714086 0.0328952
0.046613246 0.07180549 0.07457335 -0.071041174 0.049610004 0.0259538 -0.04784129 -0.08254481

lstm.weight_hh_l0 f4 [504, 126]
00000000: e3a2 8abd 6fc5 aabd 2096 2fbb e10d aebd
00000010: 2bde 29bd d432 b13c 4acf 25bd 604d 59bc
00000020: be76 4ebd e2b4 89bd 983a 973c e0c5 5bbc
00000030: c5b9 90bd 100b b53d 1056 a73d ba33 a23d
00000040: 7067 2d3c 9c1f 223d 4e4b 823d 04c4 263d
00000050: 908b b53b 462f a6bd 80b3 933d 587e 213d
00000060: 3cd5 9bbc 40bc 623d 52ff eebc c0f2 213d
00000070: 7c98 5c3d d51e 73bd 7cad b0bd 7c44 97bd
00000080: fb4b 6dbd 4414 5e3d ee4d 993d 721f 043d
00000090: b8be 0f3c 62ef 94bd d8fc 27bc 4cd8 703d
000000a0: 886c 7e3d 9882 873d 6822 863d 81df 44bd
000000b0: 86c9 b53d 6884 df3c 8f9d 45bd 50a0 89bc
000000c0: ae90 b23d 4088 863c a8e6 c4bc d0dd b03c
000000d0: c883 c83c b839 f63c 4011 983d 8035 a0bd
000000e0: 0cb2 a33d 6fe8 97bd 0a2e 37bd 10e8 f7bb
000000f0: 20f3 1b3c fe06 1ebd 38dc 3f3c bbea a8bd
00000100: 4f99 2fbd 2ce1 bdbc 904d 183d 2463 3f3d
00000110: ea95 0a3d 9099 843d 385c 5d3c e001 723d
00000120: 72c4 68bd e6b1 093d 0007 1bbb e811 b03c
00000130: 8cb8 3fbd c1f6 24bd 343b f03c 50a9 203c
00000140: 243c 7d3d a6b7 ac3d 386c 3ebc 9e1c 8ebd
00000150: 7bcf 4cbd 9ebf 88bd 9c06 b6bd a04d d1bc
00000160: 0475 e8bc 905b 6a3d 7852 03bc 7549 8bbd
00000170: 8e76 a13d 346c c43c eed6 92bd 8ca3 6fbd
00000180: 162c a93d 1452 593d 9c39 1b3d 5c66 95bc
00000190: 6780 91bd 0cdb c7bc 43e5 73bd c811 6dbc
000001a0: da1d 70bd dc5e edbc f4bd 313d e4a7 90bd
000001b0: e094 d0bc 9c9d 5c3d 8b8c 32bd 902e 103c
000001c0: 8a02 0bbd 6476 a73d d388 2dbd 30dc 55bc
000001d0: bfd8 83bd 8044 f73c caab 72bd 2668 0ebd
000001e0: f87d 973c b05e 943d 706f 98bd c294 dcbc
000001f0: 3c15 1a3d 3817 55bd 1980 66bd 9225 8f3d
00000200: 4848 6b3d a0c7 8ebc 949c 1c3d 402f b63c
00000210: c422 ab3d 00fd ab3d 80c3 59bd f8ee 66bd
00000220: 30bd b4bd e039 983d 8038 233d 52f1 6ebd
00000230: ab2e b4bd 38e1 9e3d a2ed 72bd 90e4 d0bb
00000240: 206e 443d 90b8 a83b 24e3 7a3d 1718 a8bd
00000250: 826c e0bc a016 9abd 681f 693d f649 ddbc
00000260: c85d 913d 3d03 5cbd bea3 56bd 16e5 f3bc
00000270: 906f 71bd e81c febc 7bf0 71bd ec3f 65bd
00000280: 2c82 633d a87e 2c3d b226 7fbd f6c1 af3d
00000290: 057d 16bd a0b5 5ebc 1ed1 96bd fcff 703d
000002a0: 14fb 4cbd 59d4 2dbd 68a6 c53c 8c12 a73d
000002b0: bcff b7bc a2f9 51bd 2cbe ff3c 90cb 393c
000002c0: 40cf 893d f8d5 083c 6c33 87bc c0a7 7cbc
000002d0: 60ea 73bd ac55 683d 92a8 023d 3447 1fbd
000002e0: 75fa 3abd 901a 8fbd efda 94bd 4eaa 3bbd
000002f0: e808 da3c f887 a53d 740c d43c de01 9ebd
00000300: 00a7 563a 586b 323d 2453 3a3d 20c5 fabb
00000310: 1cd5 eb3c 1471 ca3c 3da1 afbd 6089 bdbb
00000320: b579 5abd 203e fe3b 2fde 1bbd b0f3 80bb
00000330: fcab 003d 1812 9b3d 0c57 d9bc a1f7 b2bd
00000340: c896 0d3c fc9e 32bd 80ac 79bd 6fda 79bd
00000350: c87b 8abd 3886 58bc f37b 21bd 2095 7c3d
00000360: f213 27bd 8e42 57bd 9873 43bc 6055 ca3c
00000370: 422c 883d 80b8 efbb c8ce 783d b654 9f3d
00000380: f30d 9abd 3044 9b3c 001d d73a 6945 b1bd
00000390: dcd9 6f3d 90a6 f33b 3ab7 ab3d eec7 35bd
000003a0: 307d 933d 640a fcbc 2393 60bd b636 a1bd
000003b0: 89ab b0bd 9afd 5bbd bc40 183d d0a1 423d
000003c0: 002e ceb9 ed28 2fbd 00fc ee3a ed54 15bd
000003d0: 102a 65bc 942f 503d a0c8 163c 7cab b6bc
000003e0: 1821 943d c4e2 bbbc 90f3 bb3b 3b14 9abd
000003f0: 6051 c1bc 24e6 a03c 08eb a53d 9ca2 bdbc
-0.067693494 -0.08338439 -0.0026792362 -0.08498741 -0.04147164 0.021630682 -0.04048089 -0.013263077
-0.05040621 -0.06723954 0.018460557 -0.013413876 -0.07066683 0.08840001 0.08170712 0.07920022
0.010583743 0.039580926 0.063620195 0.04071428 0.005540319 -0.081144854 0.07211971 0.03942713
-0.019022577 0.05535531 -0.02917448 0.039538145 0.053856358 -0.059355576 -0.086268395 -0.07386109
-0.05793379 0.054218546 0.07485567 0.03225655 0.008773498 -0.07272221 -0.010253154 0.058800027
0.062115222 0.06616706 0.06549531 -0.048064712 0.08876328 0.027284816 -0.048245963 -0.016800076
0.08719002 0.016422391 -0.024035767 0.021590143 0.0244769 0.03005682 0.07425165 -0.07822704
0.07992944 -0.0741738 -0.04472164 -0.007565506 0.009518415 -0.038580887 0.011710219 -0.08247896
-0.042870816 -0.02317866 0.037183344 0.046725407 0.033834375 0.06474602 0.013510756 0.05908382
-0.05682797 0.033616923 -0.0023655295 0.021492913 -0.046806857 -0.040274385 0.029325105 0.009805992
0.061824933 0.08433466 -0.011622481 -0.06939052 -0.050002556 -0.06677173 -0.088879794 -0.02554971
-0.02837611 0.057216227 -0.008015268 -0.0680112 0.07883941 0.023977377 -0.07169901 -0.05850558
0.08260362 0.05305679 0.037896737 -0.018237285 -0.07104569 -0.024396442 -0.059544813 -0.014469571
-0.05862222 -0.028975897 0.043394044 -0.070632726 -0.025461614 0.053861246 -0.043591063 0.008800164
-0.03393797 0.08176878 -0.042366814 -0.013052985 -0.064378254 0.03018403 -0.059245862 -0.034767292
0.018492684 0.07244623 -0.0744313 -0.026926402 0.037617907 -0.052024096 -0.056274507 0.06989588
0.05744198 -0.017429173 0.038235262 0.022239327 0.083562404 0.08397865 -0.05316496 -0.056380242
-0.08825147 0.07432914 0.039848804 -0.05833561 -0.08797964 0.07757801 -0.059308656 -0.006374903
0.047956586 0.0051489547 0.061251774 -0.0820772 -0.02739549 -0.075238466 0.056914717 -0.027012806
0.070979655 -0.053714026 -0.05240225 -0.029772323 -0.058944285 -0.031019643 -0.05906723 -0.055969164
0.055544063 0.042112976 -0.062292762 0.08581917 -0.03674032 -0.013593107 -0.07364105 0.058837876
-0.050044134 -0.04243884 0.0241272 0.081578344 -0.02246081 -0.05126346 0.03121861 0.011340037
0.06728983 0.008351795 -0.016504012 -0.015420854 -0.05954969 0.056722328 0.031899042 -0.038886264
-0.04564901 -0.06987488 -0.07268321 -0.045816712 0.026615575 0.080825746 0.025884844 -0.077152
0.0008188337 0.043559402 0.045489445 -0.0076528937 0.028788142 0.024712123 -0.08575676 -0.0057841986
-0.053338725 0.0077588707 -0.038053688 -0.0039353 0.031414017 0.075718105 -0.026530765 -0.08738638
0.008641906 -0.04360865 -0.060955524 -0.06099933 -0.06761891 -0.013215594 -0.039424848 0.061665654
-0.040790506 -0.052553706 -0.011929415 0.024698913 0.066490665 -0.0073156953 0.060744077 0.07779829
-0.07522192 0.018953413 0.0016411841 -0.08655817 0.058557376 0.0074356273 0.08384557 -0.04438012
0.07201612 -0.030766673 -0.05482782 -0.078717634 -0.08626468 -0.05370865 0.03717111 0.047517598
-0.00039325655 -0.04276364 0.0018233061 -0.036457945 -0.013987079 0.050826624 0.009203106 -0.022298567
0.07232875 -0.022935279 0.005735822 -0.0752339 -0.023598373 0.01964099 0.08101469 -0.023148827

lstm.bias_ih_l0 f4 [504]
00000000: 447c a03d b883 6f3d defa 0e3d b0bd 7abc
00000010: ba9a 38bd 0956 13bd 8e74 ac3d 783b 0c3d
00000020: d2cc 813d 3042 7cbc ac70 83bd bc4c ae3c
00000030: 18c1 92bc cc05 99bc daea 033d d44e 77bd
00000040: 7e9e b0bd 1072 d63b 5091 85bc 51aa a1bd
00000050: a663 63bd 8e30 853d 3830 adbc 3862 55bd
00000060: a833 6e3d dcc5 5d3d 6077 443d 387c 2b3d
00000070: 1233 ac3d 70dc 4ebc 3062 473d 063d 03bd
00000080: 40b5 92bd 0c9e 9f3d f474 413d f2a4 88bd
00000090: b840 5fbc 70d3 8d3c e838 bdbc 240b d23c
000000a0: 86aa b13d a67d f9bc d071 893b bc70 7a3d
000000b0: 60f7 ad3b f01d 27bc 5422 a9bc 119f 1cbd
000000c0: 24cb 953c a4de a5bd b694 88bd 147f 3c3d
000000d0: 0069 cc3a d61e 0d3d 576e b4bd b880 fd3c
000000e0: 0865 203d ce23 b4bd 44a4 9abd 5c45 aabd
000000f0: 839f 9abd b080 663d bfef 1cbd 0c3d 393d
00000100: faee 0cbd 406f 523d 821e 96bd a2ce 9cbd
00000110: 8d47 1cbd c037 653c 287f 66bc d872 3b3d
00000120: ad99 82bd 2c65 833c 1496 533d f82f 33bc
00000130: 48d9 74bc 6434 5b3d b0e2 a33c 4ccd f53c
00000140: da80 acbd a430 3abd eeee a1bd 7f3c 0ebd
00000150: 0874 e13c 50f9 51bc 3cc5 2e3d 0c23 27bd
00000160: c0c0 853d 602c 9c3c ec33 a3bc 6599 9cbd
00000170: ccb6 643d e0b0 533c f8c3 20bc 804c 98bb
00000180: a056 383d 5482 72bd b28f 123d f01c 183d
00000190: bee1 a33d 8b64 51bd ea14 3bbd c029 cfbb
000001a0: 9c9d 43bd ec7d 49bd c065 a23c 00f2 65b9
000001b0: 4c93 3b3d 5f71 44bd 8cba 063d a0b4 cbbb
000001c0: ec93 133d b625 66bd 342b 2d3d d1fc 83bd
000001d0: 6800 8bbd b2de 65bd 29cf 46bd a212 a4bd
000001e0: f000 c93b 157a 0bbd da49 023d e879 b3bc
000001f0: 2078 1f3d 6095 13bd a61f 913d 4879 893d
00000200: 1cca 40bd 20b3 b33d 5075 833d a837 b8bc
00000210: 4011 283d 9640 90bd 707a bf3c bcd2 95bc
00000220: 097c 4fbd 9097 623d ce3c 0dbd 082a a4bd
00000230: b67a a7bd b420 91bc 7e53 b23d 08c8 55bd
00000240: 6d15 14bd b449 a73d 10f3 8f3d ba54 84bd
00000250: 7c46 97bd 1cf1 343d b086 223d fae3 66bd
00000260: 7766 85bd 08f4 793c 1a82 a2bd 46ff aabd
00000270: 00fa a9bd 82c1 80bd e07e 8d3c 804b 9b3d
00000280: c4cd a33d 30a2 1f3d b3b6 37bd b27f b23d
00000290: 0cca 13bd 9c6c 153d fc5b a6bd 809f a13a
000002a0: cc98 85bc 4ad8 a23d 3c53 d2bc 5c1a a83d
000002b0: 4989 3fbd fc99 cdbc 6023 9d3b 1a2c 003d
000002c0: d8f4 c6bc 9cfc 8cbc 9091 e13b 4cd8 bd3c
000002d0: 8044 4f3c 55fd 9cbd d007 c5bc 71d3 a8bd
000002e0: 1cb8 cb3c fc89 6a3d 4ca0 cc3c 44b9 323d
000002f0: 6681 b53d 0008 a83a 4078 283d bce9 2a3d
00000300: d5fa 68bd d7b1 27bd dc26 8b3d b0b3 7c3d
00000310: 302f 16bc 410f 8bbd 6b70 18bd 2c42 6dbd
00000320: bf3f a0bd a0bd d13c e8d9 99bd 145b 163d
00000330: 0a8f 963d f035 34bd cc6b dabc bcaf a33d
00000340: a059 f03c 0052 e93c 54e5 3e3d ee94 7cbd
00000350: 00bc a13b 8c01 ae3d 3f77 3fbd 3096 75bc
00000360: f439 ea3c b01b a2bb 0cae 1dbd 3cf4 b13d
00000370: 8c5c 8b3d 725f 75bd 904b 623c 5818 d43c
00000380: 6b05 a1bd 5457 983d d168 99bd f284 76bd
00000390: aad5 a43d b8e5 73bc 3839 003d 0a65 903d
000003a0: 202a 4dbd 80c8 16bd 5a7b a73d e814 47bd
000003b0: 4851 88bd 1cb4 9cbd e831 05bc 026c 52bd
000003c0: 5085 843b aa3a b1bd 0c5c 90bd 7c55 643d
000003d0: 2c13 a73c 6826 9fbd 0020 64bb 20e3 64bc
000003e0: 2484 9cbc ac9e 4f3d c0d0 e83b 100b f13b
000003f0: d6fa 7fbd b86c 00bd 98ce 203c 7967 55bd
0.07836202 0.058475226 0.034907214 -0.015304014 -0.045069434 -0.03597072 0.084206685 0.0342364
0.063378945 -0.01539664 -0.06417975 0.021276824 -0.01791434 -0.018679522 0.032206394 -0.06037791
-0.0862398 0.006544359 -0.016304642 -0.078938134 -0.055514954 0.06503402 -0.021141157 -0.05209562
0.058154732 0.05414377 0.047965407 0.04186651 0.084081784 -0.012625799 0.048677623 -0.03204062
-0.07163477 0.07793817 0.047230676 -0.06672086 -0.01362627 0.017312735 -0.023098424 0.025640078
0.08675103 -0.030455422 0.0041944757 0.061142668 0.0053090304 -0.010200009 -0.020646252 -0.038237635
0.018285342 -0.08099106 -0.06668989 0.04601963 0.0015595257 0.034453236 -0.08810108 0.030945167
0.03915885 -0.08795892 -0.075508624 -0.083140105 -0.07549956 0.05627507 -0.038314577 0.045224234
-0.034407593 0.051375628 -0.07330038 -0.076565996 -0.038154174 0.013990343 -0.014068402 0.04576382
-0.063769676 0.016039453 0.051656798 -0.01093673 -0.014944382 0.05351676 0.020005554 0.03000512
-0.08423014 -0.045456544 -0.079069 -0.034725662 0.027521148 -0.012815788 0.042668566 -0.040804908
0.06530905 0.019064128 -0.01992222 -0.07646445 0.05583839 0.012920588 -0.009812348 -0.0046477914
0.045004487 -0.05920632 0.03578157 0.037136972 0.08002041 -0.051121276 -0.045674242 -0.0063221157
-0.04775773 -0.049192354 0.019823909 -0.00021929294 0.04579477 -0.04795968 0.03289275 -0.0062166005
0.03602974 -0.056188308 0.04227753 -0.06444705 -0.06787187 -0.056120582 -0.048537407 -0.080113664
0.006134145 -0.034051973 0.03180871 -0.021908715 0.03893292 -0.036031127 0.070861146 0.06712586
-0.047067747 0.087744 0.0641886 -0.022487476 0.041032076 -0.07043569 0.023373812 -0.018288963
-0.0506554 0.055320323 -0.034481816 -0.08015829 -0.08177702 -0.01771579 0.08707331 -0.052192718
-0.036153246 0.08168355 0.07028782 -0.06461473 -0.07386491 0.044175252 0.03967923 -0.05636976
-0.06513684 0.0152559355 -0.07934971 -0.08349471 -0.08299637 -0.06286909 0.017272413 0.0758276
0.07998231 0.038973033 -0.04485197 0.08715762 -0.03608136 0.03648053 -0.081230134 0.001233086
-0.01630821 0.0795141 -0.025674455 0.08208153 -0.046761785 -0.02509784 0.004795477 0.03129206
-0.024286672 -0.017210297 0.0068838075 0.023174427 0.012650609 -0.07665507 -0.024051577 -0.08243454
0.024868064 0.0572605 0.02497878 0.043633714 0.088625714 0.0012819767 0.041130304 0.041726813
-0.056879837 -0.040941086 0.06794521 0.0616948 -0.009166524 -0.06790019 -0.037216585 -0.057924435
-0.078246586 0.025603116 -0.075122654 0.036707953 0.07351501 -0.04399675 -0.02666273 0.07992503
0.029339612 0.028481483 0.046605423 -0.061665468 0.0049357414 0.08496389 -0.04674458 -0.014989421
0.028592087 -0.0049471483 -0.038496062 0.08689162 0.06804761 -0.059905477 0.013811961 0.025890514
-0.078623615 0.074385315 -0.07490695 -0.06018538 0.08048566 -0.014886312 0.031304568 0.07050522
-0.050089 -0.036812305 0.08177824 -0.048603922 -0.06656128 -0.07651541 -0.008129574 -0.051372536
0.0040442124 -0.086537674 -0.070488065 0.055745587 0.020394884 -0.07770997 -0.0034809113 -0.013970166
-0.019105978 0.05068843 0.007104963 0.007356055 -0.062495075 -0.031353682 0.009814881 -0.052100632

lstm.bias_hh_l0 f4 [504]
00000000: d8ce 713d a063 243b 5a6a 113d fc9e 88bd
00000010: 643f b23d c8a0 35bc 8812 84bc 62f1 86bd
00000020: 86f0 64bd 4a2d 04bd e60c 8e3d c9a5 25bd
00000030: bcf3 543d 5c03 06bd 88d9 613c db62 aabd
00000040: 5ccd 833c 542f c73c 7513 56bd f08e 26bd
00000050: 7cbe 3e3d d063 c5bb 3b8e 92bd c430 c03c
00000060: 3480 f2bc 08e8 82bd dc26 bf3c 546c b33d
00000070: f360 afbd 40e0 16bd 7245 ae3d 9854 233d
00000080: cf01 11bd e087 fbbc bc86 a63d 4fa4 99bd
00000090: d84a 98bc 712f acbd 1fc5 01bd 34c4 213d
000000a0: 097c 19bd 3a88 4abd b75c 35bd 4b62 b5bd
000000b0: 4c70 b1bd 90fd 95bd 2c95 963d 1cf1 80bc
000000c0: f85d 9fbc 88b5 e43c 2057 533d d0b5 90bd
000000d0: 90a1 6f3d 3073 44bc 94ec 3b3d 50a2 8cbd
000000e0: c008 adbd 3c27 863d b015 823c 585e 303d
000000f0: 1e57 933d 3a31 a23d e4f4 803c 34ab 253d
00000100: b8ae 6e3d 142b c6bc efe7 a5bd fe47 22bd
00000110: 00f5 aaba f021 cc3b b573 95bd be66 5ebd
00000120: 0e84 34bd 9c44 b3bd 8ff8 21bd 8026 b0bd
00000130: b06e 433c c0fa ee3b ccaf 9f3d 7ca2 a63d
00000140: dd18 abbd 751a b6bd 08a0 a53d 97e8 7ebd
00000150: 14b3 3d3d 4434 aa3c ae52 943d 7054 423d
00000160: b305 2abd 2c36 5a3d 40e6 7abd 4409 9c3d
00000170: f43e 703d b589 8abd 78a3 933d 86c4 0e3d
00000180: 4639 6dbd 603b 323d 0069 3b3d 9826 afbc
00000190: 002d 513a b047 2f3c 80fa 1c3d ad31 a8bd
000001a0: c8db 893d 6f70 57bd 9ed0 8c3d 38a9 3b3d
000001b0: ac1e 133d 1257 8c3d 18cc b53d 20b2 483d
000001c0: e06b d0bc 844d 1abd 401a a4bb f551 3dbd
000001d0: 5859 8fbd 5c4f e73c 1e15 813d 329b 823d
000001e0: 0dac 94bd 9ce4 79bd 54d6 653d a866 ec3c
000001f0: acec 27bd 96ce 113d a8f2 9b3d 9013 a8bc
00000200: c0c0 c93a 2444 9bbd 1464 91bd d0a8 e0bb
00000210: b083 f6bb 4c25 7ebd e246 013d f48e d0bc
00000220: f8fd ef3c 087f 65bc 914c 39bd 8851 c5bc
00000230: 3039 6f3c 44b7 2c3d 4cf0 433d 9c5d e53c
00000240: c03f 86bd 04db 39bd 343b d9bc d8f5 af3c
00000250: c015 c8bc 6838 6ebd 70f7 07bd abfd a8bd
00000260: 78ba 423d 2171 26bd bcc0 02bd 54e0 933d
00000270: fce7 a83d 1940 64bd 405e 953b 20e4 30bc
00000280: a4ef fe3c 40e4 77bd ee8b 40bd 1083 5d3d
00000290: bccb 963d 78b9 e33c d85b 873c dafb 083d
000002a0: 24e3 083d 803e 7bba 886c 183c e0fb 3d3d
000002b0: 0b0b 0abd 9a11 af3d 1a61 a6bd 8254 a03d
000002c0: ded4 8dbd 24da 9dbc 32b3 9e3d 60b8 903d
000002d0: 1e06 96bd c8f8 aebd 0db6 0cbd 9040 9b3d
000002e0: f71c 6dbd 5ac4 30bd 7ad7 92bd baa3 a1bd
000002f0: b488 c23c 5034 fe3b 6089 ff3b 3c5e c4bc
00000300: f490 403d 02c5 953d 082d 78bc bccb 91bd
00000310: b8ea 60bd 8c0c 043d c0db a13b 6046 0abd
00000320: 24a6 743d 2840 7b3d 2267 a13d 58ba c03c
00000330: 601d 6c3d d68c a63d da25 af3d 0589 8dbd
00000340: 0126 39bd f196 30bd 805e 503a a098 06bc
00000350: fc75 bebc d016 213d e019 53bc be04 96bd
00000360: a058 403c fcfe ae3c 00ea 0f3b fc11 a93c
00000370: e405 6a3d f48c 6d3d 5d9a 3dbd 14b6 ae3d
00000380: b46a a93c b0ae 4e3d 6c4d 50bd 0070 a53d
00000390: 7863 163d 6260 18bd 3265 8dbd 40e8 f63a
000003a0: c863 523d 18bd 983d 4058 1d3b b8ed 9ebc
000003b0: 702f cf3b 04eb 8d3d a241 e5bc 8809 d23c
000003c0: 4785 28bd f3e6 4ebd 9405 bfbc e0a4 19bb
000003d0: c8af 543d 66e8 083d 5117 54bd 4187 b1bd
000003e0: 488f a9bc 0058 a03a 9a63 0cbd b89e 0c3d
000003f0: 3008 76bd 2085 c53b 4a9a 14bd eadb 8bbd
0.059035152 0.0025083795 0.035501815 -0.06670949 0.08703497 -0.0110856965 -0.016122118 -0.06589009
-0.055893444 -0.032269754 0.06936054 -0.04044131 0.051990256 -0.032718047 0.013784774 -0.083196364
0.016089134 0.02431456 -0.05226465 -0.04066366 0.04656838 -0.0060238615 -0.071560346 0.023460753
-0.029602148 -0.06391913 0.02333396 0.08760896 -0.085634135 -0.036834955 0.085093394 0.039875597
-0.035402115 -0.030704439 0.08131167 -0.075020425 -0.018590376 -0.08407486 -0.03168213 0.039493755
-0.037471805 -0.049446322 -0.044277873 -0.088566385 -0.08663997 -0.07323754 0.07352671 -0.01573997
-0.019453987 0.027918592 0.05159676 -0.07065928 0.058503687 -0.011990353 0.045879915 -0.06866896
-0.084489346 0.06550452 0.015879482 0.043058723 0.07194351 0.079195455 0.015741773 0.040446475
0.058272094 -0.024190463 -0.081008784 -0.03961944 -0.0013042986 0.0062296316 -0.0729746 -0.0542972
-0.04407125 -0.087533206 -0.039543685 -0.08601093 0.011928245 0.0072930753 0.077972025 0.0813646
-0.08354352 -0.08891765 0.08087164 -0.062233534 0.04631336 0.020776875 0.072423324 0.047443807
-0.04150934 0.05327432 -0.06125474 0.07618955 0.058653787 -0.06764547 0.072089136 0.034855388
-0.05791595 0.043513656 0.045754433 -0.021380708 0.0007979423 0.010698244 0.038324833 -0.082126
0.06731373 -0.05259746 0.06875728 0.045815676 0.035917923 0.06852545 0.088768184 0.048998
-0.025442064 -0.03767158 -0.005008012 -0.04622074 -0.06999463 0.028236084 0.06302856 0.063772574
-0.072593786 -0.061009035 0.056112602 0.028857544 -0.040997192 0.035597406 0.076146424 -0.02051714
0.0015392527 -0.07581356 -0.070991665 -0.0068560615 -0.0075230226 -0.062047288 0.03156174 -0.02545879
0.029295906 -0.014007337 -0.045239035 -0.024086729 0.014601037 0.042166963 0.047836587 0.027998738
-0.06555128 -0.045374885 -0.026517488 0.021479532 -0.024424434 -0.058159262 -0.03319496 -0.08251508
0.04754111 -0.040635232 -0.031922087 0.072205216 0.082473725 -0.05572519 0.0045583546 -0.010796577
0.031120129 -0.06052041 -0.047008447 0.05408007 0.07363078 0.0277984 0.016523287 0.03344331
0.033419743 -0.00095842034 0.00930322 0.046382785 -0.033701938 0.08548279 -0.081239894 0.078286186
-0.06925367 -0.019269057 0.077490225 0.07066417 -0.073253855 -0.08543545 -0.034353305 0.07580674
-0.05788895 -0.043156005 -0.07170005 -0.078925565 0.023746826 0.007757701 0.007798359 -0.023970716
0.047013238 0.07312967 -0.015147455 -0.071189374 -0.054911345 0.032238528 0.0049395263 -0.03375852
0.059728757 0.06134048 0.07880999 0.023526356 0.0576452 0.08132331 0.085521415 -0.069109
-0.04520226 -0.0431127 0.0007948652 -0.0082151 -0.023249619 0.039328396 -0.012884587 -0.07325123
0.01173988 0.02136182 0.0021959543 0.020638458 0.057134524 0.05799575 -0.04628979 0.085308224
0.020680763 0.050459564 -0.050855085 0.08078003 0.036715955 -0.037201293 -0.06904067 0.0018837526
0.05136469 0.07457942 0.00240089 -0.019400463 0.0063227937 0.06929591 -0.027985398 0.02563931
-0.04114273 -0.05051322 -0.02331809 -0.002344422 0.05192545 0.033424757 -0.05178005 -0.08668376
-0.020698205 0.0012233257 -0.034274675 0.034331053 -0.060066402 0.0060278326 -0.036279954 -0.06829055

classifier.2.weight f4 [2, 126]
00000000: d9f9 8bbd ee84 debc 9dc5 353d b469 75bd
00000010: 86f7 97bd d4b6 813d 9821 22bc 0c19 33bd
00000020: d87f b33d 6f2d 3fba a78a 343d 2c37 a7bd
00000030: 43aa 15bd 71d2 3abd 24b2 dc3c 5219 353d
00000040: 43a1 d8bb 51b0 8bbd d87a 2d3c 6d5e 84bc
00000050: 06d5 b03d 8083 ea3b 0edf 96bd cc98 ad3d
00000060: ec97 be3c 0382 b03d 1769 e63b 088d 21bd
00000070: f064 59bd c27b 84bd 2867 b53c 7088 1bbc
00000080: 0613 8b3d 58dc 29bc 8884 7ebd 9011 a33b
00000090: c74e 24bd f096 533c 7db5 90bd e8eb d73c
000000a0: d006 f4bc f893 2bbd 60b2 8d3d fc05 8e3d
000000b0: b88e 6c3d b003 dc3c 46d8 a8bd 2549 a0bd
000000c0: f02a 7dbd 10b1 12bc 6cd7 99bd 68f4 e83c
000000d0: d88d a83d 6398 ce3c e0f1 243d 8c7f 21bd
000000e0: 5d0e 81bd 6df5 a03d 3c36 01bc 34b4 acbd
000000f0: 30ee e63b 34e1 5ebd a613 dabc 823b b53d
00000100: 8472 bd3c acab 4a3d b902 0abd 7dd3 91bd
00000110: 29ae 8d3d 9f15 9ebd b6c5 8e3d a74a 823d
00000120: bb0c 8cbd 5f37 80bd 70b1 f23b c0b5 233d
00000130: 10c7 923d 9813 7a3d 5f43 afbd ac75 a0bd
00000140: 1a4a 99bd 8ba1 9a3c af7d 413c 3f36 4bbd
00000150: 9e10 bfbc 1585 2dbc 9089 9abd 8a94 913d
00000160: 5a27 b6bd 8495 3a3d 242c 1dbc 502f a73c
00000170: a091 603b 5231 59bd 8201 8dbd a89c d6bc
00000180: 7b08 72bd 5882 40bc 706b 213d b98d 9c3c
00000190: 0c1c f53c eae8 03bd d033 acbc a4b1 1cbd
000001a0: 3072 4ebd 5938 883d 776a cb3c c841 323d
000001b0: 035f 90bd 6c9e 52bd 7215 a8bd 7f74 95bd
000001c0: 2a72 873d 78c4 083d 2fce 74bd e290 43bd
000001d0: 442f a0bc dc6a 953c 0e90 42bd 1df7 2abd
000001e0: 5ee6 573c dc5d 3ebd 0911 2dbc 0030 40bd
000001f0: 2072 383d e84f 83bd d0e2 f93c 5c8e 77bd
00000200: 1fc7 ad3d 7aa2 5fbd 4e3b 8c3d b4e1 933d
00000210: d46e a23c 88d9 583d 36cc ce3c ec14 8a3d
00000220: 94a6 95bd 8031 5cba 10f7 88bd 36c1 92bd
00000230: 7c03 81bc c08c 63bb facc 83bd 4d76 a6bd
00000240: dcb7 953d 46b9 38bd e04b e8bb e7d6 86bd
00000250: d830 76bc 33ce 1c3d e89e b2bc bb43 683d
00000260: 3df4 07bd edce b73d b17d b13d 80ad 023b
00000270: a4d0 b83c e4fc a73d a062 2e3d 6a09 013d
00000280: 3d8c f43a d43a b83c 30b1 723d 6c79 b5bc
00000290: 4b44 92bd 504d ff3c 1597 0ebd 0992 ab3d
000002a0: bcb3 573d cc2f 713d 4cd4 3f3d 94ba 30bd
000002b0: 9c4e e73c 5491 e93c e009 3c3d 74d8 1d3d
000002c0: 6cb4 1bbd 13da 863d 07e1 a8bd 2129 94bd
000002d0: b0ce 853d 5cde 78bd 9cd1 133d 6833 38bd
000002e0: 0355 ae3d 1681 42bc c2a0 873d 42ff 8abd
000002f0: 049d e5bc c06c f73b 769a b0bd 189a 30bc
00000300: 00b6 b8b9 84e1 5dbd a37e 0bbd 9e7b 2e3d
00000310: ca7d 78bd fd33 a7bc 053e b2bd c1f1 7fbd
00000320: c6df 3dbd c002 533c cd92 8ebd 3857 bdbc
00000330: 1757 c3bc 13ed 6dbc 5b90 593c 145d b0bd
00000340: 3fa8 a23d b053 963c 23a7 baba 9527 0c3c
00000350: b8dc 6d3d b8c0 7abd 664e 33bd 9644 46bd
00000360: e085 983d b841 e6bc fad8 953d 1edc 9abd
00000370: a85e 3b3d adf5 29bd 2bea af3c d16d 21bd
00000380: a4ab 76bd d1ec a73d d016 80bd 8822 b33d
00000390: a47d b63c 5fcb b33d dcdb 593d 98de f33c
000003a0: 9524 a13c 6828 8b3c a5aa 9ebd 5d6c 863d
000003b0: ce91 f0bc 7c97 3d3d f86e 66bc 9158 11bd
000003c0: 96eb 3dbd eae0 05bd ede0 903d 1597 3bbd
000003d0: cc39 a43c 88e1 88bc 650e e83c 3e70 763d
000003e0: 261f 633b 1488 2f3d 644e a8bc 5677 843d
-0.06834764 -0.027162995 0.04437791 -0.05991526 -0.07420258 0.063337 -0.009895705 -0.04372506
0.08764619 -0.0007292842 0.04407754 -0.0816482 -0.036539327 -0.04561085 0.026940413 0.0442136
-0.006611021 -0.06820739 0.01058837 -0.016158307 0.08634381 0.0071567893 -0.07366763 0.08476409
0.023265801 0.08618548 0.0070315707 -0.03944114 -0.053074777 -0.064689174 0.022143915 -0.009492978
0.06790738 -0.010367475 -0.06213811 0.004976459 -0.04011419 0.012914404 -0.07065866 0.026357606
-0.029788405 -0.04188916 0.06918788 0.06934735 0.057753295 0.026857227 -0.08244376 -0.07826451
-0.061808527 -0.008953348 -0.075117916 0.028436854 0.082301795 0.025219148 0.040269732 -0.03942828
-0.06301568 0.07859311 -0.007886466 -0.084328085 0.007047437 -0.05441399 -0.026620697 0.08849241
0.023125894 0.049480125 -0.033694003 -0.07120416 0.06917984 -0.07718968 0.06971304 0.06361895
-0.06838366 -0.06260561 0.007406406 0.039968252 0.071668744 0.061053842 -0.08557772 -0.07834944
-0.07484837 0.018875858 0.01180975 -0.04961228 -0.023323353 -0.010590811 -0.07545769 0.0710841
-0.088942245 0.045552745 -0.0095930435 0.020408303 0.0034266487 -0.05302555 -0.06885053 -0.026197746
-0.05909012 -0.011749826 0.0394091 0.019110547 0.0299206 -0.032204546 -0.0210208 -0.03825535
-0.050401866 0.066513725 0.02483104 0.043519765 -0.07049372 -0.051420614 -0.08207215 -0.072976105
0.06613572 0.033390492 -0.059766944 -0.047745593 -0.019553788 0.018239431 -0.047500663 -0.04173957
0.013177482 -0.04647623 -0.0105631435 -0.046920776 0.045030713 -0.06411725 0.03050366 -0.0604385
0.08485245 -0.05459831 0.06847249 0.07220784 0.019828238 0.05294183 0.02524386 0.06742272
-0.07307163 -0.000839971 -0.066877484 -0.07165758 -0.015748732 -0.0034721345 -0.064355806 -0.08128033
0.07310459 -0.045098566 -0.007089123 -0.06583958 -0.015026294 0.038282584 -0.021804288 0.056705218
-0.03319191 0.08975015 0.08666552 0.001993984 0.022560425 0.08202532 0.042574525 0.03150312
0.0018657517 0.022488989 0.05925101 -0.022152625 -0.07141932 0.031164795 -0.03481205 0.08377463
0.052661642 0.058883473 0.04683332 -0.043146685 0.028235726 0.02851168 0.045907855 0.038536504
-0.03801386 0.06584563 -0.082460456 -0.07234407 0.06533563 -0.060758933 0.03608857 -0.0449709
0.085123084 -0.011871597 0.06622459 -0.06786968 -0.028028972 0.007550806 -0.08623211 -0.010778926
-0.00035230815 -0.054170147 -0.034056317 0.04259836 -0.060666837 -0.020410532 -0.087032355 -0.062486414
-0.046355985 0.012879074 -0.06961594 -0.023112878 -0.023845239 -0.014521855 0.013279046 -0.08611503
0.07942247 0.018350452 -0.0014240484 0.008554359 0.058071822 -0.061218947 -0.04377594 -0.048405252
0.0744741 -0.028107509 0.073167756 -0.07561515 0.045744568 -0.04149406 0.021473965 -0.03941137
-0.060222283 0.08199466 -0.06254351 0.08746821 0.022276707 0.08779024 0.05318819 0.029769227
0.019670764 0.01698704 -0.077473916 0.065636374 -0.0293664 0.046287045 -0.014064543 -0.035484854
-0.04636725 -0.032685198 0.07074151 -0.04579838 0.020047091 -0.016709104 0.028327176 0.060165636
0.0034656017 0.042854384 -0.020545192 0.06468074

classifier.2.bias f4 [2]
00000000: 619f 193d 81ca ce3c
0.03750551 0.025243046
