models/optweezer/kkowv06t/checkpoints/epoch=0-step=23.ckpt (torch, 267055 bytes, 10 tensors)

exp_avg f4 [2, 126]
000000 00 00 00 00 00 00 00 00 5a 19 fa 34 00 00 00 00
       0.0 0.0 4.6584574e-07 0.0
000010 00 00 00 00 49 07 2a 38 00 00 00 00 00 00 00 00
       0.0 4.0537943e-05 0.0 0.0
000020 fa f4 ac 3a cc 3f 5e 3b 5a aa 89 3b 00 00 00 00
       0.0013195567 0.0033912538 0.0042012157 0.0
000030 00 00 00 00 82 c0 a1 3a 00 00 00 00 73 e2 34 3c
       0.0 0.0012340697 0.0 0.011040318
000040 84 ea ff 3b 27 b3 36 3a 00 00 00 00 6e 6f 2d 37
       0.007809939 0.0006969445 0.0 1.0337548e-05
000050 00 00 00 00 2f d3 bc 34 00 00 00 00 a8 8b 2e 39
       0.0 3.5171385e-07 0.0 0.00016645959
000060 00 00 00 00 74 66 93 3b 27 c4 27 3b 8b 66 29 3c
       0.0 0.0044982973 0.0025599094 0.01033939
000070 6b 18 0d 3a 9b 7e d7 3a 70 cc 84 3b 00 00 00 00
       0.00053823617 0.001644093 0.004052691 0.0
000080 00 00 00 00 00 00 00 00 80 ae a2 3b 00 00 00 00
       0.0 0.0 0.0049646497 0.0
000090 31 d7 31 3b 00 00 00 00 90 76 79 3b c9 5d 2d 3c
       0.002713632 0.0 0.0038065054 0.010581442
0000a0 fe d1 bb 3b f2 74 b5 35 00 00 00 00 00 00 00 00
       0.00573182 1.3519586e-06 0.0 0.0
0000b0 07 96 f3 39 dc 58 42 3a 00 00 00 00 00 00 00 00
       0.0004646035 0.0007413754 0.0 0.0
0000c0 ff 98 05 3b 55 1c 06 38 00 00 00 00 56 60 7f 3b
       0.0020385382 3.1974476e-05 0.0 0.0038967333
0000d0 00 00 00 00 51 b6 03 3b 00 00 00 00 00 00 00 00
       0.0 0.0020097683 0.0 0.0
0000e0 26 c4 6d 39 32 c3 3b 3b 89 04 95 3b 97 c6 35 3c
       0.00022675152 0.002865028 0.00454766 0.011094711
0000f0 12 4c ab 3a 00 00 00 00 00 00 00 00 00 00 00 00
       0.0013068935 0.0 0.0 0.0
000100 00 00 00 00 00 00 00 00 00 00 00 00 23 f3 9e 3b
       0.0 0.0 0.0 0.0048507615
000110 cd 02 76 3b 0b 91 b2 3b 00 00 00 00 7e e6 e2 3b
       0.003753829 0.0054494194 0.0 0.0069244495
000120 fe ba a9 3b db 65 11 3b 00 00 00 00 00 00 00 00
       0.005179762 0.0022185955 0.0 0.0
000130 5a 5e cd 3b 00 00 00 00 68 26 96 3b bd 98 09 3c
       0.006267351 0.0 0.004582215 0.008398232
000140 97 a9 d6 3b 3f 57 a3 3b e9 fc c7 3a 00 00 00 00
       0.0065509784 0.004984766 0.0015257868 0.0
000150 bd e9 a4 3b ae f3 f0 3a 00 00 00 00 bd 94 fe 3b
       0.0050327466 0.0018383169 0.0 0.007769196
000160 8a 18 c0 3a 5a a5 f4 39 96 f2 fa 3b e3 66 98 35
       0.0014655751 0.00046662503 0.007658313 1.1354826e-06
000170 92 69 44 b3 4f 73 14 3b 00 00 00 00 00 00 00 00
       -4.5730822e-08 0.0022651737 0.0 0.0
000180 e7 5d 4d 3c 00 00 00 00 00 00 00 00 7f c7 17 3b
       0.012534595 0.0 0.0 0.002315968
000190 00 00 00 00 00 00 00 00 d2 49 df 3b ff 37 c5 3b
       0.0 0.0 0.00681422 0.006018638
0001a0 c0 f3 d6 3b 21 87 aa 3b da 12 38 3b 32 82 39 38
       0.006559819 0.005204097 0.0028087408 4.422869e-05
0001b0 51 09 48 3c b6 c5 66 38 3c 0b a7 3b 00 00 00 00
       0.012209252 5.5020406e-05 0.005097775 0.0
0001c0 00 00 00 00 00 00 00 00 df ea d5 39 a8 31 02 3a
       0.0 0.0 0.00040801518 0.0004966506
0001d0 cb 9b 3b 3b ef 3c e0 3b 00 00 00 00 04 98 00 3b
       0.0028626795 0.0068432014 0.0 0.0019621858
0001e0 c1 61 fe 3b 94 9b 44 3b eb 48 ad 3b 00 00 00 00
       0.007763118 0.0029999958 0.0052882335 0.0
0001f0 00 00 00 00 6c d5 5d 39 00 00 00 00 00 00 00 00
       0.0 0.00021155708 0.0 0.0
000200 5a 19 fa b4 00 00 00 00 00 00 00 00 49 07 2a b8
       -4.6584574e-07 0.0 0.0 -4.0537943e-05
000210 00 00 00 00 00 00 00 00 f9 f4 ac ba cd 3f 5e bb
       0.0 0.0 -0.0013195566 -0.003391254
000220 58 aa 89 bb 00 00 00 00 00 00 00 00 82 c0 a1 ba
       -0.0042012148 0.0 0.0 -0.0012340697
000230 00 00 00 00 72 e2 34 bc 84 ea ff bb 27 b3 36 ba
       0.0 -0.011040317 -0.007809939 -0.0006969445
000240 00 00 00 00 6d 6f 2d b7 00 00 00 00 30 d3 bc b4
       0.0 -1.0337547e-05 0.0 -3.5171388e-07
000250 00 00 00 00 a9 8b 2e b9 00 00 00 00 74 66 93 bb
       0.0 -0.0001664596 0.0 -0.0044982973
000260 28 c4 27 bb 8a 66 29 bc 6a 18 0d ba 9a 7e d7 ba
       -0.0025599096 -0.010339389 -0.0005382361 -0.0016440928
000270 6f cc 84 bb 00 00 00 00 00 00 00 00 00 00 00 00
       -0.0040526907 0.0 0.0 0.0
000280 80 ae a2 bb 00 00 00 00 30 d7 31 bb 00 00 00 00
       -0.0049646497 0.0 -0.0027136318 0.0
000290 90 76 79 bb c7 5d 2d bc fe d1 bb bb f5 74 b5 b5
       -0.0038065054 -0.01058144 -0.00573182 -1.351959e-06
0002a0 00 00 00 00 00 00 00 00 09 96 f3 b9 dc 58 42 ba
       0.0 0.0 -0.00046460357 -0.0007413754
0002b0 00 00 00 00 00 00 00 00 ff 98 05 bb 56 1c 06 b8
       0.0 0.0 -0.0020385382 -3.197448e-05
0002c0 00 00 00 00 56 60 7f bb 00 00 00 00 51 b6 03 bb
       0.0 -0.0038967333 0.0 -0.0020097683
0002d0 00 00 00 00 00 00 00 00 25 c4 6d b9 31 c3 3b bb
       0.0 0.0 -0.00022675151 -0.0028650279
0002e0 89 04 95 bb 96 c6 35 bc 12 4c ab ba 00 00 00 00
       -0.00454766 -0.01109471 -0.0013068935 0.0
0002f0 00 00 00 00 00 00 00 00 00 00 00 00 00 00 00 00
       0.0 0.0 0.0 0.0
000300 00 00 00 00 21 f3 9e bb ce 02 76 bb 0b 91 b2 bb
       0.0 -0.0048507606 -0.0037538293 -0.0054494194
000310 00 00 00 00 7e e6 e2 bb fc ba a9 bb da 65 11 bb
       0.0 -0.0069244495 -0.005179761 -0.0022185952
000320 00 00 00 00 00 00 00 00 5a 5e cd bb 00 00 00 00
       0.0 0.0 -0.006267351 0.0
000330 68 26 96 bb bd 98 09 bc 98 a9 d6 bb 3f 57 a3 bb
       -0.004582215 -0.008398232 -0.006550979 -0.004984766
000340 ea fc c7 ba 00 00 00 00 be e9 a4 bb ad f3 f0 ba
       -0.0015257869 0.0 -0.005032747 -0.0018383168
000350 00 00 00 00 bd 94 fe bb 89 18 c0 ba 5a a5 f4 b9
       0.0 -0.007769196 -0.001465575 -0.00046662503
000360 97 f2 fa bb e3 66 98 b5 92 69 44 33 50 73 14 bb
       -0.0076583135 -1.1354826e-06 4.5730822e-08 -0.002265174
000370 00 00 00 00 00 00 00 00 e7 5d 4d bc 00 00 00 00
       0.0 0.0 -0.012534595 0.0
000380 00 00 00 00 7d c7 17 bb 00 00 00 00 00 00 00 00
       0.0 -0.0023159676 0.0 0.0
000390 d2 49 df bb fe 37 c5 bb c0 f3 d6 bb 1f 87 aa bb
       -0.00681422 -0.0060186377 -0.006559819 -0.005204096
0003a0 da 12 38 bb 33 82 39 b8 50 09 48 bc b6 c5 66 b8
       -0.0028087408 -4.4228695e-05 -0.0122092515 -5.5020406e-05
0003b0 3c 0b a7 bb 00 00 00 00 00 00 00 00 00 00 00 00
       -0.005097775 0.0 0.0 0.0
0003c0 df ea d5 b9 a8 31 02 ba cb 9b 3b bb ee 3c e0 bb
       -0.00040801518 -0.0004966506 -0.0028626795 -0.006843201
0003d0 00 00 00 00 04 98 00 bb c1 61 fe bb 94 9b 44 bb
       0.0 -0.0019621858 -0.007763118 -0.0029999958
0003e0 ea 48 ad bb 00 00 00 00 00 00 00 00 6c d5 5d b9
       -0.005288233 0.0 0.0 -0.00021155708

exp_avg_sq f4 [2, 126]
000000 00 00 00 00 00 00 00 00 12 38 a4 2b 00 00 00 00
       0.0 0.0 1.1668464e-12 0.0
000010 00 00 00 00 70 93 45 2f 00 00 00 00 00 00 00 00
       0.0 1.7969426e-10 0.0 0.0
000020 86 36 76 33 32 d7 d6 34 ca 8c 08 35 00 00 00 00
       5.7325927e-08 4.001718e-07 5.0868823e-07 0.0
000030 00 00 00 00 c8 7c 83 33 00 00 00 00 84 b7 80 36
       0.0 6.1228604e-08 0.0 3.8360613e-06
000040 7b 2f 18 36 0d d8 0a 33 00 00 00 00 6d 43 27 30
       2.2677402e-06 3.2327126e-08 0.0 6.0850064e-10
000050 00 00 00 00 02 7c a9 28 00 00 00 00 55 0a 5c 31
       0.0 1.8816549e-14 0.0 3.2020087e-09
000060 00 00 00 00 5c dc 37 35 33 8c 62 34 22 c5 5f 36
       0.0 6.849348e-07 2.1098894e-07 3.3344336e-06
000070 73 5a 5a 32 d2 8f e6 33 16 29 0a 35 00 00 00 00
       1.2709836e-08 1.07363704e-07 5.1468794e-07 0.0
000080 00 00 00 00 00 00 00 00 02 c4 5d 35 00 00 00 00
       0.0 0.0 8.2614145e-07 0.0
000090 11 ad 82 34 00 00 00 00 ad 62 0c 35 93 76 64 36
       2.434031e-07 0.0 5.2297656e-07 3.4043667e-06
0000a0 77 54 a6 35 7e e4 2c 2d 00 00 00 00 00 00 00 00
       1.2392546e-06 9.8278035e-12 0.0 0.0
0000b0 01 23 3a 32 e9 dd 8f 32 00 00 00 00 00 00 00 00
       1.0834584e-08 1.6748304e-08 0.0 0.0
0000c0 28 3b 19 34 1d b5 2c 2f 00 00 00 00 82 57 00 35
       1.4270756e-07 1.5707653e-10 0.0 4.7811056e-07
0000d0 00 00 00 00 37 98 1b 34 00 00 00 00 00 00 00 00
       0.0 1.4490875e-07 0.0 0.0
0000e0 35 85 83 31 b6 83 8f 34 c1 c1 48 35 c7 b0 85 36
       3.8277457e-09 2.6731658e-07 7.4787755e-07 3.9842885e-06
0000f0 00 99 98 33 00 00 00 00 00 00 00 00 00 00 00 00
       7.105882e-08 0.0 0.0 0.0
000100 00 00 00 00 00 00 00 00 00 00 00 00 a5 fe 53 35
       0.0 0.0 0.0 7.897418e-07
000110 29 6d 1a 35 d5 64 78 35 00 00 00 00 77 8b 0c 36
       5.752832e-07 9.253393e-07 0.0 2.0942805e-06
000120 c9 c8 6c 35 05 ed 3e 34 00 00 00 00 00 00 00 00
       8.820903e-07 1.7781356e-07 0.0 0.0
000130 ee da a8 35 00 00 00 00 44 7c 35 35 db b2 29 36
       1.2580692e-06 0.0 6.7608585e-07 2.528707e-06
000140 49 1f b6 35 ef ba 72 35 56 38 c3 33 00 00 00 00
       1.3569162e-06 9.042405e-07 9.0906425e-08 0.0
000150 57 48 67 35 17 ca d1 33 00 00 00 00 a2 22 ff 35
       8.6159474e-07 9.769081e-08 0.0 1.900906e-06
000160 18 01 ae 33 33 42 49 32 06 ef 00 36 80 f0 a7 2a
       8.102705e-08 1.1714792e-08 1.9212616e-06 2.983204e-13
000170 f9 90 4a 28 0f 7b 1e 34 00 00 00 00 00 00 00 00
       1.12446885e-14 1.4759665e-07 0.0 0.0
000180 63 46 96 36 00 00 00 00 00 00 00 00 ff c1 57 34
       4.4785425e-06 0.0 0.0 2.0094011e-07
000190 00 00 00 00 00 00 00 00 11 8a c0 35 0b be 9e 35
       0.0 0.0 1.4345297e-06 1.1827227e-06
0001a0 fe 4b db 35 02 25 82 35 bf 38 8b 34 07 88 b6 2f
       1.6338888e-06 9.696525e-07 2.5932056e-07 3.320226e-10
0001b0 a6 12 a4 36 35 dd c0 30 ec f6 6d 35 00 00 00 00
       4.889752e-06 1.4032709e-09 8.86487e-07 0.0
0001c0 00 00 00 00 00 00 00 00 59 b3 57 32 1d f7 21 32
       0.0 0.0 1.2555426e-08 9.4276205e-09
0001d0 ac 80 9c 34 46 d9 bb 35 00 00 00 00 05 da 1f 34
       2.9150885e-07 1.3995821e-06 0.0 1.4887344e-07
0001e0 7a 7a fa 35 ab 47 99 34 6a 15 86 35 00 00 00 00
       1.8662097e-06 2.8550616e-07 9.99001e-07 0.0
0001f0 00 00 00 00 24 8e 9d 31 00 00 00 00 00 00 00 00
       0.0 4.585461e-09 0.0 0.0
000200 15 38 a4 2b 00 00 00 00 00 00 00 00 71 93 45 2f
       1.1668467e-12 0.0 0.0 1.7969427e-10
000210 00 00 00 00 00 00 00 00 88 36 76 33 32 d7 d6 34
       0.0 0.0 5.7325934e-08 4.001718e-07
000220 c9 8c 08 35 00 00 00 00 00 00 00 00 c8 7c 83 33
       5.086882e-07 0.0 0.0 6.1228604e-08
000230 00 00 00 00 83 b7 80 36 7a 2f 18 36 0d d8 0a 33
       0.0 3.836061e-06 2.26774e-06 3.2327126e-08
000240 00 00 00 00 6d 43 27 30 00 00 00 00 04 7c a9 28
       0.0 6.0850064e-10 0.0 1.8816552e-14
000250 00 00 00 00 58 0a 5c 31 00 00 00 00 5c dc 37 35
       0.0 3.2020093e-09 0.0 6.849348e-07
000260 31 8c 62 34 21 c5 5f 36 71 5a 5a 32 d1 8f e6 33
       2.1098892e-07 3.3344334e-06 1.2709834e-08 1.073637e-07
000270 14 29 0a 35 00 00 00 00 00 00 00 00 00 00 00 00
       5.146878e-07 0.0 0.0 0.0
000280 01 c4 5d 35 00 00 00 00 11 ad 82 34 00 00 00 00
       8.261414e-07 0.0 2.434031e-07 0.0
000290 ac 62 0c 35 92 76 64 36 76 54 a6 35 81 e4 2c 2d
       5.229765e-07 3.4043665e-06 1.2392545e-06 9.827806e-12
0002a0 00 00 00 00 00 00 00 00 01 23 3a 32 e9 dd 8f 32
       0.0 0.0 1.0834584e-08 1.6748304e-08
0002b0 00 00 00 00 00 00 00 00 27 3b 19 34 1e b5 2c 2f
       0.0 0.0 1.4270755e-07 1.5707655e-10
0002c0 00 00 00 00 81 57 00 35 00 00 00 00 37 98 1b 34
       0.0 4.781105e-07 0.0 1.4490875e-07
0002d0 00 00 00 00 00 00 00 00 36 85 83 31 b6 83 8f 34
       0.0 0.0 3.827746e-09 2.6731658e-07
0002e0 c2 c1 48 35 c6 b0 85 36 00 99 98 33 00 00 00 00
       7.478776e-07 3.984288e-06 7.105882e-08 0.0
0002f0 00 00 00 00 00 00 00 00 00 00 00 00 00 00 00 00
       0.0 0.0 0.0 0.0
000300 00 00 00 00 a5 fe 53 35 29 6d 1a 35 d3 64 78 35
       0.0 7.897418e-07 5.752832e-07 9.253392e-07
000310 00 00 00 00 77 8b 0c 36 c8 c8 6c 35 04 ed 3e 34
       0.0 2.0942805e-06 8.8209026e-07 1.7781355e-07
000320 00 00 00 00 00 00 00 00 ef da a8 35 00 00 00 00
       0.0 0.0 1.2580693e-06 0.0
000330 43 7c 35 35 db b2 29 36 49 1f b6 35 ef ba 72 35
       6.760858e-07 2.528707e-06 1.3569162e-06 9.042405e-07
000340 56 38 c3 33 00 00 00 00 56 48 67 35 17 ca d1 33
       9.0906425e-08 0.0 8.615947e-07 9.769081e-08
000350 00 00 00 00 a2 22 ff 35 17 01 ae 33 34 42 49 32
       0.0 1.900906e-06 8.1027046e-08 1.1714793e-08
000360 06 ef 00 36 80 f0 a7 2a f9 90 4a 28 0e 7b 1e 34
       1.9212616e-06 2.983204e-13 1.12446885e-14 1.4759664e-07
000370 00 00 00 00 00 00 00 00 61 46 96 36 00 00 00 00
       0.0 0.0 4.4785415e-06 0.0
000380 00 00 00 00 fe c1 57 34 00 00 00 00 00 00 00 00
       0.0 2.009401e-07 0.0 0.0
000390 10 8a c0 35 0a be 9e 35 fe 4b db 35 02 25 82 35
       1.4345296e-06 1.1827226e-06 1.6338888e-06 9.696525e-07
0003a0 c0 38 8b 34 09 88 b6 2f a5 12 a4 36 38 dd c0 30
       2.593206e-07 3.3202266e-10 4.8897514e-06 1.4032713e-09
0003b0 ec f6 6d 35 00 00 00 00 00 00 00 00 00 00 00 00
       8.86487e-07 0.0 0.0 0.0
0003c0 5a b3 57 32 1d f7 21 32 ab 80 9c 34 46 d9 bb 35
       1.2555427e-08 9.4276205e-09 2.9150883e-07 1.3995821e-06
0003d0 00 00 00 00 04 da 1f 34 7b 7a fa 35 ab 47 99 34
       0.0 1.4887343e-07 1.8662098e-06 2.8550616e-07
0003e0 6a 15 86 35 00 00 00 00 00 00 00 00 24 8e 9d 31
       9.99001e-07 0.0 0.0 4.585461e-09

exp_avg f4 [2]
000000 f6 93 1f 3e f6 93 1f be
       0.15583786 -0.15583786

exp_avg_sq f4 [2]
000000 f6 bf 44 3a f6 bf 44 3a
       0.0007505411 0.0007505411

lstm.weight_ih_l0 f4 [504, 1]
000000 d4 24 05 3d 81 55 2f bd 4e 30 0b 3d 24 82 82 bd
       0.032505825 -0.042806152 0.033981614 -0.063724786
000010 60 fa b7 bb 98 3b ad bc 84 16 5e 3d 74 3d b6 3d
       -0.005614564 -0.02114658 0.05422069 0.0889844
000020 c0 d4 0a bb f8 50 03 bc 68 33 5d 3c 34 f0 9e 3c
       -0.0021183938 -0.00801491 0.013501026 0.019401647
000030 10 20 b8 bc a0 90 39 3c a6 f1 05 3d 30 91 61 3c
       -0.022476226 0.011325985 0.032701157 0.013767526
000040 6a 0f b2 3d a3 9a b5 bd c1 5c 24 bd 5d 39 b3 bd
       0.08694346 -0.08867385 -0.04012752 -0.087511756
000050 68 0d fb bc 5d da 2f bd 20 28 95 3c 64 f5 7a 3d
       -0.030646041 -0.042932857 0.01820761 0.06126918
000060 c6 95 16 bd 1c 99 11 3d 39 ff ac bd f4 f5 a0 3d
       -0.03676393 0.035546407 -0.08447117 0.07859412
000070 c3 1f 75 bd ac b1 ce 3c 0b eb 9e bd 20 6c ed bb
       -0.059844743 0.025231205 -0.07759675 -0.0072455555
000080 be b6 8c bd 9c 49 7e 3d f7 29 34 bd 40 87 45 3d
       -0.06870793 0.062081918 -0.043985333 0.048224688
000090 70 eb 7c 3d b8 7f 88 3d 7a d9 98 3d 7a a1 a9 bd
       0.06174797 0.066649854 0.07463355 -0.08282752
0000a0 00 25 83 3d 20 f7 ff bb 24 19 f6 bc a8 bd 43 3c
       0.064035416 -0.007811442 -0.030041285 0.011947073
0000b0 c4 13 9e 3d 00 56 1c b9 ac 43 86 bd 44 f6 a4 bc
       0.07718614 -0.00014909357 -0.06555876 -0.02013696
0000c0 9c ba 8a 3d b0 c0 83 bd 98 28 20 3d 28 bf 06 bc
       0.06773874 -0.064332366 0.039101213 -0.008224286
0000d0 68 62 65 3d 1e a5 b0 3d d2 41 a5 3d fa b9 a7 bd
       0.05600205 0.086252436 0.08069195 -0.08189769
0000e0 38 e8 34 3d 5d de 43 bd 58 9b 2b bc 48 ba aa 3c
       0.044166774 -0.047819484 -0.010474049 0.020840779
0000f0 92 10 b6 bd 07 90 64 bd d0 40 1b 3c b8 76 73 3d
       -0.08889879 -0.055801418 0.009475902 0.05943939
000100 de 2d af 3d 9c 6d a8 bc 86 76 83 bd 30 5f 74 3d
       0.0855367 -0.020560078 -0.06419091 0.05966109
000110 86 ca 92 bd b4 0b ac 3d 80 b7 bf 3c 24 a4 17 bd
       -0.071675345 0.0840067 0.02340293 -0.03702177
000120 88 af b4 3d e8 0b 13 3d e8 96 63 3d 90 5a cd bb
       0.088225424 0.035900027 0.055563837 -0.0062668994
000130 51 e4 0e bd ec 87 73 bd bc f5 a5 3d 1f 82 03 bd
       -0.03488571 -0.059455797 0.08103511 -0.032106515
000140 f4 a5 b6 bc 4a 06 83 3d cc 18 d6 bc 00 20 e3 ba
       -0.02229593 0.06397684 -0.026134871 -0.0017328262
000150 30 b3 43 3d 10 ae 07 3d 26 fc 93 bd 50 1f 77 bd
       0.04777831 0.033124983 -0.07225828 -0.060332596
000160 88 ba 0e bc c3 f2 0b bd dc 4b 79 bd 30 2b 1b 3d
       -0.008711465 -0.034167062 -0.06086336 0.037882984
000170 40 15 2d 3c 30 d1 92 bc b4 c8 70 3d 27 78 81 bd
       0.010564148 -0.017922014 0.058785155 -0.06321745
000180 fd 63 69 bd dc a2 70 3d a8 9f 70 bd f8 15 37 3c
       -0.056980122 0.058749065 -0.05874601 0.011174671
000190 04 18 81 3c bc 66 2d bd d2 96 84 3d f4 96 84 bc
       0.015758522 -0.042334303 0.06474079 -0.016185261
0001a0 f8 58 63 bd 40 4f 27 bc cc f2 9d 3d e8 3f e1 bc
       -0.05550477 -0.010211766 0.077123255 -0.027496293
0001b0 b8 73 53 3d a2 65 19 bd e0 07 a5 bb 43 89 80 bd
       0.05162403 -0.03745044 -0.005036339 -0.062761806
0001c0 80 fc 13 3c 72 6b a3 bd 80 06 68 3a 1a 7b 85 bd
       0.009032369 -0.07979478 0.0008851066 -0.065176204
0001d0 cf ff ad bd 5c ba 15 3d 60 fe 76 3d 84 14 88 3d
       -0.08496057 0.03655468 0.060301185 0.06644538
0001e0 60 18 81 bd 46 44 b1 3d e4 07 a7 bd f0 c4 91 bc
       -0.06303477 0.086556 -0.08155802 -0.017794102
0001f0 00 fc fb b9 00 dc d7 3c 78 3b 09 bd b0 ed 1b 3d
       -0.00048062205 0.026350021 -0.03350398 0.038068473
000200 90 52 6c 3c e4 e3 2b 3d a4 9d 2e 3d c0 98 9d ba
       0.014423981 0.04196538 0.042630807 -0.0012023672
000210 9c 7c aa bc 50 e7 9f bc b0 a2 46 3d 44 13 10 3d
       -0.020811372 -0.019519478 0.048494995 0.035174623
000220 d8 2c 46 3d d4 63 91 3c 1c 19 80 bd 6d 60 13 bd
       0.04838261 0.017747797 -0.06254789 -0.03598063
000230 43 ee 8d bd d8 a6 a8 3d c6 3f a1 bd 3c 96 4f 3d
       -0.069302104 0.08234948 -0.07873492 0.050680384
000240 80 8a 79 3a cc f8 dd 3c e8 56 86 bc d0 84 69 bc
       0.00095192343 0.027096175 -0.016398862 -0.014252856
000250 62 a6 14 bd 5d ce 93 bd 68 3e 1c 3d 50 ca a4 bd
       -0.036291488 -0.07217095 0.038145453 -0.080464005
000260 e4 03 9d bc 06 4a 8c 3d 58 66 6e bc cc a7 8a 3c
       -0.019166894 0.06850056 -0.014550768 0.016925715
000270 94 93 cf bc 68 cf 31 bc d0 22 c9 3b 00 74 9e bd
       -0.025338925 -0.010852672 0.006138183 -0.07736969
000280 03 da a2 bd 60 f3 7f bb f8 37 f2 3c f1 51 53 bd
       -0.07951739 -0.0039054975 0.029567704 -0.051591817
000290 03 33 17 bd 3a a9 a0 3d 20 d4 41 3b 70 6a 9e 3d
       -0.036913883 0.078447774 0.00295759 0.07735145
0002a0 40 fc 11 3b 44 5b 91 3d d6 15 99 bd 98 ee 1f 3c
       0.0022275597 0.07097486 -0.07474868 0.009761475
0002b0 74 5f 45 3d fc 77 b2 bd 8f 1e 27 bd 2a 3a e6 bc
       0.048186734 -0.087142915 -0.040800627 -0.028103907
0002c0 80 38 51 3a 62 9c a6 bd 40 15 bc 3c dd 7d 4f bd
       0.00079811364 -0.081352964 0.022959352 -0.050657142
0002d0 10 f6 d7 3c 30 19 f7 bb 4a a3 b1 3d da 31 85 3d
       0.026362449 -0.0075408444 0.08673723 0.06503649
0002e0 e2 9e a5 bd d4 40 49 3d 4c 3d 0e bd c0 01 47 bd
       -0.08086945 0.04913409 -0.034726426 -0.048585653
0002f0 e6 fb 0d 3d 10 c8 65 bc ec a8 c3 3c d0 03 4c 3d
       0.034664057 -0.014024749 0.02388426 0.049808323
000300 34 2c 93 3d 00 d3 1e 3b 14 0b 49 3d f1 4e 1b bd
       0.071861655 0.0024234653 0.04908283 -0.03791708
000310 31 ea 3f bd fe e0 02 3d 68 86 88 bd aa 48 aa 3d
       -0.0468542 0.03195285 -0.06666261 0.08314641
000320 dc ba da bc f2 07 a5 3d 57 9e 2e bd 70 90 c7 3c
       -0.02670043 0.08058156 -0.042631473 0.024360865
000330 58 25 b6 bd 12 f5 02 3d f0 eb 73 bc b9 15 29 bd
       -0.088938415 0.031972 -0.014887795 -0.041280482
000340 0d f6 0d bd 28 e9 a1 bd a2 9d a7 bd a4 73 2a 3d
       -0.03465848 -0.07905799 -0.08184363 0.04161419
000350 65 72 2d bd 50 7d 92 3c 1e c8 82 bd 64 f4 69 3d
       -0.042345423 0.01788202 -0.063858256 0.057117835
000360 c9 eb ac bd 22 48 6f bd 2c bb 6b 3d 70 b2 20 3d
       -0.0844341 -0.0584184 0.057551548 0.03923267
000370 40 d0 8d bd 80 1e 86 3d d5 84 52 bd 8f 49 9b bd
       -0.06924486 0.06548786 -0.05139621 -0.075823896
000380 44 65 5d 3d 0c 73 8a bd 32 9a 82 3d 90 67 c4 3c
       0.054051653 -0.06760225 0.06377067 0.023975164
000390 92 21 a4 3d 9e e3 92 3d 78 ce 82 3d 4b 45 38 bd
       0.080142155 0.07172321 0.06387037 -0.044987958
0003a0 be d1 a3 3d 70 62 92 bc 40 03 9b 3a 6f 1b a7 bd
       0.079989895 -0.017869204 0.001182653 -0.081595294
0003b0 88 13 8e bd 08 7a ff 3c f0 9f af 3d d8 7e 35 3d
       -0.06937319 0.031186119 0.085754275 0.04431042
0003c0 b4 67 d4 3c 68 7b 98 bc 2c e6 ad 3c 13 10 aa bd
       0.025928356 -0.018613532 0.021227919 -0.08303847
0003d0 a8 d6 77 3d e2 61 f3 bc c2 96 74 bd 1e bd 06 3d
       0.060507447 -0.02970976 -0.059714086 0.0328952
0003e0 88 ed 3e 3d c2 0e 93 3d ea b9 98 3d 09 7e 91 bd
       0.046613246 0.07180549 0.07457335 -0.071041174
0003f0 dc 33 4b 3d 10 9d d4 3c 3a f5 43 bd 41 0d a9 bd
       0.049610004 0.0259538 -0.04784129 -0.08254481

lstm.weight_hh_l0 f4 [504, 126]
000000 e3 a2 8a bd 6f c5 aa bd 20 96 2f bb e1 0d ae bd
       -0.067693494 -0.08338439 -0.0026792362 -0.08498741
000010 2b de 29 bd d4 32 b1 3c 4a cf 25 bd 60 4d 59 bc
       -0.04147164 0.021630682 -0.04048089 -0.013263077
000020 be 76 4e bd e2 b4 89 bd 98 3a 97 3c e0 c5 5b bc
       -0.05040621 -0.06723954 0.018460557 -0.013413876
000030 c5 b9 90 bd 10 0b b5 3d 10 56 a7 3d ba 33 a2 3d
       -0.07066683 0.08840001 0.08170712 0.07920022
000040 70 67 2d 3c 9c 1f 22 3d 4e 4b 82 3d 04 c4 26 3d
       0.010583743 0.039580926 0.063620195 0.04071428
000050 90 8b b5 3b 46 2f a6 bd 80 b3 93 3d 58 7e 21 3d
       0.005540319 -0.081144854 0.07211971 0.03942713
000060 3c d5 9b bc 40 bc 62 3d 52 ff ee bc c0 f2 21 3d
       -0.019022577 0.05535531 -0.02917448 0.039538145
000070 7c 98 5c 3d d5 1e 73 bd 7c ad b0 bd 7c 44 97 bd
       0.053856358 -0.059355576 -0.086268395 -0.07386109
000080 fb 4b 6d bd 44 14 5e 3d ee 4d 99 3d 72 1f 04 3d
       -0.05793379 0.054218546 0.07485567 0.03225655
000090 b8 be 0f 3c 62 ef 94 bd d8 fc 27 bc 4c d8 70 3d
       0.008773498 -0.07272221 -0.010253154 0.058800027
0000a0 88 6c 7e 3d 98 82 87 3d 68 22 86 3d 81 df 44 bd
       0.062115222 0.06616706 0.06549531 -0.048064712
0000b0 86 c9 b5 3d 68 84 df 3c 8f 9d 45 bd 50 a0 89 bc
       0.08876328 0.027284816 -0.048245963 -0.016800076
0000c0 ae 90 b2 3d 40 88 86 3c a8 e6 c4 bc d0 dd b0 3c
       0.08719002 0.016422391 -0.024035767 0.021590143
0000d0 c8 83 c8 3c b8 39 f6 3c 40 11 98 3d 80 35 a0 bd
       0.0244769 0.03005682 0.07425165 -0.07822704
0000e0 0c b2 a3 3d 6f e8 97 bd 0a 2e 37 bd 10 e8 f7 bb
       0.07992944 -0.0741738 -0.04472164 -0.007565506
0000f0 20 f3 1b 3c fe 06 1e bd 38 dc 3f 3c bb ea a8 bd
       0.009518415 -0.038580887 0.011710219 -0.08247896
000100 4f 99 2f bd 2c e1 bd bc 90 4d 18 3d 24 63 3f 3d
       -0.042870816 -0.02317866 0.037183344 0.046725407
000110 ea 95 0a 3d 90 99 84 3d 38 5c 5d 3c e0 01 72 3d
       0.033834375 0.06474602 0.013510756 0.05908382
000120 72 c4 68 bd e6 b1 09 3d 00 07 1b bb e8 11 b0 3c
       -0.05682797 0.033616923 -0.0023655295 0.021492913
000130 8c b8 3f bd c1 f6 24 bd 34 3b f0 3c 50 a9 20 3c
       -0.046806857 -0.040274385 0.029325105 0.009805992
000140 24 3c 7d 3d a6 b7 ac 3d 38 6c 3e bc 9e 1c 8e bd
       0.061824933 0.08433466 -0.011622481 -0.06939052
000150 7b cf 4c bd 9e bf 88 bd 9c 06 b6 bd a0 4d d1 bc
       -0.050002556 -0.06677173 -0.088879794 -0.02554971
000160 04 75 e8 bc 90 5b 6a 3d 78 52 03 bc 75 49 8b bd
       -0.02837611 0.057216227 -0.008015268 -0.0680112
000170 8e 76 a1 3d 34 6c c4 3c ee d6 92 bd 8c a3 6f bd
       0.07883941 0.023977377 -0.07169901 -0.05850558
000180 16 2c a9 3d 14 52 59 3d 9c 39 1b 3d 5c 66 95 bc
       0.08260362 0.05305679 0.037896737 -0.018237285
000190 67 80 91 bd 0c db c7 bc 43 e5 73 bd c8 11 6d bc
       -0.07104569 -0.024396442 -0.059544813 -0.014469571
0001a0 da 1d 70 bd dc 5e ed bc f4 bd 31 3d e4 a7 90 bd
       -0.05862222 -0.028975897 0.043394044 -0.070632726
0001b0 e0 94 d0 bc 9c 9d 5c 3d 8b 8c 32 bd 90 2e 10 3c
       -0.025461614 0.053861246 -0.043591063 0.008800164
0001c0 8a 02 0b bd 64 76 a7 3d d3 88 2d bd 30 dc 55 bc
       -0.03393797 0.08176878 -0.042366814 -0.013052985
0001d0 bf d8 83 bd 80 44 f7 3c ca ab 72 bd 26 68 0e bd
       -0.064378254 0.03018403 -0.059245862 -0.034767292
0001e0 f8 7d 97 3c b0 5e 94 3d 70 6f 98 bd c2 94 dc bc
       0.018492684 0.07244623 -0.0744313 -0.026926402
0001f0 3c 15 1a 3d 38 17 55 bd 19 80 66 bd 92 25 8f 3d
       0.037617907 -0.052024096 -0.056274507 0.06989588
000200 48 48 6b 3d a0 c7 8e bc 94 9c 1c 3d 40 2f b6 3c
       0.05744198 -0.017429173 0.038235262 0.022239327
000210 c4 22 ab 3d 00 fd ab 3d 80 c3 59 bd f8 ee 66 bd
       0.083562404 0.08397865 -0.05316496 -0.056380242
000220 30 bd b4 bd e0 39 98 3d 80 38 23 3d 52 f1 6e bd
       -0.08825147 0.07432914 0.039848804 -0.05833561
000230 ab 2e b4 bd 38 e1 9e 3d a2 ed 72 bd 90 e4 d0 bb
       -0.08797964 0.07757801 -0.059308656 -0.006374903
000240 20 6e 44 3d 90 b8 a8 3b 24 e3 7a 3d 17 18 a8 bd
       0.047956586 0.0051489547 0.061251774 -0.0820772
000250 82 6c e0 bc a0 16 9a bd 68 1f 69 3d f6 49 dd bc
       -0.02739549 -0.075238466 0.056914717 -0.027012806
000260 c8 5d 91 3d 3d 03 5c bd be a3 56 bd 16 e5 f3 bc
       0.070979655 -0.053714026 -0.05240225 -0.029772323
000270 90 6f 71 bd e8 1c fe bc 7b f0 71 bd ec 3f 65 bd
       -0.058944285 -0.031019643 -0.05906723 -0.055969164
000280 2c 82 63 3d a8 7e 2c 3d b2 26 7f bd f6 c1 af 3d
       0.055544063 0.042112976 -0.062292762 0.08581917
000290 05 7d 16 bd a0 b5 5e bc 1e d1 96 bd fc ff 70 3d
       -0.03674032 -0.013593107 -0.07364105 0.058837876
0002a0 14 fb 4c bd 59 d4 2d bd 68 a6 c5 3c 8c 12 a7 3d
       -0.050044134 -0.04243884 0.0241272 0.081578344
0002b0 bc ff b7 bc a2 f9 51 bd 2c be ff 3c 90 cb 39 3c
       -0.02246081 -0.05126346 0.03121861 0.011340037
0002c0 40 cf 89 3d f8 d5 08 3c 6c 33 87 bc c0 a7 7c bc
       0.06728983 0.008351795 -0.016504012 -0.015420854
0002d0 60 ea 73 bd ac 55 68 3d 92 a8 02 3d 34 47 1f bd
       -0.05954969 0.056722328 0.031899042 -0.038886264
0002e0 75 fa 3a bd 90 1a 8f bd ef da 94 bd 4e aa 3b bd
       -0.04564901 -0.06987488 -0.07268321 -0.045816712
0002f0 e8 08 da 3c f8 87 a5 3d 74 0c d4 3c de 01 9e bd
       0.026615575 0.080825746 0.025884844 -0.077152
000300 00 a7 56 3a 58 6b 32 3d 24 53 3a 3d 20 c5 fa bb
       0.0008188337 0.043559402 0.045489445 -0.0076528937
000310 1c d5 eb 3c 14 71 ca 3c 3d a1 af bd 60 89 bd bb
       0.028788142 0.024712123 -0.08575676 -0.0057841986
000320 b5 79 5a bd 20 3e fe 3b 2f de 1b bd b0 f3 80 bb
       -0.053338725 0.0077588707 -0.038053688 -0.0039353
000330 fc ab 00 3d 18 12 9b 3d 0c 57 d9 bc a1 f7 b2 bd
       0.031414017 0.075718105 -0.026530765 -0.08738638
000340 c8 96 0d 3c fc 9e 32 bd 80 ac 79 bd 6f da 79 bd
       0.008641906 -0.04360865 -0.060955524 -0.06099933
000350 c8 7b 8a bd 38 86 58 bc f3 7b 21 bd 20 95 7c 3d
       -0.06761891 -0.013215594 -0.039424848 0.061665654
000360 f2 13 27 bd 8e 42 57 bd 98 73 43 bc 60 55 ca 3c
       -0.040790506 -0.052553706 -0.011929415 0.024698913
000370 42 2c 88 3d 80 b8 ef bb c8 ce 78 3d b6 54 9f 3d
       0.066490665 -0.0073156953 0.060744077 0.07779829
000380 f3 0d 9a bd 30 44 9b 3c 00 1d d7 3a 69 45 b1 bd
       -0.07522192 0.018953413 0.0016411841 -0.08655817
000390 dc d9 6f 3d 90 a6 f3 3b 3a b7 ab 3d ee c7 35 bd
       0.058557376 0.0074356273 0.08384557 -0.04438012
0003a0 30 7d 93 3d 64 0a fc bc 23 93 60 bd b6 36 a1 bd
       0.07201612 -0.030766673 -0.05482782 -0.078717634
0003b0 89 ab b0 bd 9a fd 5b bd bc 40 18 3d d0 a1 42 3d
       -0.08626468 -0.05370865 0.03717111 0.047517598
0003c0 00 2e ce b9 ed 28 2f bd 00 fc ee 3a ed 54 15 bd
       -0.00039325655 -0.04276364 0.0018233061 -0.036457945
0003d0 10 2a 65 bc 94 2f 50 3d a0 c8 16 3c 7c ab b6 bc
       -0.013987079 0.050826624 0.009203106 -0.022298567
0003e0 18 21 94 3d c4 e2 bb bc 90 f3 bb 3b 3b 14 9a bd
       0.07232875 -0.022935279 0.005735822 -0.0752339
0003f0 60 51 c1 bc 24 e6 a0 3c 08 eb a5 3d 9c a2 bd bc
       -0.023598373 0.01964099 0.08101469 -0.023148827

lstm.bias_ih_l0 f4 [504]
000000 44 7c a0 3d b8 83 6f 3d de fa 0e 3d b0 bd 7a bc
       0.07836202 0.058475226 0.034907214 -0.015304014
000010 ba 9a 38 bd 09 56 13 bd 8e 74 ac 3d 78 3b 0c 3d
       -0.045069434 -0.03597072 0.084206685 0.0342364
000020 d2 cc 81 3d 30 42 7c bc ac 70 83 bd bc 4c ae 3c
       0.063378945 -0.01539664 -0.06417975 0.021276824
000030 18 c1 92 bc cc 05 99 bc da ea 03 3d d4 4e 77 bd
       -0.01791434 -0.018679522 0.032206394 -0.06037791
000040 7e 9e b0 bd 10 72 d6 3b 50 91 85 bc 51 aa a1 bd
       -0.0862398 0.006544359 -0.016304642 -0.078938134
000050 a6 63 63 bd 8e 30 85 3d 38 30 ad bc 38 62 55 bd
       -0.055514954 0.06503402 -0.021141157 -0.05209562
000060 a8 33 6e 3d dc c5 5d 3d 60 77 44 3d 38 7c 2b 3d
       0.058154732 0.05414377 0.047965407 0.04186651
000070 12 33 ac 3d 70 dc 4e bc 30 62 47 3d 06 3d 03 bd
       0.084081784 -0.012625799 0.048677623 -0.03204062
000080 40 b5 92 bd 0c 9e 9f 3d f4 74 41 3d f2 a4 88 bd
       -0.07163477 0.07793817 0.047230676 -0.06672086
000090 b8 40 5f bc 70 d3 8d 3c e8 38 bd bc 24 0b d2 3c
       -0.01362627 0.017312735 -0.023098424 0.025640078
0000a0 86 aa b1 3d a6 7d f9 bc d0 71 89 3b bc 70 7a 3d
       0.08675103 -0.030455422 0.0041944757 0.061142668
0000b0 60 f7 ad 3b f0 1d 27 bc 54 22 a9 bc 11 9f 1c bd
       0.0053090304 -0.010200009 -0.020646252 -0.038237635
0000c0 24 cb 95 3c a4 de a5 bd b6 94 88 bd 14 7f 3c 3d
       0.018285342 -0.08099106 -0.06668989 0.04601963
0000d0 00 69 cc 3a d6 1e 0d 3d 57 6e b4 bd b8 80 fd 3c
       0.0015595257 0.034453236 -0.08810108 0.030945167
0000e0 08 65 20 3d ce 23 b4 bd 44 a4 9a bd 5c 45 aa bd
       0.03915885 -0.08795892 -0.075508624 -0.083140105
0000f0 83 9f 9a bd b0 80 66 3d bf ef 1c bd 0c 3d 39 3d
       -0.07549956 0.05627507 -0.038314577 0.045224234
000100 fa ee 0c bd 40 6f 52 3d 82 1e 96 bd a2 ce 9c bd
       -0.034407593 0.051375628 -0.07330038 -0.076565996
000110 8d 47 1c bd c0 37 65 3c 28 7f 66 bc d8 72 3b 3d
       -0.038154174 0.013990343 -0.014068402 0.04576382
000120 ad 99 82 bd 2c 65 83 3c 14 96 53 3d f8 2f 33 bc
       -0.063769676 0.016039453 0.051656798 -0.01093673
000130 48 d9 74 bc 64 34 5b 3d b0 e2 a3 3c 4c cd f5 3c
       -0.014944382 0.05351676 0.020005554 0.03000512
000140 da 80 ac bd a4 30 3a bd ee ee a1 bd 7f 3c 0e bd
       -0.08423014 -0.045456544 -0.079069 -0.034725662
000150 08 74 e1 3c 50 f9 51 bc 3c c5 2e 3d 0c 23 27 bd
       0.027521148 -0.012815788 0.042668566 -0.040804908
000160 c0 c0 85 3d 60 2c 9c 3c ec 33 a3 bc 65 99 9c bd
       0.06530905 0.019064128 -0.01992222 -0.07646445
000170 cc b6 64 3d e0 b0 53 3c f8 c3 20 bc 80 4c 98 bb
       0.05583839 0.012920588 -0.009812348 -0.0046477914
000180 a0 56 38 3d 54 82 72 bd b2 8f 12 3d f0 1c 18 3d
       0.045004487 -0.05920632 0.03578157 0.037136972
000190 be e1 a3 3d 8b 64 51 bd ea 14 3b bd c0 29 cf bb
       0.08002041 -0.051121276 -0.045674242 -0.0063221157
0001a0 9c 9d 43 bd ec 7d 49 bd c0 65 a2 3c 00 f2 65 b9
       -0.04775773 -0.049192354 0.019823909 -0.00021929294
0001b0 4c 93 3b 3d 5f 71 44 bd 8c ba 06 3d a0 b4 cb bb
       0.04579477 -0.04795968 0.03289275 -0.0062166005
0001c0 ec 93 13 3d b6 25 66 bd 34 2b 2d 3d d1 fc 83 bd
       0.03602974 -0.056188308 0.04227753 -0.06444705
0001d0 68 00 8b bd b2 de 65 bd 29 cf 46 bd a2 12 a4 bd
       -0.06787187 -0.056120582 -0.048537407 -0.080113664
0001e0 f0 00 c9 3b 15 7a 0b bd da 49 02 3d e8 79 b3 bc
       0.006134145 -0.034051973 0.03180871 -0.021908715
0001f0 20 78 1f 3d 60 95 13 bd a6 1f 91 3d 48 79 89 3d
       0.03893292 -0.036031127 0.070861146 0.06712586
000200 1c ca 40 bd 20 b3 b3 3d 50 75 83 3d a8 37 b8 bc
       -0.047067747 0.087744 0.0641886 -0.022487476
000210 40 11 28 3d 96 40 90 bd 70 7a bf 3c bc d2 95 bc
       0.041032076 -0.07043569 0.023373812 -0.018288963
000220 09 7c 4f bd 90 97 62 3d ce 3c 0d bd 08 2a a4 bd
       -0.0506554 0.055320323 -0.034481816 -0.08015829
000230 b6 7a a7 bd b4 20 91 bc 7e 53 b2 3d 08 c8 55 bd
       -0.08177702 -0.01771579 0.08707331 -0.052192718
000240 6d 15 14 bd b4 49 a7 3d 10 f3 8f 3d ba 54 84 bd
       -0.036153246 0.08168355 0.07028782 -0.06461473
000250 7c 46 97 bd 1c f1 34 3d b0 86 22 3d fa e3 66 bd
       -0.07386491 0.044175252 0.03967923 -0.05636976
000260 77 66 85 bd 08 f4 79 3c 1a 82 a2 bd 46 ff aa bd
       -0.06513684 0.0152559355 -0.07934971 -0.08349471
000270 00 fa a9 bd 82 c1 80 bd e0 7e 8d 3c 80 4b 9b 3d
       -0.08299637 -0.06286909 0.017272413 0.0758276
000280 c4 cd a3 3d 30 a2 1f 3d b3 b6 37 bd b2 7f b2 3d
       0.07998231 0.038973033 -0.04485197 0.08715762
000290 0c ca 13 bd 9c 6c 15 3d fc 5b a6 bd 80 9f a1 3a
       -0.03608136 0.03648053 -0.081230134 0.001233086
0002a0 cc 98 85 bc 4a d8 a2 3d 3c 53 d2 bc 5c 1a a8 3d
       -0.01630821 0.0795141 -0.025674455 0.08208153
0002b0 49 89 3f bd fc 99 cd bc 60 23 9d 3b 1a 2c 00 3d
       -0.046761785 -0.02509784 0.004795477 0.03129206
0002c0 d8 f4 c6 bc 9c fc 8c bc 90 91 e1 3b 4c d8 bd 3c
       -0.024286672 -0.017210297 0.0068838075 0.023174427
0002d0 80 44 4f 3c 55 fd 9c bd d0 07 c5 bc 71 d3 a8 bd
       0.012650609 -0.07665507 -0.024051577 -0.08243454
0002e0 1c b8 cb 3c fc 89 6a 3d 4c a0 cc 3c 44 b9 32 3d
       0.024868064 0.0572605 0.02497878 0.043633714
0002f0 66 81 b5 3d 00 08 a8 3a 40 78 28 3d bc e9 2a 3d
       0.088625714 0.0012819767 0.041130304 0.041726813
000300 d5 fa 68 bd d7 b1 27 bd dc 26 8b 3d b0 b3 7c 3d
       -0.056879837 -0.040941086 0.06794521 0.0616948
000310 30 2f 16 bc 41 0f 8b bd 6b 70 18 bd 2c 42 6d bd
       -0.009166524 -0.06790019 -0.037216585 -0.057924435
000320 bf 3f a0 bd a0 bd d1 3c e8 d9 99 bd 14 5b 16 3d
       -0.078246586 0.025603116 -0.075122654 0.036707953
000330 0a 8f 96 3d f0 35 34 bd cc 6b da bc bc af a3 3d
       0.07351501 -0.04399675 -0.02666273 0.07992503
000340 a0 59 f0 3c 00 52 e9 3c 54 e5 3e 3d ee 94 7c bd
       0.029339612 0.028481483 0.046605423 -0.061665468
000350 00 bc a1 3b 8c 01 ae 3d 3f 77 3f bd 30 96 75 bc
       0.0049357414 0.08496389 -0.04674458 -0.014989421
000360 f4 39 ea 3c b0 1b a2 bb 0c ae 1d bd 3c f4 b1 3d
       0.028592087 -0.0049471483 -0.038496062 0.08689162
000370 8c 5c 8b 3d 72 5f 75 bd 90 4b 62 3c 58 18 d4 3c
       0.06804761 -0.059905477 0.013811961 0.025890514
000380 6b 05 a1 bd 54 57 98 3d d1 68 99 bd f2 84 76 bd
       -0.078623615 0.074385315 -0.07490695 -0.06018538
000390 aa d5 a4 3d b8 e5 73 bc 38 39 00 3d 0a 65 90 3d
       0.08048566 -0.014886312 0.031304568 0.07050522
0003a0 20 2a 4d bd 80 c8 16 bd 5a 7b a7 3d e8 14 47 bd
       -0.050089 -0.036812305 0.08177824 -0.048603922
0003b0 48 51 88 bd 1c b4 9c bd e8 31 05 bc 02 6c 52 bd
       -0.06656128 -0.07651541 -0.008129574 -0.051372536
0003c0 50 85 84 3b aa 3a b1 bd 0c 5c 90 bd 7c 55 64 3d
       0.0040442124 -0.086537674 -0.070488065 0.055745587
0003d0 2c 13 a7 3c 68 26 9f bd 00 20 64 bb 20 e3 64 bc
       0.020394884 -0.07770997 -0.0034809113 -0.013970166
0003e0 24 84 9c bc ac 9e 4f 3d c0 d0 e8 3b 10 0b f1 3b
       -0.019105978 0.05068843 0.007104963 0.007356055
0003f0 d6 fa 7f bd b8 6c 00 bd 98 ce 20 3c 79 67 55 bd
       -0.062495075 -0.031353682 0.009814881 -0.052100632

lstm.bias_hh_l0 f4 [504]
000000 d8 ce 71 3d a0 63 24 3b 5a 6a 11 3d fc 9e 88 bd
       0.059035152 0.0025083795 0.035501815 -0.06670949
000010 64 3f b2 3d c8 a0 35 bc 88 12 84 bc 62 f1 86 bd
       0.08703497 -0.0110856965 -0.016122118 -0.06589009
000020 86 f0 64 bd 4a 2d 04 bd e6 0c 8e 3d c9 a5 25 bd
       -0.055893444 -0.032269754 0.06936054 -0.04044131
000030 bc f3 54 3d 5c 03 06 bd 88 d9 61 3c db 62 aa bd
       0.051990256 -0.032718047 0.013784774 -0.083196364
000040 5c cd 83 3c 54 2f c7 3c 75 13 56 bd f0 8e 26 bd
       0.016089134 0.02431456 -0.05226465 -0.04066366
000050 7c be 3e 3d d0 63 c5 bb 3b 8e 92 bd c4 30 c0 3c
       0.04656838 -0.0060238615 -0.071560346 0.023460753
000060 34 80 f2 bc 08 e8 82 bd dc 26 bf 3c 54 6c b3 3d
       -0.029602148 -0.06391913 0.02333396 0.08760896
000070 f3 60 af bd 40 e0 16 bd 72 45 ae 3d 98 54 23 3d
       -0.085634135 -0.036834955 0.085093394 0.039875597
000080 cf 01 11 bd e0 87 fb bc bc 86 a6 3d 4f a4 99 bd
       -0.035402115 -0.030704439 0.08131167 -0.075020425
000090 d8 4a 98 bc 71 2f ac bd 1f c5 01 bd 34 c4 21 3d
       -0.018590376 -0.08407486 -0.03168213 0.039493755
0000a0 09 7c 19 bd 3a 88 4a bd b7 5c 35 bd 4b 62 b5 bd
       -0.037471805 -0.049446322 -0.044277873 -0.088566385
0000b0 4c 70 b1 bd 90 fd 95 bd 2c 95 96 3d 1c f1 80 bc
       -0.08663997 -0.07323754 0.07352671 -0.01573997
0000c0 f8 5d 9f bc 88 b5 e4 3c 20 57 53 3d d0 b5 90 bd
       -0.019453987 0.027918592 0.05159676 -0.07065928
0000d0 90 a1 6f 3d 30 73 44 bc 94 ec 3b 3d 50 a2 8c bd
       0.058503687 -0.011990353 0.045879915 -0.06866896
0000e0 c0 08 ad bd 3c 27 86 3d b0 15 82 3c 58 5e 30 3d
       -0.084489346 0.06550452 0.015879482 0.043058723
0000f0 1e 57 93 3d 3a 31 a2 3d e4 f4 80 3c 34 ab 25 3d
       0.07194351 0.079195455 0.015741773 0.040446475
000100 b8 ae 6e 3d 14 2b c6 bc ef e7 a5 bd fe 47 22 bd
       0.058272094 -0.024190463 -0.081008784 -0.03961944
000110 00 f5 aa ba f0 21 cc 3b b5 73 95 bd be 66 5e bd
       -0.0013042986 0.0062296316 -0.0729746 -0.0542972
000120 0e 84 34 bd 9c 44 b3 bd 8f f8 21 bd 80 26 b0 bd
       -0.04407125 -0.087533206 -0.039543685 -0.08601093
000130 b0 6e 43 3c c0 fa ee 3b cc af 9f 3d 7c a2 a6 3d
       0.011928245 0.0072930753 0.077972025 0.0813646
000140 dd 18 ab bd 75 1a b6 bd 08 a0 a5 3d 97 e8 7e bd
       -0.08354352 -0.08891765 0.08087164 -0.062233534
000150 14 b3 3d 3d 44 34 aa 3c ae 52 94 3d 70 54 42 3d
       0.04631336 0.020776875 0.072423324 0.047443807
000160 b3 05 2a bd 2c 36 5a 3d 40 e6 7a bd 44 09 9c 3d
       -0.04150934 0.05327432 -0.06125474 0.07618955
000170 f4 3e 70 3d b5 89 8a bd 78 a3 93 3d 86 c4 0e 3d
       0.058653787 -0.06764547 0.072089136 0.034855388
000180 46 39 6d bd 60 3b 32 3d 00 69 3b 3d 98 26 af bc
       -0.05791595 0.043513656 0.045754433 -0.021380708
000190 00 2d 51 3a b0 47 2f 3c 80 fa 1c 3d ad 31 a8 bd
       0.0007979423 0.010698244 0.038324833 -0.082126
0001a0 c8 db 89 3d 6f 70 57 bd 9e d0 8c 3d 38 a9 3b 3d
       0.06731373 -0.05259746 0.06875728 0.045815676
0001b0 ac 1e 13 3d 12 57 8c 3d 18 cc b5 3d 20 b2 48 3d
       0.035917923 0.06852545 0.088768184 0.048998
0001c0 e0 6b d0 bc 84 4d 1a bd 40 1a a4 bb f5 51 3d bd
       -0.025442064 -0.03767158 -0.005008012 -0.04622074
0001d0 58 59 8f bd 5c 4f e7 3c 1e 15 81 3d 32 9b 82 3d
       -0.06999463 0.028236084 0.06302856 0.063772574
0001e0 0d ac 94 bd 9c e4 79 bd 54 d6 65 3d a8 66 ec 3c
       -0.072593786 -0.061009035 0.056112602 0.028857544
0001f0 ac ec 27 bd 96 ce 11 3d a8 f2 9b 3d 90 13 a8 bc
       -0.040997192 0.035597406 0.076146424 -0.02051714
000200 c0 c0 c9 3a 24 44 9b bd 14 64 91 bd d0 a8 e0 bb
       0.0015392527 -0.07581356 -0.070991665 -0.0068560615
000210 b0 83 f6 bb 4c 25 7e bd e2 46 01 3d f4 8e d0 bc
       -0.0075230226 -0.062047288 0.03156174 -0.02545879
000220 f8 fd ef 3c 08 7f 65 bc 91 4c 39 bd 88 51 c5 bc
       0.029295906 -0.014007337 -0.045239035 -0.024086729
000230 30 39 6f 3c 44 b7 2c 3d 4c f0 43 3d 9c 5d e5 3c
       0.014601037 0.042166963 0.047836587 0.027998738
000240 c0 3f 86 bd 04 db 39 bd 34 3b d9 bc d8 f5 af 3c
       -0.06555128 -0.045374885 -0.026517488 0.021479532
000250 c0 15 c8 bc 68 38 6e bd 70 f7 07 bd ab fd a8 bd
       -0.024424434 -0.058159262 -0.03319496 -0.08251508
000260 78 ba 42 3d 21 71 26 bd bc c0 02 bd 54 e0 93 3d
       0.04754111 -0.040635232 -0.031922087 0.072205216
000270 fc e7 a8 3d 19 40 64 bd 40 5e 95 3b 20 e4 30 bc
       0.082473725 -0.05572519 0.0045583546 -0.010796577
000280 a4 ef fe 3c 40 e4 77 bd ee 8b 40 bd 10 83 5d 3d
       0.031120129 -0.06052041 -0.047008447 0.05408007
000290 bc cb 96 3d 78 b9 e3 3c d8 5b 87 3c da fb 08 3d
       0.07363078 0.0277984 0.016523287 0.03344331
0002a0 24 e3 08 3d 80 3e 7b ba 88 6c 18 3c e0 fb 3d 3d
       0.033419743 -0.00095842034 0.00930322 0.046382785
0002b0 0b 0b 0a bd 9a 11 af 3d 1a 61 a6 bd 82 54 a0 3d
       -0.033701938 0.08548279 -0.081239894 0.078286186
0002c0 de d4 8d bd 24 da 9d bc 32 b3 9e 3d 60 b8 90 3d
       -0.06925367 -0.019269057 0.077490225 0.07066417
0002d0 1e 06 96 bd c8 f8 ae bd 0d b6 0c bd 90 40 9b 3d
       -0.073253855 -0.08543545 -0.034353305 0.07580674
0002e0 f7 1c 6d bd 5a c4 30 bd 7a d7 92 bd ba a3 a1 bd
       -0.05788895 -0.043156005 -0.07170005 -0.078925565
0002f0 b4 88 c2 3c 50 34 fe 3b 60 89 ff 3b 3c 5e c4 bc
       0.023746826 0.007757701 0.007798359 -0.023970716
000300 f4 90 40 3d 02 c5 95 3d 08 2d 78 bc bc cb 91 bd
       0.047013238 0.07312967 -0.015147455 -0.071189374
000310 b8 ea 60 bd 8c 0c 04 3d c0 db a1 3b 60 46 0a bd
       -0.054911345 0.032238528 0.0049395263 -0.03375852
000320 24 a6 74 3d 28 40 7b 3d 22 67 a1 3d 58 ba c0 3c
       0.059728757 0.06134048 0.07880999 0.023526356
000330 60 1d 6c 3d d6 8c a6 3d da 25 af 3d 05 89 8d bd
       0.0576452 0.08132331 0.085521415 -0.069109
000340 01 26 39 bd f1 96 30 bd 80 5e 50 3a a0 98 06 bc
       -0.04520226 -0.0431127 0.0007948652 -0.0082151
000350 fc 75 be bc d0 16 21 3d e0 19 53 bc be 04 96 bd
       -0.023249619 0.039328396 -0.012884587 -0.07325123
000360 a0 58 40 3c fc fe ae 3c 00 ea 0f 3b fc 11 a9 3c
       0.01173988 0.02136182 0.0021959543 0.020638458
000370 e4 05 6a 3d f4 8c 6d 3d 5d 9a 3d bd 14 b6 ae 3d
       0.057134524 0.05799575 -0.04628979 0.085308224
000380 b4 6a a9 3c b0 ae 4e 3d 6c 4d 50 bd 00 70 a5 3d
       0.020680763 0.050459564 -0.050855085 0.08078003
000390 78 63 16 3d 62 60 18 bd 32 65 8d bd 40 e8 f6 3a
       0.036715955 -0.037201293 -0.06904067 0.0018837526
0003a0 c8 63 52 3d 18 bd 98 3d 40 58 1d 3b b8 ed 9e bc
       0.05136469 0.07457942 0.00240089 -0.019400463
0003b0 70 2f cf 3b 04 eb 8d 3d a2 41 e5 bc 88 09 d2 3c
       0.0063227937 0.06929591 -0.027985398 0.02563931
0003c0 47 85 28 bd f3 e6 4e bd 94 05 bf bc e0 a4 19 bb
       -0.04114273 -0.05051322 -0.02331809 -0.002344422
0003d0 c8 af 54 3d 66 e8 08 3d 51 17 54 bd 41 87 b1 bd
       0.05192545 0.033424757 -0.05178005 -0.08668376
0003e0 48 8f a9 bc 00 58 a0 3a 9a 63 0c bd b8 9e 0c 3d
       -0.020698205 0.0012233257 -0.034274675 0.034331053
0003f0 30 08 76 bd 20 85 c5 3b 4a 9a 14 bd ea db 8b bd
       -0.060066402 0.0060278326 -0.036279954 -0.06829055

classifier.2.weight f4 [2, 126]
000000 d9 f9 8b bd ee 84 de bc c5 2b 38 3d b4 69 75 bd
       -0.06834764 -0.027162995 0.044963617 -0.05991526
000010 86 f7 97 bd 9e 39 80 3d 98 21 22 bc 0c 19 33 bd
       -0.07420258 0.062609896 -0.009895705 -0.04372506
000020 c4 0c b1 3d b3 3f e9 ba 0e 97 2f 3d 2c 37 a7 bd
       0.08645013 -0.0017795473 0.042868666 -0.0816482
000030 43 aa 15 bd 99 c9 3e bd 24 b2 dc 3c 9c 62 30 3d
       -0.036539327 -0.046578977 0.026940413 0.04306279
000040 c2 44 fe bb 61 b7 8c bd d8 7a 2d 3c e3 96 7f bc
       -0.0077596614 -0.06870914 0.01058837 -0.015599939
000050 06 d5 b0 3d 4e 4c e8 3b 0e df 96 bd 62 d5 ad 3d
       0.08634381 0.0070891744 -0.07366763 0.08487965
000060 ec 97 be 3c 92 1e ae 3d 02 4f c2 3b ec 47 26 bd
       0.023265801 0.085019246 0.0059298286 -0.040595934
000070 b4 c5 5c bd 30 9b 88 bd a3 d3 ab 3c 70 88 1b bc
       -0.053899482 -0.06670225 0.02097494 -0.009492978
000080 06 13 8b 3d 58 dc 29 bc c7 a7 81 bd 90 11 a3 3b
       0.06790738 -0.010367475 -0.06330829 0.004976459
000090 b1 11 29 bd f0 96 53 3c 7d d7 92 bd 34 d5 cd 3c
       -0.041276637 0.012914404 -0.071700074 0.025126077
0000a0 47 5e fc bc ed 45 29 bd 60 b2 8d 3d fc 05 8e 3d
       -0.030806674 -0.041326452 0.06918788 0.06934735
0000b0 26 46 64 3d eb 19 d2 3c 46 d8 a8 bd 25 49 a0 bd
       0.05573096 0.025647124 -0.08244376 -0.07826451
0000c0 79 e7 80 bd f2 9c 19 bc 6c d7 99 bd 76 e4 df 3c
       -0.0629415 -0.009375798 -0.075117916 0.027330618
0000d0 d8 8d a8 3d a7 2e c6 3c e0 f1 24 3d 8c 7f 21 bd
       0.082301795 0.024192167 0.040269732 -0.03942828
0000e0 5e ce 81 bd ce 9d 9e 3d 91 09 14 bc 31 d5 ae bd
       -0.063381895 0.077449426 -0.009035484 -0.08536757
0000f0 77 8a c4 3b 34 e1 5e bd a6 13 da bc 82 3b b5 3d
       0.0059979516 -0.05441399 -0.026620697 0.08849241
000100 84 72 bd 3c ac ab 4a 3d b9 02 0a bd 85 36 94 bd
       0.023125894 0.049480125 -0.033694003 -0.07236961
000110 f5 d3 8b 3d a9 66 a0 bd b6 c5 8e 3d f8 10 80 3d
       0.06827537 -0.07832081 0.06971304 0.062532365
000120 51 6f 8e bd a6 45 82 bd 70 b1 f2 3b c0 b5 23 3d
       -0.06954826 -0.06360941 0.007406406 0.039968252
000130 e0 53 90 3d 98 13 7a 3d 88 92 b1 bd 90 c7 a2 bd
       0.07047248 0.061053842 -0.08670527 -0.0794822
000140 64 a2 9b bd 90 c4 91 3c 83 67 30 3c 3f 36 4b bd
       -0.07599333 0.017793924 0.010766867 -0.04961228
000150 f2 ec c8 bc 7a b2 40 bc 90 89 9a bd b2 27 8f 3d
       -0.024527047 -0.011761302 -0.07545769 0.06989993
000160 b5 05 b8 bd 08 e1 32 3d a5 21 30 bc 41 d1 a5 3c
       -0.089854635 0.043671638 -0.010750209 0.020241382
000170 4e 8d 6f 3b a1 ff 5d bd 82 01 8d bd a8 9c d6 bc
       0.003655273 -0.054198865 -0.06885053 -0.026197746
000180 34 c6 76 bd 58 82 40 bc 70 6b 21 3d 56 6b 93 3c
       -0.060247615 -0.011749826 0.0394091 0.017995518
000190 0c 1c f5 3c ea e8 03 bd 97 a6 b5 bc f2 4a 21 bd
       0.0299206 -0.032204546 -0.022174163 -0.039378114
0001a0 79 17 53 bd 48 df 85 3d 33 2d c2 3c 03 9b 2e 3d
       -0.051536057 0.06536728 0.023703193 0.0426283
0001b0 a5 cc 92 bd 21 71 50 bd 57 49 aa bd 7f 74 95 bd
       -0.07167939 -0.050889138 -0.0831477 -0.072976105
0001c0 2a 72 87 3d 78 c4 08 3d 6d 4f 76 bd 0d bc 4b bd
       0.06613572 0.033390492 -0.06013434 -0.049739886
0001d0 9d 9b a9 bc 04 8c 8b 3c 0e 90 42 bd 04 79 33 bd
       -0.020704085 0.017034538 -0.047500663 -0.04381658
0001e0 bc e6 44 3c 9c 14 43 bd 14 54 3f bc 00 30 40 bd
       0.012017902 -0.047627077 -0.011677761 -0.046920776
0001f0 20 72 38 3d b0 06 83 bd d0 e2 f9 3c 5c 8e 77 bd
       0.045030713 -0.0639776 0.03050366 -0.0604385
000200 0c 94 ac 3d 7a a2 5f bd 4e 3b 8c 3d ea 5e 95 3d
       0.08426675 -0.05459831 0.06847249 0.07293494
000210 d4 6e a2 3c 88 d9 58 3d 90 98 d8 3c 90 3b 8c 3d
       0.019828238 0.05294183 0.026439935 0.06847298
000220 c6 2c 93 bd 80 31 5c ba 10 f7 88 bd a2 c5 90 bd
       -0.07186274 -0.000839971 -0.066877484 -0.070689455
000230 7c 03 81 bc 64 21 18 bb c0 72 81 bd 3d 6f a5 bd
       -0.015748732 -0.0023213262 -0.06320715 -0.08077858
000240 dc b7 95 3d c8 02 3b bd e0 4b e8 bb 75 b3 86 bd
       0.07310459 -0.04565695 -0.007089123 -0.065771975
000250 d8 30 76 bc 06 55 1c 3d e8 9e b2 bc a1 0a 6d 3d
       -0.015026294 0.038167022 -0.021804288 0.057871465
000260 fb 70 03 bd 5f 2c ba 3d 14 2e b3 3d c3 4d 83 3b
       -0.03209017 0.09090494 0.08749023 0.0040070727
000270 29 64 c2 3c e4 fc a7 3d a0 62 2e 3d 6a 09 01 3d
       0.0237294 0.08202532 0.042574525 0.03150312
000280 ba f6 46 3b d4 3a b8 3c 1a 74 77 3d 6c 79 b5 bc
       0.0030359463 0.022488989 0.060413457 -0.022152625
000290 4b 22 90 bd 01 b2 04 3d 58 6b 0a bd 03 6b aa 3d
       -0.07037791 0.03239632 -0.033793777 0.08321192
0002a0 bc b3 57 3d cc 2f 71 3d de 1c 48 3d b0 c5 2b bd
       0.052661642 0.058883473 0.048855655 -0.041936576
0002b0 9c 4e e7 3c 54 91 e9 3c e4 ad 40 3d 6c 93 1f 3d
       0.028235726 0.02851168 0.047040835 0.03895895
0002c0 6c b4 1b bd 0f 1e 89 3d 07 e1 a8 bd b2 0e 92 bd
       -0.03801386 0.06695186 -0.082460456 -0.07131709
0002d0 b0 ce 85 3d 5c de 78 bd 9e 51 15 3d 28 84 33 bd
       0.06533563 -0.060758933 0.03645479 -0.043827206
0002e0 6f af b0 3d 35 79 31 bc fd c6 89 3d 42 ff 8a bd
       0.08627211 -0.010832121 0.06727407 -0.06786968
0002f0 04 9d e5 bc c0 6c f7 3b 76 9a b0 bd 18 9a 30 bc
       -0.028028972 0.007550806 -0.08623211 -0.010778926
000300 00 b6 b8 b9 74 1b 59 bd 40 ca 07 bd b5 1d 33 3d
       -0.00035230815 -0.053004697 -0.033151865 0.043729503
000310 ca 7d 78 bd 43 4d 9e bc 6f db af bd 36 d5 7b bd
       -0.060666837 -0.01932395 -0.085867755 -0.06148263
000320 c6 df 3d bd c0 02 53 3c 9d 1f 8c bd 38 57 bd bc
       -0.046355985 0.012879074 -0.06841967 -0.023112878
000330 6e 1a ba bc f9 5d 5b bc a8 52 6c 3c d6 25 ae bd
       -0.02271768 -0.013389104 0.014424004 -0.085033104
000340 06 cb a4 3d b0 53 96 3c f4 0f 67 b9 f9 54 1f 3c
       0.08046536 0.018350452 -0.0002203582 0.009724849
000350 b8 dc 6d 3d 10 e7 75 bd af 91 2f bd 1a 90 3e bd
       0.058071822 -0.06003481 -0.042863544 -0.046524145
000360 90 e4 9a 3d a9 e3 e4 bc 1e 61 95 3d f6 74 98 bd
       0.07563126 -0.027940588 0.07293914 -0.074441835
000370 a8 5e 3b 3d ad f5 29 bd 9a 65 b9 3c d1 6d 21 bd
       0.045744568 -0.04149406 0.022631455 -0.03941137
000380 a4 ab 76 bd 68 35 aa 3d d0 16 80 bd 88 22 b3 3d
       -0.060222283 0.08310968 -0.06254351 0.08746821
000390 6a f0 bf 3c 04 18 b6 3d 25 81 5e 3d dc 42 fd 3c
       0.023430068 0.08891299 0.05432238 0.03091567
0003a0 d9 61 aa 3c f3 75 92 3c 03 3d 9c bd b5 55 85 3d
       0.02079861 0.017878508 -0.076288246 0.06510488
0003b0 40 c2 e7 bc 7c 97 3d 3d f8 6e 66 bc 91 58 11 bd
       -0.028290868 0.046287045 -0.014064543 -0.035484854
0003c0 58 6a 3c bd 7e 6b fb bc 02 3c 93 3d ad a7 36 bd
       -0.045999855 -0.030690905 0.0718918 -0.0445935
0003d0 cc 39 a4 3c 6b bb 6f bc 37 8e f1 3c fe 26 7b 3d
       0.020047091 -0.014632086 0.029486759 0.061316483
0003e0 a9 15 96 3b 14 88 2f 3d 64 4e a8 bc 1e 2e 84 3d
       0.004580219 0.042854384 -0.020545192 0.06454109

classifier.2.bias f4 [2]
000000 d0 a8 14 3d a5 b7 d8 3c
       0.036293805 0.026454756
